data/results/random_unitary/L=20/obs_t=20.0/latent-8_epochs-50000.dat_final.net.pkl (torch_old, 154216 bytes, 8 tensors)

weight f4 [400, 36]
000000 50 4e 60 3d 03 a3 43 3e fb f0 fb bb 9c 42 96 bd
       0.054762185 0.19105153 -0.007688639 -0.073369235
000010 34 24 78 3d c1 b3 d9 3c aa 0a 2d bc e4 24 5e 3e
       0.0605814 0.026574971 -0.010561625 0.2169376
000020 6a 71 2f be 85 29 1b be 70 e4 b9 3c ff e0 5f 3c
       -0.17133108 -0.15152557 0.022691935 0.013664483
000030 7f 2a 69 3d 40 2d 89 3c 9f 15 c7 3d cf fd ff ba
       0.056925293 0.01674521 0.09720921 -0.0019530597
000040 57 67 d7 3d 72 f7 32 be 33 25 29 3c 51 b5 ef bd
       0.105177574 -0.17477205 0.01032381 -0.11704505
000050 38 63 dc bd a9 66 b5 be 94 99 c6 3d 95 4e 0c 3e
       -0.10761112 -0.35429886 0.096972615 0.13701852
000060 be 77 24 3e ba 52 c1 be 28 01 06 bd 25 4c 9e bc
       0.16061303 -0.37758428 -0.032715946 -0.019323418
000070 82 f7 4f bd 27 06 15 3d b6 fa cf bc 57 df 49 bd
       -0.05077315 0.03638282 -0.025388103 -0.04928526
000080 6f ed 40 be 21 dd 3e 3e a0 92 c5 3d ac c2 8c 3d
       -0.18840574 0.18639041 0.09647107 0.06873068
000090 25 e2 3f be e9 11 a0 3e bc e2 20 be a5 ae 59 be
       -0.18738611 0.31263664 -0.15711492 -0.21258028
0000a0 82 06 eb bd 3c a1 27 be 90 f1 4d be a0 9d 29 3e
       -0.11475851 -0.163701 -0.2011168 0.16564035
0000b0 01 01 63 3e 57 53 37 3e 51 e2 ee bd c2 7a a0 bd
       0.22168352 0.17902885 -0.1166426 -0.07835914
0000c0 d1 a5 9a 3c bb b6 34 be 41 30 91 3d 61 cf 1f ba
       0.018877896 -0.17647831 0.07089282 -0.00060962705
0000d0 6c 23 72 3d f5 28 dd 3d 56 d1 56 3b 5e 37 de bd
       0.059115812 0.107988276 0.0032778583 -0.10850404
0000e0 8a a5 91 bc d3 2d 0f be fe 3c 23 3d 90 8b ba bd
       -0.01777913 -0.13982324 0.03985309 -0.09108651
0000f0 86 2d 0c be e0 3a b7 bb 20 cb 01 be 3c 9e c6 3b
       -0.13689241 -0.0055917352 -0.12675142 0.0060613435
000100 4d 0f 2c 3d 10 16 89 3d 9d c1 57 3e 2a 56 16 bd
       0.04200678 0.06693661 0.21069951 -0.036703266
000110 00 63 64 bd 9d c0 f8 bd 40 7d 5d 3e f5 5e cd 3d
       -0.055758476 -0.12146113 0.2162981 0.10027877
000120 bd 70 a3 bb bf 11 82 bd 7d e9 95 3e 9c 2d bc 3d
       -0.0049878047 -0.06351041 0.292797 0.09188387
000130 64 69 05 bd 35 7a 2c bd bb 51 c4 3d b3 f0 fc bd
       -0.03257121 -0.042108733 0.09585901 -0.12350597
000140 b1 f8 13 3a 4c 02 04 be 6e f1 3b bd 23 f1 3f be
       0.0005644663 -0.12891501 -0.045884542 -0.1874433
000150 49 be b9 bd 72 18 86 bb 91 98 c2 bd 54 6f 5b b9
       -0.09069497 -0.0040922696 -0.09501756 -0.0002092694
000160 7e ab a3 bc f1 da fa 3c 42 ff d4 3b 3e a5 a1 bd
       -0.019979235 0.030621978 0.0065001557 -0.078928456
000170 55 16 2a bd 7e 70 70 3e d4 d1 a4 3b a7 21 04 3e
       -0.041525204 0.23480412 0.0050298963 0.12903462
000180 19 07 0c be bf 8a 4b bd e0 ef 75 3c ee ba 02 bd
       -0.13674583 -0.049692865 0.015010804 -0.03191655
000190 f5 28 9d bd c3 4a ac bd 89 4c 99 3d f7 9d 1d be
       -0.076738276 -0.08412697 0.07485301 -0.1539229
0001a0 b9 37 72 3d b8 f7 57 bd 25 34 71 be 24 45 6d bd
       0.059135173 -0.052726477 -0.23555048 -0.057927266
0001b0 76 b3 74 3e e7 d2 71 be 5e 85 08 bd 8b 9e c8 bb
       0.23896584 -0.23615609 -0.033330314 -0.0061224154
0001c0 29 06 17 3e 30 90 cc bd 46 0f d6 bc 1c 4a e1 be
       0.14748444 -0.09988439 -0.02613033 -0.44001853
0001d0 ea 02 28 be bc 17 1c 3d 23 00 42 3e d6 8d 0c be
       -0.16407362 0.038108572 0.18945365 -0.13725981
0001e0 b6 05 c7 3d 3a 82 37 be 0e 19 5d be 02 f0 2f be
       0.09717886 -0.17920771 -0.21591589 -0.171814
0001f0 ed c1 76 3c 6c e7 db bd 86 1c 69 be 38 fb c0 3d
       0.015060884 -0.107374996 -0.22764787 0.09422916
000200 dc 1e 34 bc 73 3b 91 3d fd 71 d8 bd 96 9d 74 3d
       -0.010993686 0.07091417 -0.105686165 0.0597206
000210 53 36 1f 3e 08 1a 83 3d ed ca ca bd 9b 62 2c be
       0.15548067 0.064014494 -0.09901986 -0.1683449
000220 ca e0 24 3e cb 8b 43 be 0b a1 3d 3d 17 4c 80 bd
       0.16101375 -0.19096296 0.04629616 -0.06264513
000230 27 fd c5 bd 22 5b 97 3d c3 c5 13 3e 21 db 98 bd
       -0.096674256 0.07390429 0.14430909 -0.074636705
000240 6d de c7 bd 83 1c a3 3d 6f 89 14 3c 2d 0b 03 be
       -0.09759221 0.079644226 0.00906597 -0.12797232
000250 9d db 99 bd fc 60 9e 3d fa 61 ad 3d c4 39 f0 3d
       -0.07512591 0.07733342 0.08465953 0.11729768
000260 38 61 9c 3c 0c f0 82 3d 8f ef 86 bd e4 e0 cc 3d
       0.019089326 0.063934416 -0.06588661 0.10003832
000270 bc 44 bd bd 0e 00 33 be f1 34 c7 3c 6e cb ea 3c
       -0.09241626 -0.1748049 0.024317237 0.028661456
000280 46 bf c5 3d a2 b8 8d bd 33 55 21 bc 7f 25 26 3e
       0.09655623 -0.069199815 -0.009846973 0.16225241
000290 71 f3 07 3e 37 4e a1 3e 69 e4 cf bd a8 8c b9 bc
       0.1327646 0.31504986 -0.10150988 -0.022650078
0002a0 a7 12 54 be 94 90 f2 3d 1c f3 c3 bc 45 8b 12 3e
       -0.2071024 0.11843982 -0.023919635 0.1431094
0002b0 4a 74 82 3e 49 0f f6 3b 86 3d e1 3c b7 16 41 be
       0.25479347 0.0075091464 0.027495157 -0.18856321
0002c0 7b 22 2e be 3d 20 47 bd d6 f1 7b 3e 36 98 35 bd
       -0.17005341 -0.04861473 0.24603972 -0.044334613
0002d0 98 c2 91 3d 1a 92 f4 be 78 42 11 bd 70 d7 0d bd
       0.07117194 -0.47767717 -0.03546378 -0.034629285
0002e0 2a 2c 94 be f6 d2 94 3d fa d2 9f bc 2f f9 a2 3d
       -0.28939945 0.072668 -0.019509781 0.07957684
0002f0 1b 83 3a be 01 5a 70 3e f7 4e 18 3e 98 ff 1b 3d
       -0.18214075 0.23471834 0.14873873 0.03808555
000300 dd e4 b0 bc 15 3d a9 bd 23 58 98 3c 13 a4 bc 3b
       -0.021593506 -0.082636036 0.018596714 0.005756864
000310 a8 3b 06 bd 67 3e 01 be de a5 f5 3c f3 88 03 3e
       -0.032771736 -0.12621461 0.029986318 0.1284521
000320 ed be 08 3e 3d 44 ec 3d f4 a5 fa ba 17 0a 94 3e
       0.13354082 0.11536453 -0.0019122944 0.28913948
000330 61 c0 0a be db a7 11 3e f2 27 1e 3e 1c 6e 61 bf
       -0.13549949 0.14224188 0.15444925 -0.8805864
000340 3e 0b 2d bd c8 a5 fb 3d f3 48 d6 bd c8 d4 eb bd
       -0.04224705 0.1228748 -0.10463133 -0.11515194
000350 ee d6 1f bd 68 02 38 be a1 be 51 be 79 26 39 bd
       -0.039023332 -0.17969668 -0.20482875 -0.045202706
000360 2a 43 c1 bd d5 d1 03 3e cf 00 86 bd 94 8b 77 be
       -0.09436639 0.12873013 -0.06543123 -0.24174339
000370 f3 19 00 be 72 00 55 bd a9 7f e4 bd dc 76 0c be
       -0.12509899 -0.052002378 -0.11157162 -0.13717216
000380 b5 ac d9 3d 70 33 18 3e 12 0d d0 3c d9 4b 99 be
       0.106286444 0.14863372 0.025396857 -0.2994068
000390 f0 e5 01 3d 7b 2b 4d be 22 0f a6 bd 81 c9 d8 bd
       0.031713426 -0.20036118 -0.08108355 -0.10585309
0003a0 d2 4c da bd 69 c1 15 3e 0d 64 3d 3d 83 83 19 3c
       -0.106591836 0.14624561 0.046237994 0.009369734
0003b0 8f 8d e7 3d fd 9e 7e be 5a 4d fb 3c 67 fe 1b bd
       0.11306297 -0.24865337 0.030676533 -0.038084414
0003c0 a4 e7 99 bd 3e 49 85 bd 32 1a 57 be 71 8f 08 3e
       -0.07514885 -0.065081105 -0.21006086 0.13335969
0003d0 dc 75 ba bc 56 11 57 3b 0e a6 dc bd de e5 34 3b
       -0.022761278 0.003281673 -0.1077386 0.0027602832
0003e0 47 00 4c 3c bd 21 88 bc 7f e4 1a be 58 7a 1b be
       0.012451238 -0.01661765 -0.15126227 -0.15183389
0003f0 41 95 e5 be 8a e1 31 3d 8c e6 cb bc d1 86 44 be
       -0.44840434 0.04342798 -0.024890207 -0.19192053

bias f4 [400]
000000 c1 18 e9 3a 76 75 42 3a 25 3b 15 ba 94 d1 b9 3d
       0.0017783866 0.0007418016 -0.0005692712 0.09073177
000010 58 d8 bf bb 2e 64 84 b9 98 5f fa 3c 35 2c ae ba
       -0.0058546476 -0.00025251642 0.03056316 -0.0013288321
000020 e2 53 77 b9 ed 7c 89 ba 50 6c 7e ba 22 ff f4 3a
       -0.00023587004 -0.0010489501 -0.0009705471 0.0018691758
000030 d4 f9 de bd 3b 02 af 3a 2c 32 45 ba 8a c5 ad 39
       -0.10887495 0.0013352105 -0.000752243 0.0003314431
000040 58 e7 a6 b9 3e d0 30 39 68 1a 27 b6 7a 08 4e ba
       -0.00031834352 0.00016862244 -2.490031e-06 -0.00078595395
000050 0d c6 de 3c 6c 93 8c 3a 72 68 3b 3d 58 60 9f 38
       0.027194047 0.0010725087 0.045753904 7.599656e-05
000060 0b 8b c7 3b 8c 9f 89 ba 20 6b 09 ba 62 d5 27 3a
       0.0060895733 -0.0010499819 -0.0005242098 0.0006402341
000070 cf 3e b9 b9 63 f6 14 3d e1 0b a6 39 b0 58 38 3a
       -0.00035332746 0.036367785 0.00031670838 0.00070322584
000080 c0 bd 6b 3c 94 26 2c 3a e8 fd b1 3a 3e 78 5b bb
       0.014388502 0.0006567028 0.0013579698 -0.0033488418
000090 1e c7 87 ba 85 bb 56 3d cb 27 50 3a 9b c3 0b ba
       -0.0010359024 0.052424926 0.00079405 -0.00053315767
0000a0 fb 93 0a ba df 34 96 bc c2 b6 5c 3a a4 2f 04 3c
       -0.0005286333 -0.018335758 0.0008419567 0.008067999
0000b0 fa e7 a9 b9 16 47 a7 bc 9a c6 fd 39 d1 46 ba b9
       -0.00032407028 -0.020419639 0.0004840389 -0.00035529447
0000c0 07 8e 71 b9 fc fd 70 39 40 d7 a8 b9 2c 20 0f 3d
       -0.0002303646 0.000229828 -0.0003220383 0.03494279
0000d0 68 50 bc ba c3 ba 0e 3b 12 ac 2f ba ac 0b b1 b8
       -0.0014367225 0.00217788 -0.00067013607 -8.442192e-05
0000e0 c3 1d 35 bc a0 2a 64 b8 01 15 b8 3a 01 6b 16 bb
       -0.011054459 -5.4399134e-05 0.0014044346 -0.0022951963
0000f0 a6 3d 81 ba 81 4c 22 3a 31 0f 47 39 7d fc 69 3b
       -0.0009860292 0.00061912095 0.00018983778 0.0035703473
000100 b3 6b 0d bd 0f 4f 11 3b 0e 42 0b ba 5a dc e1 bc
       -0.034526538 0.0022172367 -0.0005312272 -0.027570892
000110 7b 9a 2f 3d 82 b2 31 3b 2b 70 ef 39 51 65 b3 3b
       0.042871933 0.0027114456 0.00045669204 0.0054747243
000120 41 92 f1 ba f5 d4 9a bb 4e 2d e2 b8 87 7a ea b9
       -0.0018430428 -0.0047250935 -0.000107849584 -0.00044723248
000130 aa 52 95 bd f6 d2 dc bb 22 5e be ba f4 93 b4 b9
       -0.072911575 -0.0067390157 -0.0014523903 -0.0003444251
000140 eb 49 13 3b da bb fa 3b 3d 54 89 3a b0 9e b0 38
       0.0022474478 0.007651788 0.0010477375 8.421892e-05
000150 82 0e 8a 38 c6 51 a7 3a 36 0f b7 b9 f4 65 0f 3b
       6.583055e-05 0.0012765459 -0.00034915813 0.0021880837
000160 90 e3 59 3a 96 fe 63 ba fc 4f 92 3a c5 25 0f ba
       0.00083118025 -0.0008697299 0.0011162753 -0.0005460645
000170 89 a3 63 bc 2e fb 15 3a 0d a7 a9 3d a3 3e 31 3b
       -0.01389397 0.00057213276 0.082838155 0.002704539
000180 af 88 9d 3d 57 0f cb 3d c5 a6 31 b9 ce 21 fb ba
       0.07692086 0.09915035 -0.00016942162 -0.0019159855
000190 95 83 8f 3a 5a 68 af b8 57 1a 76 3a 6c 68 d6 38
       0.0010949249 -8.364087e-05 0.000938808 0.00010223765
0001a0 c3 5b 32 bd 5f 7b 1a 3a 99 62 0a b8 dd 7b 5f 3b
       -0.043544542 0.00058930175 -3.299359e-05 0.0034100928
0001b0 56 4b 22 39 4b e6 2a b9 b9 af 25 39 39 53 64 bb
       0.00015477589 -0.00016298254 0.00015801088 -0.0034839644
0001c0 5d 05 be b9 2d 1d 3e 3b 1e 10 bc 3a 73 e9 44 3a
       -0.0003624362 0.002900909 0.0014348065 0.0007511593
0001d0 bc 89 8a 39 1b 67 6e 3d 68 26 8e ba 95 e9 80 3a
       0.0002642403 0.058203798 -0.0010845186 0.0009835238
0001e0 5f cb 28 3b be 4e 0e bb d1 1e bb 3d 01 28 0d 3c
       0.0025755984 -0.0021714414 0.09136737 0.008615495
0001f0 86 65 85 b9 d1 c3 4d 3d 6b 44 b8 b9 af cb 2e ba
       -0.00025443378 0.050235573 -0.0003514619 -0.00066679245
000200 bd 4a a6 39 79 0f 6a 3b d7 df 79 bd 5d 0e 1e 3a
       0.00031717672 0.0035714789 -0.061004486 0.0006029362
000210 52 03 8f b9 c7 a3 9c b9 15 9c ae 3a 8c 7b 16 3b
       -0.0002727756 -0.00029876662 0.0013321663 0.0022961823
000220 c8 8c a7 b9 c2 da b7 3d a1 26 a6 3a 76 35 80 3d
       -0.00031957612 0.089772716 0.0012676307 0.06260197
000230 da ee e4 b9 42 04 1f 39 bd 99 1e 3d 2e 01 33 ba
       -0.00043665507 0.00015165008 0.038720835 -0.0006828484
000240 2c 54 90 3c 52 37 20 3a f6 08 73 38 92 ff 3e b6
       0.017618261 0.0006111759 5.794406e-05 -2.8460968e-06
000250 af 74 bf b9 8f 46 07 bb 52 a3 a4 3a 98 07 49 3a
       -0.00036517295 -0.0020641421 0.001256088 0.0007668673
000260 ac 1c 22 3b 99 61 b2 39 43 21 b6 39 a7 5a f4 39
       0.0024736328 0.00034023522 0.00034738527 0.00046606848
000270 dc 7c f8 b9 30 40 ce b9 c7 72 1c 39 86 6e da ba
       -0.00047395274 -0.00039339205 0.00014920077 -0.0016665019
000280 6c a3 0b ba 2f 1d a1 b9 d0 84 2c bc 0f f5 b6 39
       -0.0005326781 -0.00030730056 -0.010529712 0.00034896328
000290 96 52 11 ba ff 64 bd b9 af 32 9c 39 66 26 08 bc
       -0.00055436173 -0.00036124137 0.000297924 -0.008309936
0002a0 e4 82 1c 3a 25 10 a2 38 94 d3 c4 ba 70 48 07 3d
       0.0005970432 7.727769e-05 -0.0015016668 0.033028066
0002b0 08 be 43 37 a8 1f 25 ba ab c1 a7 b9 e2 17 2a 3d
       1.1667151e-05 -0.00062989676 -0.00031997016 0.041526683
0002c0 ad 90 7a 3a 0a de 1e 39 00 b4 b6 3a 86 c7 51 3b
       0.00095583015 0.0001515077 0.0013939142 0.0032009794
0002d0 a4 99 7e b8 f8 e6 e2 39 ca c2 1c bb 4f 0e f1 b8
       -6.0701408e-05 0.00043278164 -0.0023919814 -0.00011494441
0002e0 f6 11 24 3a 99 1d c6 ba 8e ac 55 bb e6 ec de 38
       0.000625878 -0.0015115022 -0.0032604071 0.00010629911
0002f0 4a 1a b3 b7 ee 6c 1d 3b 26 90 19 ba 23 75 ad 39
       -2.1350705e-05 0.0024021226 -0.00058579666 0.00033084405
000300 b8 d0 b4 b9 9c fd c8 ba 38 af d5 b6 55 35 b8 3a
       -0.00034487783 -0.001533437 -6.368293e-06 0.001405398
000310 3f 63 ce 3a 6f 4a 15 3b ee 3e 0f 3a e0 ca 49 be
       0.001574613 0.0022779962 0.00054643943 -0.19706297
000320 af d6 32 ba e3 2b de 3b 81 0b 35 3a 49 8d 32 bb
       -0.00068221515 0.006780134 0.0006906316 -0.0027244857
000330 dc 39 f1 b9 89 3d d5 ba f7 8e cb 39 0b f4 04 3b
       -0.0004601021 -0.0016268949 0.00038825694 0.0020287063
000340 d0 be 2b 3a bc 53 4e b9 d0 dc 7a 39 9c aa 92 ba
       0.00065515656 -0.00019676884 0.00023924117 -0.0011189762
000350 49 a0 ee b9 03 55 1c 39 1e bf 41 3b 5f 07 db 3a
       -0.0004551432 0.00014908989 0.0029563378 0.0016710571
000360 fe b5 49 b9 88 69 b8 b9 ae 2e 34 3b 3f 57 35 ba
       -0.00019236651 -0.00035173842 0.0027493644 -0.0006917603
000370 a6 1a 92 3a 1d 32 87 ba 93 54 2b 3b d4 67 c1 bb
       0.0011146858 -0.0010314618 0.002614294 -0.00590227
000380 7d 4b 07 bb 27 0a 4c 39 a4 76 8e 3c ee 88 05 bd
       -0.002064436 0.00019458738 0.017390557 -0.03260129
000390 2e b3 72 b8 38 68 e5 3a ca 8e 60 ba af dc 6b 3a
       -5.786417e-05 0.0017502373 -0.0008566199 0.0008997423
0003a0 58 3e 99 bb 0e e7 96 b9 80 b7 19 3a 18 96 2e bf
       -0.0046766214 -0.0002878238 0.00058638304 -0.68197775
0003b0 f1 89 07 bb b2 2f fa 39 89 25 58 bc a9 01 64 bb
       -0.0020681585 0.00047719252 -0.013192543 -0.0034791029
0003c0 0e 9e f2 39 a7 e1 9b b9 8f 91 0d 39 ad aa 9d ba
       0.00046275597 -0.00029732028 0.00013501033 -0.0012029015
0003d0 0d 51 90 3d 30 8c a5 3a 30 70 55 b6 8c 55 29 bc
       0.07046709 0.001263028 -3.1804775e-06 -0.010335337
0003e0 48 b6 9e ba e7 6c 82 bb 91 ae 92 b8 6a 36 30 3a
       -0.0012108767 -0.0039802673 -6.994338e-05 0.00067219755
0003f0 86 a6 dc 3b 85 b4 d5 3a 49 aa 48 3a 7a d1 8e 3b
       0.0067337183 0.0016304409 0.0007654769 0.0043584676

weight f4 [8, 400]
000000 69 cf 21 3d 05 f6 dc 3b 9a 02 5a 3a e2 10 30 3c
       0.039504442 0.006743195 0.00083164277 0.010746213
000010 c7 01 37 bd 32 72 53 bd 22 c0 40 3d 9b 02 56 3d
       -0.04467943 -0.051622577 0.047058232 0.05224858
000020 c2 07 25 3e fb fd 04 bd 13 55 c7 bc 13 83 17 3e
       0.1611624 -0.032468777 -0.024332559 0.14796095
000030 f3 6b a9 bd f0 4c 13 3d e6 de 10 bd a2 de 2c bb
       -0.08272543 0.035962045 -0.035368823 -0.0026377817
000040 f8 31 b1 ba 74 89 86 3b 80 4e 0b 38 f5 58 23 3c
       -0.001351892 0.004105741 3.321329e-05 0.0099699395
000050 0a 95 46 3a ea bf 3a bc 2c 7d 71 3d 59 14 bf bc
       0.0007575309 -0.011398295 0.058957264 -0.023325132
000060 ff aa 2e 3e 33 47 f2 bc c8 71 22 3e b8 14 6b 3d
       0.17057417 -0.029574966 0.15863717 0.057392806
000070 d1 7a 00 bc 5e 43 ff 3d b6 f0 5b 3b bf 65 1f 3c
       -0.007841782 0.12464021 0.0033560223 0.009728848
000080 09 ed 7c bd c0 e6 56 3d fc 0d b3 3d 6b c0 85 3d
       -0.06174949 0.052466154 0.08742902 0.065308414
000090 c9 40 d4 bc 2c 17 2b 3d c0 2a 14 bd 70 3d 9e bc
       -0.025909798 0.041770145 -0.036173582 -0.019316405
0000a0 c1 b5 91 bb b6 9e ca 3d 5a 0f 78 3d 68 20 22 3d
       -0.0044467156 0.09893553 0.060561515 0.039581686
0000b0 b7 ba 90 bd 36 74 99 3d 60 d4 c4 3b 93 08 07 bd
       -0.07066863 0.074928686 0.0060067624 -0.03296716
0000c0 cb a0 01 3d ab ee 33 bc 4d 2d a8 bc 89 da a4 bd
       0.031647485 -0.010982196 -0.020529414 -0.08049495
0000d0 e1 9d 22 bc 55 60 8e 3e 2f 93 31 bb 43 40 d3 ba
       -0.009925337 0.2780787 -0.0027095785 -0.0016117174
0000e0 a8 c3 14 bd 6a 58 35 bd 4f 29 7e bc e9 1f 19 be
       -0.036319405 -0.04427377 -0.015512778 -0.14953579
0000f0 ca cc 6c bd d6 80 3b bd c5 80 3f bc 1d d6 ac 3d
       -0.05781249 -0.045777164 -0.011688416 0.08439276
000100 dc 9b c7 3d f1 0f 92 3d 3e a3 5e bc e8 fa 3d bd
       0.09746525 0.07131947 -0.013588725 -0.04638186
000110 89 a9 ca bd 4a 01 8e 3d 52 1b 14 3d 82 ac 34 3e
       -0.098956175 0.069338396 0.036158867 0.17643932
000120 31 4a 38 bc 0d c9 87 3b 14 91 4a 3c 09 ae 62 bb
       -0.011248157 0.00414384 0.012363691 -0.0034588596
000130 9f d7 64 bd 63 0d 47 3b c5 b1 4f bd 33 37 a6 3b
       -0.055869695 0.003037297 -0.050706644 0.005072498
000140 c0 f8 fc bb 9c 50 92 bd 2a e8 cf 3d ee 2e 0d 3d
       -0.007720083 -0.07144281 0.10151704 0.034468584
000150 56 01 99 3b 44 41 c3 3d cd 39 41 bd 5d 4e f2 3a
       0.0046693487 0.09533933 -0.047174264 0.0018486489
000160 b1 f7 be 3d 65 2b b5 bd 91 d5 1f 3e d2 0a 15 ba
       0.09324587 -0.088461675 0.15608813 -0.0005685511
000170 50 89 0f 3d b9 94 34 3d 76 9a 16 3c 81 cc 17 bd
       0.03504306 0.044087145 0.0091921 -0.037060264
000180 0b 04 a4 bb a8 08 ea 3c fe d4 f1 bc 11 8f a8 bd
       -0.005005365 0.02856858 -0.029520508 -0.08230413
000190 c8 ba 67 3b 7f a5 cf bc 31 3f 1b 3d ee 51 3a bb
       0.0035359133 -0.02534747 0.03790206 -0.0028430182
0001a0 41 38 44 bd 42 a7 89 38 77 51 56 bc 7e 55 1a 3e
       -0.04790521 6.563823e-05 -0.013080946 0.15071675
0001b0 8c 65 88 bc 96 cf cd b9 c8 ef 00 3b f0 b0 2b bd
       -0.016649984 -0.0003925531 0.001967417 -0.041916788
0001c0 4f 5e 1f bd f0 e1 81 bc f5 7b 1d 3e ac c3 26 bb
       -0.0389083 -0.015854806 0.15379317 -0.002544622
0001d0 80 bf b3 3c 2a d5 cb bb 85 f9 6e bc a4 94 93 3c
       0.0219419 -0.0062204795 -0.014585857 0.018015213
0001e0 66 ef 62 3d b2 4e 73 bd 09 be ce bd 4b 17 2f 3e
       0.05540409 -0.05940122 -0.1009484 0.1709873
0001f0 c1 7d bd bc 5c 2c 15 3d 21 d5 dd 38 5a 53 00 3b
       -0.023131253 0.036419258 0.000105777995 0.0019580931
000200 6b f0 94 bb 57 b3 37 3e 9d 69 4b 3d 10 de 1b bc
       -0.0045452616 0.17939506 0.049661268 -0.009513393
000210 6c 7a b2 3c 7d 6c a8 bc f8 35 49 3d fc 38 3a be
       0.02178689 -0.020559544 0.049123734 -0.181858
000220 97 1d 93 bb 49 63 76 3d ca c9 81 3c ce a6 01 bd
       -0.0044896114 0.06015328 0.01584329 -0.031653218
000230 2d 8c e9 3c 87 37 f0 ba b3 17 a6 bd 3e eb 41 3b
       0.028509224 -0.0018327095 -0.08109989 0.0029589678
000240 3c 24 c4 bd 1c 6b 2c bb 9e 33 94 b9 07 1c d7 bd
       -0.09577224 -0.002630896 -0.00028267218 -0.10503393
000250 63 c6 72 bb a1 6c 77 bd 01 3c bb 3d 11 17 48 ba
       -0.0037044517 -0.06040633 0.09142304 -0.00076328317
000260 ce 8f 4a be 3b 5a ea b8 5a b0 f2 bc 03 f6 b0 3b
       -0.1978142 -0.00011174796 -0.029625107 0.0054004206
000270 08 75 21 3c 71 72 11 bc ba c9 d3 3a c5 3a 41 bd
       0.009854563 -0.008877383 0.0016158142 -0.047175188
000280 7c 2e 36 bb 34 42 02 be c2 a1 65 be 15 2f 09 3d
       -0.0027798703 -0.12720567 -0.22424987 0.033492167
000290 9f c3 87 3c 0b 4a 23 bc 88 07 59 bc ff 53 e2 bc
       0.016572772 -0.009966384 -0.0132464245 -0.027627943
0002a0 75 56 30 3c 4b 8d 3a 3c 58 e9 45 be 1a 2b df bb
       0.0107628 0.011386226 -0.19327295 -0.006810558
0002b0 ee 58 cb 3a 57 77 6c bc e7 62 b8 bc f9 77 a6 bd
       0.0015514174 -0.01443275 -0.022508098 -0.08128352
0002c0 b8 12 8b 3d b3 43 da b8 a7 f1 03 3d 57 89 54 3d
       0.0679068 -0.0001040766 0.03221288 0.05188879
0002d0 16 d9 0a 3d 83 fa 6c 3b 67 9c 84 bd cd ae 97 bb
       0.033898436 0.0036160059 -0.06475144 -0.004628992
0002e0 94 e2 83 3b f8 4b a8 3c 52 ce cc bd 37 67 8e bb
       0.004024813 0.020544037 -0.1000029 -0.0043458003
0002f0 3c 50 7a bc d2 94 6c 3e 7f 0c e7 bb 5b e8 82 3b
       -0.015277918 0.23103645 -0.00705105 0.003994984
000300 c2 f7 da bb ce 32 87 bd 16 bf 86 3a c8 ca 9e bd
       -0.006682367 -0.06601487 0.0010280337 -0.07753521
000310 82 94 2e bd a1 e6 fd 3d 5b 6c ed bd b9 f9 81 bd
       -0.042622097 0.123975046 -0.11592933 -0.06346459
000320 4e f1 36 bd bc 4a 4f bb 12 f2 df bc 59 32 21 3c
       -0.04466372 -0.0031630239 -0.027337108 0.009838664
000330 2e ab 0a 3a f1 60 cc 3d c9 78 dc 3c 59 b1 c9 3e
       0.000528979 0.099794276 0.026913064 0.39393118
000340 95 91 1d bc 81 fa ea ba e3 d8 c1 bc 5c 5c 82 bd
       -0.009617229 -0.0017927439 -0.02366299 -0.063652724
000350 4d a7 96 be b4 e7 7d bc 16 08 01 3e ec 4b 88 bd
       -0.29424515 -0.015497137 0.12600741 -0.06655106
000360 45 bf dc 3a 45 67 ef 3b 92 5f 0b 3e 98 6b 9c bc
       0.0016841671 0.007306012 0.13610676 -0.019094273
000370 a5 83 26 3c 31 12 34 bd a7 f5 7f 3e 5b 56 9a bd
       0.010163222 -0.04396266 0.24996053 -0.07536002
000380 5d b8 9b 3c cf b1 48 bb 61 b7 2c bd d5 f9 55 3c
       0.01900881 -0.003062356 -0.04216707 0.013060053
000390 60 66 2a 3e 28 2d 1d 3d ef 74 87 bc fd e7 1a be
       0.16640615 0.038373142 -0.01653525 -0.15127559
0003a0 3a aa 53 be b0 e6 fa ba 65 c1 28 3d 97 ef 10 3e
       -0.20670405 -0.0019142237 0.04120006 0.14153896
0003b0 d6 51 7d 3d e6 2a 8d 3c ae b6 97 3d 63 11 90 bd
       0.061845623 0.01723237 0.0740789 -0.07034566
0003c0 d7 93 e2 bc 69 37 08 3d 16 31 99 3c 24 a5 6d 3e
       -0.027658386 0.03325597 0.018700164 0.23207527
0003d0 48 9e 53 bd 41 a5 10 bd dd 0a 04 bc f5 1d 24 3e
       -0.05166462 -0.03531385 -0.008059231 0.16027053
0003e0 c3 5e be 3c 5e 29 9a bc a3 17 ce 39 79 b8 18 bc
       0.023238545 -0.018818554 0.00039308993 -0.009321325
0003f0 c5 29 e6 3d a4 00 8d 3c 5a 3f 03 3d 63 31 50 bb
       0.11238436 0.01721222 0.03204284 -0.0031767718

bias f4 [8]
000000 89 15 0b bd a2 59 a7 bd c4 57 2e 3d 40 a6 11 3f
       -0.033956084 -0.08171393 0.04256417 0.568943
000010 64 be 28 3d 8a 31 6b 3d c3 eb ec 3c b9 19 e1 bc
       0.041197196 0.05742029 0.028921014 -0.027478086

weight f4 [400, 8]
000000 e6 ce 09 37 06 94 7a b7 32 62 a7 37 23 cf a5 b8
       8.214009e-06 -1.4935626e-05 1.9953677e-05 -7.906395e-05
000010 af 31 a9 37 19 ad 24 b8 00 9b a8 b6 de b9 1f 36
       2.0169506e-05 -3.9261857e-05 -5.0248345e-06 2.3801035e-06
000020 4f ec 50 b6 b7 48 0c 37 a9 ff 42 37 57 21 92 b7
       -3.1131965e-06 8.3615805e-06 1.1622827e-05 -1.7420081e-05
000030 ea e4 21 36 cc 87 f0 b6 61 5a 1a 37 b4 b6 06 37
       2.4124115e-06 -7.168366e-06 9.200158e-06 8.029561e-06
000040 d5 b2 72 b7 af 22 ab b7 2c a0 a5 b6 e5 54 1f b8
       -1.4465962e-05 -2.040094e-05 -4.9360297e-06 -3.798762e-05
000050 3b 82 91 36 d8 ce 11 35 5f 31 28 b8 cb f6 cd 35
       4.3364976e-06 5.4317707e-07 -4.01003e-05 1.5345516e-06
000060 c4 e5 06 37 90 aa 1f 37 32 38 8e b6 9a 8d 35 38
       8.040519e-06 9.516851e-06 -4.238472e-06 4.328564e-05
000070 47 e9 18 b7 0b 56 c3 37 0d e6 72 b6 e8 8e 0c b7
       -9.11422e-06 2.3285878e-05 -3.6194717e-06 -8.377923e-06
000080 67 0c d6 35 9d ca 87 37 8d 11 b8 36 b1 ce 9f 38
       1.5947852e-06 1.6187603e-05 5.4856705e-06 7.62021e-05
000090 5c 8a 84 b5 7b 91 72 b6 02 05 46 38 ff ff 12 36
       -9.875034e-07 -3.614549e-06 4.7211543e-05 2.1904705e-06
0000a0 4f cf 68 37 28 ad 26 36 a0 0d c4 37 cd 20 25 38
       1.3876545e-05 2.4836718e-06 2.3371365e-05 3.9369614e-05
0000b0 77 65 62 37 36 9a f1 b7 5e 73 6c 37 25 cb 23 b7
       1.3494274e-05 -2.8801249e-05 1.4093557e-05 -9.762855e-06
0000c0 c9 50 c8 36 26 aa 36 b7 4a ff 06 b7 e0 d9 31 38
       5.969869e-06 -1.0887661e-05 -8.0464615e-06 4.2403e-05
0000d0 28 1d 37 b7 48 88 77 36 80 35 6b 35 aa c0 80 b6
       -1.09144385e-05 3.6885194e-06 8.7622175e-07 -3.8371263e-06
0000e0 c6 b4 10 b5 21 22 22 37 40 a9 1a b3 2b 0a 0a 38
       -5.390724e-07 9.663899e-06 -3.600985e-08 3.2911234e-05
0000f0 40 96 82 35 e0 60 85 34 12 96 44 37 c7 2d 7d b6
       9.729483e-07 2.4843666e-07 1.1717451e-05 -3.7726584e-06
000100 f3 fc 63 b6 84 49 ee b6 b8 6a 97 37 17 e0 07 37
       -3.3972872e-06 -7.101511e-06 1.8050298e-05 8.098802e-06
000110 6e ac ad 37 08 d8 e1 b7 a9 64 1b 37 1a 2e 39 b7
       2.0703501e-05 -2.6922688e-05 9.262157e-06 -1.1037593e-05
000120 34 f3 7c 37 55 ef 35 37 4c 46 ab b7 bb 3a 38 b8
       1.5076996e-05 1.08441645e-05 -2.0417523e-05 -4.3923716e-05
000130 90 5a b3 b7 4e 1b 02 38 d7 9a 23 b7 c4 9e 1a 35
       -2.1380634e-05 3.1019845e-05 -9.751609e-06 5.7600505e-07
000140 0c d7 0c b7 80 c6 87 b7 a8 9f c4 b5 89 bb b5 b7
       -8.39472e-06 -1.6185688e-05 -1.4649604e-06 -2.166421e-05
000150 e4 b1 57 b5 be 7c 8b 35 ce 9b 23 b7 f7 64 27 b7
       -8.0352606e-07 1.0392612e-06 -9.751833e-06 -9.977483e-06
000160 24 a0 5d 36 c2 44 bc b6 70 33 c9 b7 54 12 bc b7
       3.302478e-06 -5.610841e-06 -2.398502e-05 -2.2419881e-05
000170 b2 39 d2 b7 0b 77 fe 37 20 0c bb b7 63 76 ad 35
       -2.5060817e-05 3.0334593e-05 -2.2297783e-05 1.292396e-06
000180 9d d2 0f bf 30 45 83 be 7d 41 86 3f e1 38 5c bb
       -0.56180745 -0.25638723 1.0488735 -0.0033603238
000190 ff d1 3c bf 68 59 a0 3e 8c ab 59 3e 6f 5d e9 3e
       -0.7375793 0.31318212 0.21256846 0.45579097
0001a0 3e c7 a9 b6 08 29 fd b5 a0 d0 74 37 bb bf 1e 37
       -5.0597873e-06 -1.8861911e-06 1.4592108e-05 9.462175e-06
0001b0 5f 1e 39 36 df 00 01 b7 b9 d9 98 b7 35 b3 c1 35
       2.7584827e-06 -7.689202e-06 -1.8221197e-05 1.4431777e-06
0001c0 ea 68 13 b6 3e de 03 37 8a fc c6 b7 5d 21 d4 b7
       -2.1965775e-06 7.859953e-06 -2.3721037e-05 -2.5287905e-05
0001d0 69 8f de b7 00 86 0f 38 cf 0f 5d b7 b2 f4 10 37
       -2.6531243e-05 3.4218654e-05 -1.3176307e-05 8.640041e-06
0001e0 b6 56 69 b6 b6 f4 77 b6 1a a0 84 b7 32 d5 1b b8
       -3.4770178e-06 -3.6948309e-06 -1.581018e-05 -3.7153433e-05
0001f0 88 9a 3c b6 1f 39 81 37 06 35 bc b7 cf eb 37 36
       -2.8104132e-06 1.5404597e-05 -2.2436037e-05 2.7406384e-06
000200 4f 26 10 bf 79 4d a0 3e 41 f8 f3 be 4a 04 f3 bd
       -0.56308454 0.31309107 -0.4765034 -0.118660524
000210 3d d7 52 be 6e fc 93 bc ba fe 3c bf 87 e6 37 3f
       -0.2058992 -0.018064704 -0.7382618 0.7183613
000220 a6 f7 fd 3e dc 27 16 bc d9 6a 67 3d 7f f9 9e 3e
       0.49603003 -0.009164777 0.056498382 0.31049725
000230 8f 40 06 bf d5 9c 63 3e e3 f3 f1 3e 69 25 99 3e
       -0.5244226 0.22227795 0.47256383 0.29911354
000240 ce dd 0a 37 34 bc 8c 37 48 0c 01 b7 8c 7b ca 37
       8.277084e-06 1.677694e-05 -7.691859e-06 2.4137807e-05
000250 67 23 03 b7 e9 71 06 37 40 ca fc 37 50 f4 ba 36
       -7.816451e-06 8.013544e-06 3.0134921e-05 5.5716737e-06
000260 96 0d 1a 37 e8 ad c9 b7 bf 30 b7 37 49 5d 09 b7
       9.1822785e-06 -2.4042049e-05 2.1838e-05 -8.187556e-06
000270 fc 0d c3 37 fe a2 2f b8 bd 1d 51 37 3b a4 f0 b6
       2.3252323e-05 -4.187505e-05 1.2464295e-05 -7.1716763e-06
000280 c2 9c b5 b6 95 f8 25 b7 f0 a8 bc b5 89 08 b1 38
       -5.4124694e-06 -9.892644e-06 -1.4056259e-06 8.4416075e-05
000290 62 4c f8 36 61 de 77 36 96 64 1c 35 57 8c 59 b7
       7.399868e-06 3.693531e-06 5.82609e-07 -1.2966883e-05
0002a0 0f 97 f0 3d ed 5a 31 3e 68 41 5b 3e e9 fb 46 3e
       0.11747562 0.17319842 0.21411669 0.19432034
0002b0 06 35 d4 3d ea 48 14 3d 7b 8f c0 be 58 0b a0 be
       0.10361676 0.03620235 -0.37609467 -0.31258655
0002c0 af 5b 34 b7 03 94 01 36 f9 bd 07 b6 0a 69 91 b7
       -1.0750183e-05 1.9308652e-06 -2.0227146e-06 -1.733426e-05
0002d0 71 08 3b 36 c6 0d 9b 36 20 91 12 b8 5b 59 de 36
       2.7870085e-06 4.6209634e-06 -3.494427e-05 6.626518e-06
0002e0 ce e1 ae bd ae 30 a9 be 23 4c d2 bd f0 9c 02 be
       -0.085391626 -0.33044952 -0.10268428 -0.1275518
0002f0 d8 6b c8 3e b6 7b 03 3f 6c 88 bb be 67 1e 32 3f
       0.39144778 0.5136064 -0.3662752 0.6957764
000300 a5 bd ab b6 80 53 3b 37 93 ac 12 37 57 36 f2 37
       -5.1182747e-06 1.116551e-05 8.742459e-06 2.8873952e-05
000310 2c c5 ba 35 c1 ba 82 b6 ab cc cc 36 50 ae 4b 37
       1.3915464e-06 -3.896043e-06 6.1035003e-06 1.2140328e-05
000320 51 42 ef 3d fa eb 30 3f 8b 88 9e 3e 97 15 d1 3c
       0.11682571 0.6911007 0.3096355 0.02552299
000330 07 9b 9f 3e c3 11 9c be 17 81 a9 3e db fb 56 bd
       0.31172964 -0.304823 0.331063 -0.05248628
000340 a2 7d d4 b7 26 ea 2e b8 67 ff 2c b7 98 18 85 38
       -2.5330872e-05 -4.17029e-05 -1.0311464e-05 6.346515e-05
000350 a2 ec b6 37 15 e3 5b b8 8e ca 14 38 68 75 de 37
       2.1806281e-05 -5.2425155e-05 3.5474593e-05 2.6519134e-05
000360 f4 e8 20 b7 98 40 94 b7 0a 2d b9 37 7c 2b f6 36
       -9.590982e-06 -1.7673054e-05 2.2074692e-05 7.3364336e-06
000370 6c 5e 40 37 6a de ae b7 df 48 5c 37 25 27 9f b7
       1.1466076e-05 -2.0845986e-05 1.31299885e-05 -1.8972505e-05
000380 0e ad 8c 35 94 3e 94 37 42 76 b4 36 21 6b 98 37
       1.0481178e-06 1.7672115e-05 5.378185e-06 1.8169698e-05
000390 74 cd 99 b5 f0 01 6d 35 de 73 d4 37 c6 d4 16 b6
       -1.1459183e-06 8.82922e-07 2.5326324e-05 -2.2475592e-06
0003a0 5e 39 99 35 72 55 db b7 26 2e d1 36 be 57 7c b8
       1.1416084e-06 -2.6146623e-05 6.2340578e-06 -6.01632e-05
0003b0 1e 5d ab 37 53 2f 47 b7 c9 7d 45 b7 fe 75 b7 b7
       2.042815e-05 -1.1872343e-05 -1.1771402e-05 -2.1870244e-05
0003c0 b3 21 b3 37 98 60 83 b6 9e c5 d7 37 1e 75 20 b9
       2.1354155e-05 -3.915349e-06 2.572202e-05 -0.00015302419
0003d0 d4 25 c5 36 7e 4d 6a 37 22 6f c2 b7 72 30 3f b8
       5.8754613e-06 1.3965529e-05 -2.3178352e-05 -4.5583067e-05
0003e0 06 7f 9a 3e 5d e6 a5 3e 61 e5 83 be b2 cc ff 3d
       0.30175036 0.32402316 -0.2576094 0.124902144
0003f0 cc e9 e5 be 3d bc d3 3b bf b1 22 bf eb 5e 89 3e
       -0.44904935 0.0064616487 -0.6355247 0.2683023

bias f4 [400]
000000 3d 72 b3 38 84 30 61 37 f3 ea 83 38 9b ec 91 b8
       8.556664e-05 1.3422341e-05 6.2903295e-05 -6.95821e-05
000010 e8 b0 b2 b8 fe 09 65 b8 a6 d9 57 b8 7e 50 0b b8
       -8.520653e-05 -5.460716e-05 -5.1462695e-05 -3.3215147e-05
000020 8a ee 73 36 0c 6a c2 36 71 3e d6 37 dc 23 93 37
       3.634867e-06 5.793996e-06 2.5539865e-05 1.7540464e-05
000030 0a 94 53 bd 12 45 0c b7 42 bb 85 37 52 10 54 38
       -0.051654853 -8.360732e-06 1.5942034e-05 5.055994e-05
000040 20 b5 66 3e 01 db af be d4 55 ea b7 22 6f 07 38
       0.22530031 -0.34346774 -2.793494e-05 3.229001e-05
000050 2f 2b 9a b8 c6 2a 04 3d 6b cd c8 37 2b 1c 14 be
       -7.351336e-05 0.032267354 2.3937513e-05 -0.1446387
000060 41 6d 70 b7 4d 65 dd 3d 5f 2e b3 38 73 61 12 b7
       -1.4330552e-05 0.10810337 8.5440224e-05 -8.724967e-06
000070 63 8e 09 b8 ae c7 71 38 3b e8 4a 38 4c 0a 2b 3e
       -3.2795953e-05 5.7644844e-05 4.8376834e-05 0.16703147
000080 9d e5 91 36 4e f6 9c 37 71 e7 10 38 4c 04 e6 38
       4.3480673e-06 1.8711344e-05 3.4547822e-05 0.00010968055
000090 72 1d 83 b7 fd ef 8f 37 64 b7 54 36 00 25 87 b7
       -1.5630128e-05 1.7158682e-05 3.169721e-06 -1.6110484e-05
0000a0 d3 5b f7 bd 3c 2a 91 b7 80 6b 7f 35 6a 72 f9 38
       -0.12078061 -1.7305014e-05 9.5151336e-07 0.000118945565
0000b0 96 8c 27 b7 33 71 de 36 82 bb 70 38 83 1b 06 b8
       -9.986708e-06 6.6292937e-06 5.739509e-05 -3.1973712e-05
0000c0 6e 88 34 38 38 0d b7 38 fa 84 69 b6 9a 80 e8 36
       4.3042404e-05 8.728582e-05 -3.4797108e-06 6.92911e-06
0000d0 22 97 5b 35 c5 1f 46 38 f5 7a ed 37 ce 98 5b 38
       8.1803785e-07 4.7236466e-05 2.8309858e-05 5.235598e-05
0000e0 76 ad 23 b7 5b 85 83 38 5d bb 6d 3d f3 a1 18 b8
       -9.755944e-06 6.271406e-05 0.05804001 -3.639045e-05
0000f0 53 1f c4 37 f1 90 a8 3d ea 59 09 b8 9e 2d e6 b8
       2.3379607e-05 0.082307704 -3.2747084e-05 -0.000109757515
000100 a8 05 17 38 ba 50 a4 37 34 d7 75 38 54 84 56 bb
       3.6006473e-05 1.9587915e-05 5.8612975e-05 -0.0032732682
000110 ae db 2b be 46 17 32 b8 10 6b b1 bd 4e 49 0d 38
       -0.1678302 -4.2460182e-05 -0.08662999 3.368529e-05
000120 37 c7 b3 38 71 22 d8 3c 5e 9d 84 3e e6 8b b9 b7
       8.572492e-05 0.02638361 0.25901312 -2.2118864e-05
000130 8a bc 27 3e 92 9b 4d 37 c6 1a 18 37 ce e1 ad 3e
       0.16380516 1.2255174e-05 9.06614e-06 0.33961338
000140 d7 13 7a 38 6b e8 f6 36 d8 a5 b1 b8 e8 6e 2c b8
       5.9623122e-05 7.3584283e-06 -8.4709085e-05 -4.1111285e-05
000150 1e fc d5 b7 3c cd cf 37 6e 80 99 b7 37 7d 26 b8
       -2.550898e-05 2.4771893e-05 -1.8298826e-05 -3.96941e-05
000160 80 d4 a8 b8 63 50 57 3e f2 fa f1 3d df 5c 8c 3e
       -8.0504455e-05 0.21026759 0.11815442 0.27414605
000170 df 0f 01 b8 b9 14 8c 36 61 00 f3 bd a7 05 99 b8
       -3.0770778e-05 4.1747376e-06 -0.11865307 -7.296661e-05
000180 be 63 95 b8 c4 72 fb b7 1b 67 e4 bd de 73 d0 b7
       -7.123452e-05 -2.9974974e-05 -0.11152478 -2.4849487e-05
000190 18 2e 44 b8 82 4f bd b8 79 d3 30 b8 f0 ec 1a 38
       -4.677297e-05 -9.027032e-05 -4.215862e-05 3.6937126e-05
0001a0 62 c4 32 38 02 d3 75 bc 51 6e 02 b9 0b b4 4e b7
       4.2621403e-05 -0.015003921 -0.00012438862 -1.2320476e-05
0001b0 cb 5a 02 39 4e 48 16 39 c9 0a f2 3d e8 29 43 3a
       0.00012431589 0.0001433205 0.11818463 0.0007444904
0001c0 a3 60 d8 b8 3f 2a c0 38 b0 37 03 38 47 0c 97 be
       -0.000103176826 9.1631424e-05 3.1284697e-05 -0.29501554
0001d0 ba ad 70 be 3e 3f b5 b7 c0 aa e6 37 24 17 1d 38
       -0.23503771 -2.160633e-05 2.7497648e-05 3.745327e-05
0001e0 a8 fc ac b8 e1 a5 2d 38 4c c4 26 38 63 f5 14 38
       -8.24866e-05 4.14009e-05 3.97603e-05 3.5514484e-05
0001f0 e6 53 0b 38 3c 5d bb b6 25 f1 b9 38 20 b3 04 b6
       3.321832e-05 -5.583888e-06 8.866404e-05 -1.9773797e-06
000200 ac d8 46 be 3d ed 80 3d 43 21 f7 37 6e e7 f9 37
       -0.19418591 0.062952496 2.9460183e-05 2.9790881e-05
000210 ed d6 fe 38 1b 7d 2a b8 9c 26 64 b8 10 50 78 37
       0.00012151697 -4.0647672e-05 -5.4395394e-05 1.4800593e-05
000220 b6 f2 a2 36 39 6d 67 38 2d 07 15 38 2d 6e 2b 38
       4.8562315e-06 5.5176413e-05 3.553105e-05 4.0872186e-05
000230 cd 8b 20 be a4 7f 78 38 ee 0d 1f b8 03 9a a8 bb
       -0.1567833 5.9246682e-05 -3.7921527e-05 -0.0051453128
000240 e4 34 d4 38 bb 0b 14 38 5a f0 af b8 80 dd a3 37
       0.000101187994 3.5296875e-05 -8.389419e-05 1.9534258e-05
000250 98 66 df b7 7c ca af b7 14 b9 93 38 ee b9 a9 37
       -2.6631446e-05 -2.0955915e-05 7.04398e-05 2.023295e-05
000260 70 cf 5c 37 85 42 25 bb 6e 87 ec 38 59 38 52 bd
       1.316132e-05 -0.002521665 0.00011278583 -0.05132327
000270 7a cd df b6 59 9c 22 b8 4e 1f b3 36 cd c9 12 3c
       -6.6698385e-06 -3.876942e-05 5.33826e-06 0.008959246
000280 7a f8 9d 38 a4 12 8d b8 7d 58 9c 38 6d 23 71 b7
       7.532626e-05 -6.726876e-05 7.455142e-05 -1.4372968e-05
000290 49 63 bd b7 bd ef 5c 3e 00 ed 72 b7 72 23 c3 b7
       -2.2576789e-05 0.21575828 -1.4479505e-05 -2.3262317e-05
0002a0 d9 ea 87 35 7c 9a bf 37 1e ff a7 bd fd 34 7a b8
       1.0126633e-06 2.2840912e-05 -0.082029566 -5.9653994e-05
0002b0 4d 13 53 38 a8 ff d5 b8 68 e6 8a b7 c9 c7 17 b8
       5.0324295e-05 -0.00010204251 -1.6558173e-05 -3.618727e-05
0002c0 3a 50 37 3d 9d fe aa b8 e5 1b a1 b8 fe 21 1e 38
       0.044754244 -8.153657e-05 -7.682274e-05 3.7701793e-05
0002d0 17 85 10 b8 b2 7f 64 b8 b7 0e 6d bd c5 3f 5f b3
       -3.4456225e-05 -5.447836e-05 -0.05787536 -5.197923e-08
0002e0 28 cd b9 b7 ff 08 27 3e 33 69 59 b8 ce c0 a7 39
       -2.2149252e-05 0.16312025 -5.1834806e-05 0.00031996373
0002f0 3d c3 85 3d de c4 86 b6 4b 51 e4 bd 0f a5 df b7
       0.06531379 -4.0164296e-06 -0.11148318 -2.6660533e-05
000300 88 8f 82 b8 19 1f 93 38 49 72 9d bc a5 44 cf b7
       -6.225618e-05 7.0152986e-05 -0.019219534 -2.4708288e-05
000310 78 e5 a1 b7 3b 73 f5 37 ff f1 f6 b7 26 f4 1e b8
       -1.929955e-05 2.9259934e-05 -2.9438173e-05 -3.7897516e-05
000320 7b f8 b9 3f 09 b5 5f 37 d8 4d f9 37 1a bc 95 b8
       1.4528955 1.3333986e-05 2.9719362e-05 -7.13991e-05
000330 b0 6b 10 35 a1 4c d8 37 99 21 c2 b7 da c1 ed 38
       5.3800886e-07 2.578489e-05 -2.3142247e-05 0.00011337148
000340 5e cc da 3d 71 fa 7f 38 0d b5 8b 38 96 4e 0d b7
       0.10683511 6.102998e-05 6.66176e-05 -8.422552e-06
000350 29 ea 7c be 6d 21 cc bd 4f d4 ce b7 38 75 4e 36
       -0.246987 -0.09967313 -2.4655978e-05 3.0764622e-06
000360 d1 3d 1a be 2b 23 4d b8 21 11 4b b8 13 62 78 b8
       -0.15062644 -4.890856e-05 -4.8414924e-05 -5.9219146e-05
000370 cc 80 29 b5 d2 a5 bd 38 e6 a6 c5 37 e7 20 78 be
       -6.314483e-07 9.043109e-05 2.3561948e-05 -0.24231301
000380 52 4f 8c b7 3e 1c b0 b8 b9 e5 bc 37 c7 6d 9c 38
       -1.6726237e-05 -8.3975945e-05 2.251832e-05 7.459107e-05
000390 74 ba 98 b6 57 52 8c b7 20 bf a9 37 3b aa d8 37
       -4.551659e-06 -1.6727643e-05 2.023537e-05 2.5828476e-05
0003a0 35 24 f6 38 8d b3 27 b8 ac 0d 20 b8 d2 d9 ae bc
       0.00011736938 -3.9983122e-05 -3.8159706e-05 -0.0213441
0003b0 43 f0 bc b8 45 09 00 be c6 e0 0c b7 63 69 43 be
       -9.009291e-05 -0.12503536 -8.396984e-06 -0.1908317
0003c0 cd 35 da bc 91 40 ad b7 b0 b0 df b7 98 06 c2 37
       -0.026636982 -2.0653273e-05 -2.6665948e-05 2.3129673e-05
0003d0 03 f0 d5 b6 10 c3 4d 38 1b 66 4e b8 ac 8a 25 bd
       -6.3758357e-06 4.9057475e-05 -4.920932e-05 -0.04041545
0003e0 70 92 8b 38 a4 6a 81 38 6d 07 1e b8 60 a0 f0 37
       6.6553126e-05 6.171063e-05 -3.767705e-05 2.868491e-05
0003f0 61 3d 95 bd 8a 4f 8c 3e 18 fa fc b6 5e 43 19 39
       -0.07287098 0.27404433 -7.5393e-06 0.00014616313

weight f4 [36, 400]
000000 e3 9e 39 39 14 4e 68 b9 bb 9c ec 39 c1 c1 8e b8
       0.00017702165 -0.0002215433 0.000451302 -6.807177e-05
000010 1e de ef b9 af df 9f b8 f8 62 74 39 7c 6f 0d b9
       -0.00045751123 -7.623375e-05 0.00023306522 -0.00013488339
000020 05 2a 90 38 f9 ea 3c b9 48 d4 ba 39 6a 75 86 39
       6.874282e-05 -0.00018016611 0.00035634846 0.00025645952
000030 88 63 03 3d 66 6f 40 39 6b 3f bd 38 aa 40 46 39
       0.032077342 0.00018352046 9.024035e-05 0.0001890684
000040 45 39 7d bb a7 34 90 bd 3f 3f c7 b9 7d 7d 29 38
       -0.0038638872 -0.07041293 -0.0003800336 4.040961e-05
000050 a1 fa 17 39 97 1e 31 3c c8 0c 59 39 32 17 26 3d
       0.00014493849 0.010810516 0.00020699494 0.040549465
000060 4f f6 f3 b8 07 9d 29 3d cb e8 b4 38 5a 4e 78 39
       -0.000116330215 0.04140952 8.62643e-05 0.00023680311
000070 cd 44 d6 b9 25 9e b4 39 b6 b0 3a 39 ad 61 8c 3d
       -0.0004086852 0.00034450102 0.00017804172 0.06854568
000080 49 f8 d3 b8 e6 b9 e7 39 ce 51 cc b8 55 0a fb 38
       -0.00010107511 0.0004419826 -9.742715e-05 0.00011970537
000090 eb e5 9a 38 4a de ef 39 f2 f6 86 39 f1 a9 18 38
       7.386118e-05 0.0004575125 0.0002574246 3.6397894e-05
0000a0 56 b5 0a bd e6 fe 3a b9 19 ed 2c b8 6c 2d 8c 39
       -0.03386434 -0.000178333 -4.122881e-05 0.00026736723
0000b0 ab a3 6f b9 62 d6 b7 38 69 04 8d 38 fd 99 03 39
       -0.00022853787 8.766052e-05 6.7242254e-05 0.00012550499
0000c0 92 51 2b 39 44 91 d0 38 d2 24 63 39 4f 42 ff 39
       0.00016338218 9.945271e-05 0.00021662124 0.00048686794
0000d0 7e 82 97 b9 b5 51 c5 b9 58 45 75 b9 26 eb c2 b8
       -0.0002889819 -0.00037635645 -0.00023390853 -9.294441e-05
0000e0 73 45 b5 b8 53 0f 25 38 55 21 0e bd 89 bc 9b b9
       -8.6436885e-05 3.9353337e-05 -0.034699757 -0.00029704373
0000f0 3d 2a 2c 39 69 21 92 bd ec 50 76 b9 f1 b1 a9 b9
       0.00016418933 -0.07135279 -0.00023490534 -0.0003236677
000100 a9 3a 63 39 32 a3 12 39 8f d3 0f 38 a8 50 a5 3c
       0.0002167026 0.0001398444 3.4290886e-05 0.020180061
000110 f7 87 7a bc ce 47 79 39 ec 4e 51 bc bf 39 59 b9
       -0.015291206 0.0002377324 -0.012775164 -0.00020716245
000120 47 08 85 b9 d5 d8 04 3e 48 65 bf bd ac 8f 69 b9
       -0.00025373904 0.1297334 -0.0934549 -0.00022274134
000130 05 e5 a6 3c b7 81 a2 b9 5f 63 7e b9 ca 72 d8 3c
       0.020372877 -0.00030995693 -0.00024260346 0.026421923
000140 75 28 13 b8 ac bd 4b 39 66 65 f7 b6 74 10 36 38
       -3.508521e-05 0.00019430247 -7.372978e-06 4.3407505e-05
000150 28 ae 56 39 80 32 92 38 54 b2 70 38 bc be cb 38
       0.00020473509 6.971229e-05 5.738654e-05 9.715321e-05
000160 c3 ad 00 b9 98 f9 b3 3d 10 ae ac bc 36 93 2b 3e
       -0.00012271763 0.087878406 -0.021079093 0.16755375
000170 8e 3b 9b b9 e5 91 99 39 60 07 19 bd dd 5f c3 b8
       -0.00029608276 0.00029291134 -0.03736055 -9.3161805e-05
000180 e3 58 d7 b9 e1 d2 8d b9 8c ac 23 bc 93 3d 7e b9
       -0.0004107422 -0.00027050733 -0.009989869 -0.00024246266
000190 19 fc ad b9 43 00 e5 39 58 a7 43 39 de 5a 95 39
       -0.0003318496 0.0004367848 0.0001865899 0.00028487196
0001a0 5b de 11 39 3e 9d 17 bb f6 f5 93 b8 8f fe d8 b9
       0.00013911111 -0.0023134495 -7.05532e-05 -0.0004138839
0001b0 92 fe b7 38 40 17 02 b9 bf 7b 32 bd b2 e7 85 bc
       8.7735374e-05 -0.00012406427 -0.043575045 -0.016345832
0001c0 2c 6d 91 39 65 9b 98 39 f3 ec 86 b8 02 3a 42 bc
       0.00027737895 0.00029107477 -6.433753e-05 -0.01185465
0001d0 de a7 b6 3d 98 0a e3 37 47 09 26 39 3f b3 e0 38
       0.08918737 2.7065442e-05 0.0001583445 0.000107145395
0001e0 e7 a2 e2 b9 00 7e 09 3a 8b 7f e9 b9 53 f2 c3 39
       -0.0004322745 0.0005244911 -0.0004453625 0.00037373844
0001f0 f2 8f cf b9 65 75 34 b8 6d a2 b6 38 aa 9a ec 38
       -0.00039589364 -4.3024676e-05 8.7086904e-05 0.00011282165
000200 61 f6 42 bd 87 5e 4f bd 95 f4 ab 39 b8 ab cd 39
       -0.047598246 -0.050627258 0.0003279789 0.00039228587
000210 f9 3e 36 b9 d0 f9 8e 39 28 92 78 b9 b7 5f 67 b9
       -0.00017380332 0.00027270475 -0.0002370557 -0.00022065533
000220 fd 75 91 39 08 7c 98 39 42 0c 59 39 6a 82 8e 39
       0.00027744463 0.0002908411 0.00020699299 0.00027181517
000230 0e b8 87 bd cb b6 4f 39 68 c2 22 b9 33 12 c1 ba
       -0.066269025 0.00019809154 -0.00015521946 -0.0014730155
000240 4b 95 2f b8 11 a7 00 b8 4c dd 08 b9 47 d6 3b b7
       -4.186229e-05 -3.067317e-05 -0.0001305241 -1.1195959e-05
000250 dc 0f a0 38 ee 9f 06 38 c8 8b d7 39 99 17 7b b9
       7.6323486e-05 3.2097036e-05 0.0004111214 -0.00023946016
000260 88 41 57 39 67 bf 81 ba e1 42 97 39 f6 42 d1 3c
       0.0002052841 -0.0009898961 0.00028850793 0.025544625
000270 5d fb 48 39 da 67 db b8 86 d1 bf b8 11 1d 3a bc
       0.00019167126 -0.000104620776 -9.1466165e-05 -0.011359469
000280 1d 29 b8 39 1b 7f 78 b9 ab 1c 97 39 f4 bd 10 39
       0.00035125847 -0.00023698474 0.00028822324 0.00013803673
000290 63 39 c6 b9 26 43 59 bd 8f 56 b0 b8 6a 6f 8b 38
       -0.0003780826 -0.053042553 -8.408457e-05 6.648789e-05
0002a0 2c 6c a7 b8 c2 23 59 39 b6 5e 4a bb a3 56 4c b9
       -7.983329e-05 0.00020708053 -0.0030879206 -0.00019487231
0002b0 f7 77 10 b8 41 b0 da b8 7e f6 1e b9 91 2e a2 b9
       -3.4444e-05 -0.0001042788 -0.0001515988 -0.00030933743
0002c0 03 57 d9 3a f6 4b 15 ba c4 51 30 b9 e5 77 44 39
       0.0016581718 -0.0005695218 -0.00016815128 0.00018736681
0002d0 5a 74 0c ba 40 e3 28 38 58 05 ee 3c 41 54 ae 39
       -0.0005357914 4.0265964e-05 0.029055282 0.0003325064
0002e0 2c 19 bf b8 e0 f7 a7 bd 21 a9 aa 39 33 48 95 b9
       -9.112278e-05 -0.08201575 0.00032550938 -0.00028473287
0002f0 90 c9 d8 3b c8 86 2e b9 5c 4b b7 bd e7 75 c6 b9
       0.006615825 -0.00016644143 -0.089499205 -0.00037853347
000300 97 5e bd 39 4b 32 dd b8 3a bb ad bd cc 09 9a b7
       0.00036119364 -0.00010547469 -0.08482976 -1.8362793e-05
000310 f9 9f 99 b8 20 e6 99 37 21 df 70 b9 66 83 2b 38
       -7.325406e-05 1.8346182e-05 -0.00022971306 4.089195e-05
000320 e9 ff 97 3a 4d 82 d4 39 8f cb 2c 39 cf 43 fb b9
       0.0011596653 0.00040532873 0.0001647903 -0.00047924972
000330 1f 90 be 38 34 66 ec 39 b4 2f d0 b8 ec c7 0c b9
       9.086751e-05 0.00045089575 -9.927098e-05 -0.00013425917
000340 15 cb 08 3d cc 9b ac 39 64 39 7a 39 44 30 9a b8
       0.0333968 0.00032922474 0.00023863238 -7.3522824e-05
000350 3b 3b 82 bb d1 ca 97 bc 26 22 a7 b9 a7 63 4f b9
       -0.003974346 -0.018529328 -0.00031878165 -0.00019778182
000360 56 4e 12 bd 3f 75 ee b8 54 6c a4 b9 b7 47 16 ba
       -0.03571924 -0.00011370563 -0.00031361228 -0.0005732732
000370 40 08 29 39 a0 29 2f 39 45 be 87 37 a2 83 3c bb
       0.0001612017 0.00016704807 1.6181855e-05 -0.0028764983
000380 ad e9 dd b9 98 59 1b b9 ba 4d d9 b8 0f cb 25 37
       -0.00042326507 -0.00014815328 -0.00010361844 9.882045e-06
000390 0b 98 6e 39 e8 89 29 b9 4e e9 bc 39 cc 6e 5e 39
       0.00022754089 -0.0001616847 0.0003603198 0.00021212845
0003a0 d7 23 c4 39 c8 8f ba 39 24 05 c7 38 1c eb 52 3c
       0.00037410736 0.0003558381 9.490017e-05 0.012873437
0003b0 7f bc 2f 39 fc ec be 3b 0a af 04 39 10 d3 31 3e
       0.00016759521 0.0058265906 0.00012653708 0.1736567
0003c0 70 9b c0 3c cf 18 11 b9 72 d8 a1 b9 b3 f4 05 ba
       0.023511618 -0.0001383752 -0.00030869577 -0.00051100104
0003d0 e6 67 c1 39 fc 59 d1 38 88 4c 22 39 ce dd f8 bc
       0.0003688924 9.9826575e-05 0.00015478034 -0.030379202
0003e0 aa ac d9 38 e8 c9 95 39 e5 51 6c 37 9f 88 08 39
       0.000103795275 0.00028569927 1.4085764e-05 0.00013020866
0003f0 55 d2 05 3d c8 7b ae 3d 3f 28 e1 b9 81 54 30 b9
       0.03267129 0.08519703 -0.0004294533 -0.00016816148

bias f4 [36]
000000 37 86 ea bc b9 dc 82 bb 01 79 c0 3b ab b5 0c 3d
       -0.028628452 -0.0039935973 0.0058738 0.03435294
000010 9f ea 28 3c 95 f1 4b 3b 3e 0d 72 3a a7 0d 2a 3b
       0.010309844 0.0031119336 0.00092335406 0.002594808
000020 10 58 32 bc 5e 00 50 ba 82 26 4a 3c a2 9b 3f 3d
       -0.010885254 -0.0007934625 0.012338283 0.046779282
000030 e7 f4 ac bc 74 de 18 3b 53 d7 4d 3c c4 8a 37 be
       -0.021112872 0.0023325952 0.012563544 -0.17924029
000040 13 80 05 bd 64 97 ea 3a 72 c5 63 3b 77 c8 51 3d
       -0.032592844 0.0017897901 0.0034755138 0.05121657
000050 d4 c7 8b bc ca f0 7f 3d ed d1 7a 3c d8 12 82 3d
       -0.017063059 0.062485494 0.015308839 0.063512504
000060 0f d7 74 bc f3 de c6 3c 53 b7 9b 3c 3e 8a f7 3b
       -0.014943852 0.024276232 0.019008314 0.0075543215
000070 fa 0a 56 bd 94 98 3c 3d 2b 63 65 3b 12 d5 33 bc
       -0.05225656 0.046043947 0.0035001736 -0.010976093
000080 da d2 de 3c 56 be ed 3d 5b fc 21 bb b4 7f 89 3b
       0.027200151 0.11608569 -0.0024717066 0.0041961316
