data/results/random_unitary/L=20/obs_t=20.0/latent-10_epochs-50000.dat_min_loss.net.pkl (torch_old, 160624 bytes, 8 tensors)

weight f4 [400, 36]
00000000: 2516 bf3d 8895 323e afca b63d d850 25be
00000010: 214c 29be 5c51 c13d b3a1 afbd 530b 2e3f
00000020: 294f 16bd 44da d0bd c060 843e d1e5 d53d
00000030: 41b4 653e 9f7e d6ba ae8e 4e3e 6bfe 2cbb
00000040: 6cdb 683e a789 90be 874f f23e 2a55 29be
00000050: 9836 05be a81c c8be eb61 33bd d31d 67bd
00000060: cbd5 f23c afb7 313f b1b6 973e d1a7 07bf
00000070: 8815 583c 7836 023e f323 f3bd 7c95 38be
00000080: afde d4be b4f2 c4bd 4f0c bfbd d93d 153e
00000090: d2ec ddbe d246 5f3d 16ef 11be 7456 29be
000000a0: d91d a63c e093 d8bb eca5 21be 3bc5 583d
000000b0: 9f71 153e 9744 1abe 1050 b2bc 3188 833c
000000c0: ea50 a23d 00fa f93d bcb6 33be 2f99 dcba
000000d0: d5fc 2e3e 4130 643d fa21 e0bd 618f 55be
000000e0: b389 b7bd 64e3 2a3f 8fa5 de3d f3a8 22be
000000f0: e43a c2be 6cef 03bf 086a 2cbe 5a7e 4abd
00000100: aa92 8f3e 8939 253e 30c6 653e 72ef 8ebe
00000110: 6fe1 453d 11f8 6fbe d873 053d 159c 82be
00000120: c276 043d d0c8 823d 076b 093e a0b4 033c
00000130: e93d 15bd 3b51 4cbd b1ac 173e 4fba 8ebe
00000140: bb54 14ba 3a5a 3abd 55ee 65be aacd bcbe
00000150: 5f91 4dbe 814e 39be 22a1 2a3e f02e 8d3e
00000160: beb4 bfbe f550 2a3e 5656 18be 4668 ecbe
00000170: 7039 f83d 3405 213e 387c f63e 0596 6d3e
00000180: e8b6 78bd 6d2f 403c e3dd 323d f472 c53c
00000190: 8265 25bd eae7 87be f95f 8abd 7189 9fbd
000001a0: 1d43 ce3d 590c 583e fe3a 6b3e 4c8b d8be
000001b0: 2277 70bd 2483 dabd 869b 85bd 61f6 debd
000001c0: dfcb df3d 2b6b 773c 339d 9fbc f144 94be
000001d0: 136a dabd acbd fd3c 44be 273e c78a f4bd
000001e0: 589e cb38 4344 37be 9126 97bd f1d7 edbb
000001f0: 7b70 413c 9dc2 a93c 5a1e 9ebd 83b6 0e3e
00000200: 3066 343e f8ce 42bd 954e 80bc bf81 a43c
00000210: 075e 063e 9e7d 833c d3ae abbd 663a a93e
00000220: a587 c13e 5244 31be 1ad6 413d 4500 b2bd
00000230: de05 d33c 55a8 d9bc b806 b83d 1b5e a73e
00000240: 5cbd dabd b1b0 cabb 7021 3abc f99e 62bd
00000250: 0c21 e03d 0662 983d 5edd 203e b229 38bd
00000260: 7f75 24bd c664 6a3d 5cb3 91bd 880e 9d3c
00000270: 7432 14be 23a4 52be f7ab 05be 1ba3 323a
00000280: f34d 1abd b78f adbd e53b 30be 3a9b 0c3e
00000290: 4c1d 583d 3e95 313d cbd7 323e 01fa c13c
000002a0: 5719 8cbe 0c46 ebbe 779d 88bd f799 aabd
000002b0: 2515 1d3e d63a 96bd 59df d4bd ab9b 82be
000002c0: b7a1 9cbd de4a cd3d 97c0 633e 9a30 68be
000002d0: 1fac 87be 610f c1be 57f3 343d 4d07 5d3d
000002e0: d552 06be a032 013f fce5 00bd 0308 42bf
000002f0: 3b31 253c f6c7 aa3e b91b 423d 3b1c 343e
00000300: b801 ec3a 02aa c7be c201 803e b4fd 93bb
00000310: 0b9b 233e 0b80 be3d 3fba 4ebf e062 443d
00000320: ca51 e13e 0d3e a03d 9f33 ff3d 5beb 933e
00000330: e170 853e bf1f 8b3e d36b 02be 6fe7 44bf
00000340: a1df 733e a078 853e 817c 94be fdda 8f3e
00000350: ae7e 483d 1b47 c2be c72d 65be 6967 8fbd
00000360: b6ae c9bd 813f 263f db91 29bf 99f0 353f
00000370: 83dc b43e 28ea 91bd 04b2 303f 6272 bbbe
00000380: 08f9 283d 2f76 2fbe bdc9 433f eada 3d3e
00000390: 7de1 0a3f 6f96 b9bf 24f8 083e 3587 26bf
000003a0: f168 a9be 1363 dc3d 4f15 3bbe 55bb b5bf
000003b0: 63df 8dbd fb95 07bf b1ba 453f b48f 693e
000003c0: 6bba 96be 2fec 1940 10c5 b3bf 4b52 b73d
000003d0: 7266 1d3f 6ee6 f93e f215 8b3e 9bad 5dbe
000003e0: a7e8 473e 3b94 68bf 4ac6 a7bb 8bcb 31c0
000003f0: 09da 02be 16ce 2bbe a36e d0bd 65f1 54bd
0.093303956 0.17439854 0.089253776 -0.1614412 -0.16532947 0.09439346 -0.085757636 0.6798603
-0.036696587 -0.10197881 0.25855064 0.104442246 0.22432043 -0.001636464 0.20171615 -0.0026396762
0.22739953 -0.2823002 0.473263 -0.16536394 -0.13009107 -0.39084363 -0.043794554 -0.056424927
0.02964296 0.69420904 0.2963157 -0.5299044 0.013188727 0.1271609 -0.11872091 -0.18025774
-0.41576144 -0.096166044 -0.093285196 0.14574374 -0.43344742 0.0545109 -0.1425136 -0.16536885
0.020277904 -0.006609425 -0.1578595 0.05292247 0.14594124 -0.15065227 -0.021766692 0.016056152
0.079255894 0.12205887 -0.17550176 -0.001683032 0.17088635 0.05571008 -0.109439805 -0.20855476
-0.08961811 0.6675322 0.108714215 -0.15884762 -0.37935555 -0.51537204 -0.16837323 -0.049436904
0.28041583 0.16135229 0.22438884 -0.27917057 0.048310693 -0.23434474 0.03258118 -0.25509706
0.03233982 0.06385958 0.13419734 0.00803867 -0.036435995 -0.049882155 0.1481197 -0.27876517
-0.0005658378 -0.045496203 -0.22454198 -0.3687566 -0.20074986 -0.18096353 0.1666303 0.27574873
-0.37442583 0.16632445 -0.14876685 -0.46173304 0.1212033 0.15724641 0.48141646 0.23201759
-0.060721308 0.011730057 0.04366864 0.024102665 -0.04038001 -0.26544124 -0.067565866 -0.07789887
0.100713946 0.2109846 0.22971722 -0.42293775 -0.058707364 -0.10669544 -0.06523804 -0.10886837
0.10927557 0.015101234 -0.019484138 -0.28958848 -0.10664763 0.030974232 0.16381174 -0.11940532
9.709288e-05 -0.17897134 -0.07380403 -0.0072584082 0.011806603 0.020722682 -0.07720633 0.1393681
0.17617106 -0.047560662 -0.01566247 0.020081399 0.13121806 0.01605111 -0.083829544 0.33052367
0.377988 -0.17311218 0.047323324 -0.08691458 0.025759634 -0.026569525 0.089856565 0.32688984
-0.10680649 -0.006185614 -0.011360511 -0.05532739 0.10943803 0.074405715 0.15709445 -0.04496164
-0.040151116 0.05722501 -0.07114288 0.019171968 -0.14472371 -0.20570426 -0.1305388 0.0006814466
-0.037671994 -0.08474677 -0.17210348 0.13731089 0.052762315 0.04335522 0.17465131 0.023678781
-0.27363083 -0.4595188 -0.06670659 -0.08330148 0.15340097 -0.07335441 -0.10394163 -0.2550939
-0.07648032 0.100240454 0.22241436 -0.2267479 -0.26498505 -0.37707046 0.04417738 0.05396204
-0.13117535 0.5046787 -0.03146933 -0.75793475 0.010082538 0.33355683 0.04738972 0.17588894
0.0018005883 -0.38996893 0.2500134 -0.0045163278 0.15977113 0.09301766 -0.8075294 0.047945857
0.44007713 0.07824335 0.12461018 0.288905 0.26062682 0.27172658 -0.12736444 -0.7691564
0.23815776 0.26068592 -0.2900124 0.28096762 0.048948936 -0.37944874 -0.22380744 -0.07002146
-0.098477766 0.6494065 -0.6623818 0.7107025 0.35324487 -0.0712474 0.6902163 -0.36610705
0.04125312 -0.17134927 0.76479703 0.1854054 0.5425032 -1.4499034 0.13375908 -0.6505006
-0.33087876 0.107610844 -0.18269847 -1.4197794 -0.06927373 -0.5296323 0.77237993 0.22808725
-0.294391 2.4050405 -1.4044514 0.08951243 0.61484444 0.48808616 0.2716518 -0.21648256
0.19522344 -0.9085118 -0.0051200734 -2.7780483 -0.12778486 -0.16777834 -0.10177352 -0.051988024

bias f4 [400]
00000000: c84b 93b9 ac9d 41ba e174 2c3e fed7 033a
00000010: c0bf f739 4328 563a 6b68 db3e 00f7 96bd
00000020: 15f6 1a3e 7581 4dba aee2 07bd 7f85 313d
00000030: d67c 3cba 5592 8a3b 47ad 8dbb 23e7 24bd
00000040: 1e4b 663d c642 7f39 86d4 973a f6c5 69b9
00000050: 7c75 2a3d 8db8 25ba 4baf 443a 0ec3 94bb
00000060: e36e 2ebb 4274 39bb 4091 913d 66d1 043e
00000070: 34bf 293b 69fb f73a e1fc 4f3d b249 0ebb
00000080: 50e7 003e 281f f839 0a7e 84ba 2266 81bd
00000090: 539b 8e3a 3603 2e3e a50f beb8 2c66 663d
000000a0: 3fae 983d 5a7b c1bb cb48 cebb 7952 133a
000000b0: 1d71 56ba 0b01 573a 06fc 80b9 86c9 e93a
000000c0: 7483 79b9 3583 20bd 00ec 19bd f752 733e
000000d0: 3210 99ba e6ac d23a c777 0b3b b589 d6ba
000000e0: 1139 413a 94f3 75be 391b 2fb9 e1f0 8c39
000000f0: 302f 813b 47f0 08be 0965 90bd f531 1f3b
00000100: d9de 30ba ba88 c23b 51b7 f8bd b356 d6bb
00000110: c076 943d 12ab 9f3d 968b c1b9 bf24 1d3b
00000120: 8abc 1b3e 46c6 c13a 7d3b 8fb8 b5de 17bb
00000130: 0402 6339 a08c b3bc 1dba d6b9 15df 863d
00000140: c4a4 373b fbf4 403b 49be 8439 3262 5c3a
00000150: 0652 9b3a 55d9 893c 825b b0ba 0643 623a
00000160: e88f 74b9 961d 373d 606b 173b a3b9 37ba
00000170: 08f4 a43a 2464 63bd 9888 00ba 5278 4c39
00000180: 60c3 873e f601 993e d89f 643a ec09 7cbb
00000190: 86c3 453d 34bc f239 5214 ce3a ab91 e8bc
000001a0: 5456 9fbd aa5e 8c39 ba55 e13a b52b 543a
000001b0: 826d 2d3d 7a7d 1337 b917 62bd 4d78 ad3c
000001c0: 5f49 8e39 9b7c 983a 2bfc 723b e77e 06ba
000001d0: 9b94 aeb9 ad52 2d3a c1f6 7a39 1d52 353b
000001e0: 4763 2e3d e8e2 62bd de79 323e 10ba da3c
000001f0: c7cd 7abc 722a 613a 25fe 543b 837d 12bd
00000200: a973 1cbd 148b 6dbb ed4c f1bc 9932 273a
00000210: 1182 803c 74c1 d638 0d0c 1138 36cd 083d
00000220: bac8 5d3d 351f 4f3a 5213 e83b 8600 4e3a
00000230: d676 8739 3aeb 0f3a 2848 a9b9 6de6 0a3e
00000240: 148c 483e b7be 2cbb 3d27 323d dfce a33d
00000250: 18ec f8bd 86fa 4bb9 2752 2c3a 3876 a7b9
00000260: 64b7 e738 9ab1 56ba 3667 b8bd 844d ecbb
00000270: e536 e7ba c0b4 4a3a 0765 e5bc 4fc5 8638
00000280: beb6 77ba 4172 183d 9e01 d3bd 774a fbba
00000290: 572d 7fbd 7257 8ebd 68c2 103b 5c5b 95ba
000002a0: 423d 0d38 0b8c 8d39 adfc 023b f5d7 d53a
000002b0: 8a98 95ba 0c90 38bb f018 3ebc b3a4 493d
000002c0: 6a4f 43bb 5b57 613a cca7 733a 2cf6 9e3a
000002d0: dc91 b63b e09b 90b9 6f97 a8ba 31e2 49ba
000002e0: 4ed0 963b f2ad 6539 3172 dfb9 82fd f3ba
000002f0: d2bc 663a 0af9 d33a b082 e1bc e717 743a
00000300: 0bb5 a9ba 000c c6ba d8e7 ab3a b3eb a4ba
00000310: 9278 063d a371 ae3b f1e9 143a d4ad d63a
00000320: 3f70 83ba b86f 25ba 05b2 923b 974f ae3b
00000330: 0913 c83a b6fe c1ba a0fc bb3e 65c3 e03c
00000340: 875d b03a 7b96 a8bd 5067 4d3a 4bb3 ee3c
00000350: 64d7 bab9 c0bc a939 e28f 63ba 00a3 b9b6
00000360: 5ddf 213e 57f2 a63a 7f76 e339 3b5f 51ba
00000370: d672 54be d306 89ba c05e c43a fb21 3eb8
00000380: 3bf1 1c3a fc56 a5b7 6a46 963d a224 6abe
00000390: 0714 633d b4dc 0d3e 270a acbd 6344 44be
000003a0: 5c54 01ba b6b7 c6bd ab72 aa3b a5f0 3dbe
000003b0: 707a 163e 9a3c 68ba 78a5 a2bc 6a9b dfba
000003c0: 0ff8 1b3d 132d 98bc dd00 2f3d f9f9 133c
000003d0: f564 d33d 29ce c4b9 5422 10ba bcb9 ebba
000003e0: 5f22 c2ba facb d8ba 7bec a33a a7ee 823d
000003f0: 9d17 2f38 10f4 8d3b 8154 df3c 0de1 063b
-0.00028094486 -0.00073858607 0.16841461 0.0005029439 0.00047254376 0.00081694516 0.42853102 -0.0737133
0.15132935 -0.000783942 -0.033175163 0.043340202 -0.0007190233 0.00422887 -0.004323635 -0.04025949
0.05622398 0.0002434357 0.0011583723 -0.00022294358 0.041615948 -0.00063217507 0.00075029273 -0.004539854
-0.0026616387 -0.0028298055 0.07107782 0.12970504 0.002590132 0.001891953 0.050778273 -0.0021711406
0.12588239 0.0004732546 -0.0010108363 -0.063183084 0.001088003 0.16993412 -9.06282e-05 0.056249782
0.0745511 -0.005904597 -0.0062952987 0.00056198944 -0.00081803073 0.00082017545 -0.00024601835 0.0017836548
-0.0002379546 -0.03918763 -0.037578583 0.23762117 -0.00116778 0.0016073256 0.002128111 -0.0016367944
0.0007370869 -0.24018699 -0.00016699442 0.0002688235 0.0039423928 -0.13372909 -0.07050521 0.0024291251
-0.0006747074 0.005936709 -0.1214434 -0.006541097 0.07249212 0.07796301 -0.00036915828 0.0023978201
0.1520864 0.0014783822 -6.829852e-05 -0.0023173515 0.00021649158 -0.021917641 -0.00040955926 0.06585518
0.0028021792 0.0029442895 0.00025318775 0.0008406966 0.0011850006 0.016827265 -0.0013455006 0.0008631203
-0.00023323263 0.04470595 0.0023104772 -0.0007008558 0.0012584934 -0.055515423 -0.00049031666 0.00019499779
0.26516247 0.2988431 0.00087213283 -0.0038458062 0.04828217 0.0004629806 0.0015722609 -0.028389772
-0.07780138 0.0002677341 0.0017191686 0.0008093671 0.042340763 8.791098e-06 -0.055198405 0.021175528
0.00027139016 0.0011633815 0.0037076573 -0.0005130604 -0.00033298586 0.0006611746 0.00023933781 0.0027667352
0.042575147 -0.055392176 0.17429301 0.02670005 -0.01530785 0.00085893937 0.0032500115 -0.03576423
-0.03819624 -0.0036246227 -0.029455626 0.0006378084 0.01568702 0.00010240349 3.4581917e-05 0.03339883
0.054146506 0.00079010735 0.0070823813 0.00078583544 0.00025837746 0.00054900686 -0.00032287952 0.13564463
0.19584686 -0.0026358792 0.04349445 0.07998442 -0.12154406 -0.00019452916 0.0006573521 -0.00031940802
0.000110490975 -0.0008189917 -0.09004061 -0.007211389 -0.0017640261 0.00077326223 -0.028002275 6.4263695e-05
-0.0009449533 0.037218336 -0.10303043 -0.0019171973 -0.0622991 -0.069502726 0.0022088531 -0.0011395025
3.367407e-05 0.00026997956 0.0019987032 0.001631497 -0.0011413258 -0.002816203 -0.011602625 0.049229335
-0.0029801973 0.0008596086 0.0009294718 0.0012127808 0.005571587 -0.00027581956 -0.0012862514 -0.00077012466
0.0046024686 0.00021903942 -0.00042618954 -0.001861498 0.000880194 0.0016172242 -0.027528137 0.0009311423
-0.0012947632 -0.0015109777 0.001311536 -0.0012582451 0.03282983 0.005323605 0.0005680612 0.0016378709
-0.0010027959 -0.0006310898 0.004476788 0.0053195464 0.0015264462 -0.0014800641 0.36716175 0.027436921
0.0013455608 -0.08231827 0.0007835524 0.029138228 -0.00035637163 0.00032374822 -0.0008680803 -5.5324053e-06
0.15807863 0.0012737018 0.000433851 -0.0007986908 -0.20746931 -0.0010454304 0.0014981851 -4.5331177e-05
0.0005986874 -1.9710038e-05 0.07337649 -0.22865537 0.05543902 0.13853723 -0.08400374 -0.19166712
-0.000493353 -0.09703009 0.005201658 -0.1854883 0.14695144 -0.0008859128 -0.019854292 -0.0017059867
0.038078364 -0.01857618 0.042725433 0.009031766 0.103219904 -0.00037537634 -0.00054982794 -0.001798443
-0.0014811269 -0.0016540282 0.001250639 0.063931756 4.1745243e-05 0.004332073 0.027261974 0.0020580918

weight f4 [10, 400]
00000000: 4e2b cdbc 4f96 6dbd 7df5 2bbd 1129 7a3d
00000010: 6c19 b5bc 9c86 493e 18f4 afbe 0ba5 9bbd
00000020: 1248 3c3d 4be2 b1bd 6a2e 08be ea49 7a3d
00000030: 87b2 7ebd 98e6 8e3e a140 0dbf 46c2 da3d
00000040: 1dab 4ebd 1d59 9c3c 1a84 f03b e810 303c
00000050: a504 183d 9158 22bc 0196 af3d da60 833d
00000060: d3a0 48bd e31f dbbd bb7f c0bc 2bcf 333d
00000070: a8f6 093e 9ca0 0b3e 6c00 12bd bbad 10be
00000080: e0d4 83bd c591 03bd 21a4 81bc 3716 e83d
00000090: 9347 87bd adc8 c93d c8ea 90bd d814 b4bd
000000a0: d96c a2bd be24 a2be c40b b73c 0aca d0bb
000000b0: b022 5ebc 6783 ac3d a5eb 38bc 23fd c73c
000000c0: f5ec 52bc 9a5a 023e 6ec2 133d 0142 2abe
000000d0: 2be7 0ebe 8b10 f03e 4167 80be c365 35bd
000000e0: 4167 32bc 849b 81bd 720e debd 8350 afbd
000000f0: 2533 e1bd 84d8 4bbd 83d7 9bbd 8fa8 173e
00000100: 9d55 95ba 8347 c83d db93 90bd d937 21bd
00000110: 9e8b 67bd c687 3f3c 4d75 af3d 764a 9a3e
00000120: c5eb acbd b2d8 7bbd 179d 8dbc 7055 89be
00000130: fb91 3f3c e02b 1fbd a108 11bd 6752 5ebd
00000140: 00ab 023e ba72 ca3e b9aa 4e3c 8339 1a3e
00000150: 844c 183d dfd6 2dbe 5638 8abd cd85 3cbc
00000160: a379 6c3e 4375 243d c8b3 183c 87cc b6bd
00000170: 75c5 c03d 05bd bf3d b622 46bc 0334 4ebe
00000180: 0f3b 5dbd 6528 823c 08c5 9a3b 0152 18be
00000190: 3801 efbb bb25 84bd 5590 193e ed6f 033d
000001a0: 679f d7bd bfc5 173e 8600 6b3d 101f d8bc
000001b0: 650d a8bd a154 3e3b 7ba9 d9bc bc3d 383d
000001c0: 0698 c2bc 8fa0 0b3e 4454 2a3e 57b7 76bd
000001d0: 6b8e 24bb f5f5 a5bc 8c64 433b c7f6 4fbb
000001e0: b0fd 02be 3927 9339 c8e7 b1bd 63b7 51bd
000001f0: 8f2b 52be babd 89bd 3082 973e 2156 213d
00000200: d3e2 0a3e b809 bfbc f9b3 ee3c 7429 7b3d
00000210: 6be7 6f3d 561b 653b c5b2 efbb 1338 76bc
00000220: ad09 a53c d361 b93d 8edf 183d 48eb e53c
00000230: 0391 9dbd 6742 533f 96b5 99bd d249 0dbd
00000240: b5cd 8bbd f7be 6c3e d729 0fbd 8082 ccb8
00000250: 8ed7 efbc b3bb ccbd ff91 073e 4ad2 29bd
00000260: 2914 243c 6d37 bfbd b44e 56bc 0b17 89bd
00000270: f4d2 c3be 17b7 323e 883f b4bd bb9d 98be
00000280: 1989 aa3c fe9b bf3c 1255 b8bd d6d5 a13c
00000290: 3b43 913d b5d6 a2bc 6260 d0bd e1a6 533d
000002a0: 650e 383c 4868 d5ba 3707 2cbe efff 1c3e
000002b0: 7c94 e1bd 5ae2 dabc ae1c 1f3d 03ce babc
000002c0: f587 babd 8731 803e ba5d 253b 2b60 033d
000002d0: ebd4 d23d d332 713d b435 fb3d e434 b0bd
000002e0: 8ffe a83e 4b12 feba 9299 2f3a c7f0 40bd
000002f0: 6793 123d cda5 5ebd e3de c23b cac9 f6bc
00000300: f529 10ba 32ad fabe fdfc 623c 012c b43d
00000310: 67bc 01bb 7656 0d3f 06b6 853d 8a35 68bc
00000320: 104a 49bd 4b75 a3be 9b28 8abd d824 f43d
00000330: c0c8 0cbe 1a25 11be dd02 4ebc 1921 293e
00000340: c864 943d 46cd 30bd 4473 933d 08b3 40bd
00000350: 364c 92bb 5bfb f93e 8c1e 54be 69b8 303e
00000360: 1e73 89bd 643e fe3d 48b7 243c f7f1 3ebd
00000370: f9cc a93d 48c9 923d a9bd 1ebe 0d2d 0ebd
00000380: 9436 d7bd bc51 073b 8039 d33a 4846 4abe
00000390: 1ac3 363d c524 0e3d a685 8abd 5bbe 77bd
000003a0: 3a16 30be b187 b63d 7ee4 3dbe b3cd 323d
000003b0: 028a 553e 8bcb a6bb 5130 e9bd ed39 27be
000003c0: d1db 393d ab0c d73d a045 483d f856 d43e
000003d0: d06d 77bb 8a04 8f3a 1a40 3ebc 30af 7c3d
000003e0: cc98 72be f823 ccbd 8258 2e3c d5fd b63d
000003f0: d695 783c 2664 0dbe f984 853c 20af 233f
-0.025045063 -0.058004674 -0.041982163 0.06107432 -0.022106849 0.19680256 -0.34365916 -0.07599839
0.04596717 -0.0868574 -0.13298956 0.061105646 -0.062181976 0.27910304 -0.5517674 0.10681586
-0.050456155 0.019085461 0.0073399665 0.010746218 0.037113804 -0.009908811 0.08573533 0.06414957
-0.0489815 -0.10699441 -0.023498407 0.043898743 0.13472998 0.13635486 -0.035644934 -0.14128773
-0.06437087 -0.03212144 -0.015825333 0.11332362 -0.066054486 0.09852729 -0.07076031 -0.08793038
-0.07930917 -0.31668657 0.022344477 -0.006371741 -0.013558075 0.084235005 -0.011286651 0.024412697
-0.012873878 0.12729874 0.036074094 -0.16626741 -0.13955371 0.4688762 -0.25078776 -0.0442865
-0.010888875 -0.063284904 -0.10842599 -0.08560278 -0.10996083 -0.049767032 -0.07609465 0.14810394
-0.0011393313 0.09779265 -0.07059451 -0.0393599 -0.056529634 0.011690086 0.08567295 0.30134934
-0.08443407 -0.061485954 -0.01728682 -0.26822996 0.011692519 -0.0388602 -0.03540862 -0.054277804
0.12760544 0.39540654 0.012613946 0.15061001 0.037182346 -0.16976498 -0.067490265 -0.01150651
0.23093276 0.040150892 0.009320207 -0.08925729 0.09412662 0.093622245 -0.012093237 -0.20137028
-0.0540114 0.015888402 0.004723195 -0.14875032 -0.0072938465 -0.06452509 0.14996465 0.032089163
-0.105284505 0.14821528 0.057373546 -0.026382 -0.0820568 0.0029042142 -0.026570072 0.04498075
-0.023754131 0.13635467 0.16633707 -0.06023344 -0.0025109302 -0.020258883 0.002981457 -0.0031732784
-0.12792087 0.00028067248 -0.08686787 -0.05120028 -0.20524429 -0.067256406 0.29591513 0.03938878
0.13563089 -0.023320064 0.029138552 0.06131883 0.058570307 0.003495892 -0.007315012 -0.015028018
0.020146215 0.090518616 0.037322573 0.028066292 -0.076936744 0.82523197 -0.07505338 -0.03449423
-0.06826345 0.23119722 -0.03495201 -9.7517855e-05 -0.02927759 -0.09996738 0.13239287 -0.041460313
0.010014572 -0.093367435 -0.013080288 -0.06693848 -0.38246882 0.17452656 -0.0880118 -0.2980784
0.020817326 0.023389813 -0.09000601 0.019755285 0.07092901 -0.01987777 -0.101746336 0.05167282
0.011233901 -0.0016281689 -0.16799627 0.15332006 -0.11014649 -0.026719261 0.03884571 -0.022803312
-0.09107963 0.25037786 0.0025232867 0.032074135 0.10294517 0.05888636 0.122661024 -0.08603838
0.33006713 -0.0019384114 0.0006698604 -0.047104623 0.035785105 -0.05435734 0.0059469803 -0.030125517
-0.0005499416 -0.48960263 0.013854262 0.087974556 -0.0019796134 0.55210054 0.06528859 -0.014172921
-0.049142897 -0.31925425 -0.06746026 0.1192109 -0.13748455 -0.1417431 -0.012573925 0.16516532
0.07245785 -0.043164514 0.071997195 -0.047045738 -0.0044646515 0.48824582 -0.20714778 0.17257847
-0.0671141 0.12414244 0.010053463 -0.046617474 0.082910486 0.071672976 -0.15502037 -0.034710933
-0.10508457 0.0020648083 0.0016115159 -0.19753373 0.044619657 0.034703035 -0.06763773 -0.06048427
-0.17195979 0.089126 -0.18544194 0.0436532 0.20853427 -0.005090182 -0.11386169 -0.1633069
0.04537565 0.10500463 0.048894525 0.41472602 -0.0037754662 0.0010911387 -0.011611963 0.06169051
-0.236911 -0.09967798 0.010641219 0.08935133 0.015172442 -0.13807735 0.016298758 0.63939095

bias f4 [10]
00000000: 78d2 133d 7946 4abd 4584 933d 3629 18bd
00000010: cfd2 663d 9820 193c e8f6 183d c431 bfbd
00000020: 0b7d 633e 37fa 5bbd
0.03608939 -0.049383614 0.07202963 -0.037148677 0.056353386 0.00934615 0.037344843 -0.09335664
0.22215669 -0.05370542

weight f4 [400, 10]
00000000: 1c8a edb7 8b75 cd39 8d2b 08b8 a2d1 9737
00000010: d79d 6538 ea99 99b7 a4df 95b6 aa7c 7d39
00000020: 86f0 feb9 1d51 9938 b9a0 d838 a63c 7038
00000030: c941 0639 dabd 1eb9 0758 71b8 9d70 22b8
00000040: 8257 adb7 f8d0 05b6 0541 a7ba 13bb 42b9
00000050: 82e3 83be 7a37 4bbe dfb4 efbe bf6a 593e
00000060: c14e 5a3e ffaf 7ebe be89 bd3c 61a2 103e
00000070: 0ef2 b9be df0c c2bd e6bf f335 dea4 e0b8
00000080: b697 7637 b493 9ab6 9010 11b5 8484 89b6
00000090: 9616 3536 cc2d 3eb8 952e 8939 9d97 46b7
000000a0: eac7 0c3b 9bb0 9f3b 9593 083b 8bf8 07bb
000000b0: 6ed7 e2ba 1fd0 793a e2d7 5bba 84dc b2b9
000000c0: 2108 0abd 8cd8 0bbb 9312 a938 f486 64b7
000000d0: 37eb 7838 0b32 b0b8 d928 aeb7 1077 2db8
000000e0: 0c07 db37 fc69 f437 ef05 27ba 7481 d9b8
000000f0: 75f4 bc3e 756a 723c 7620 04bf 53b7 97be
00000100: bdc9 21be 53c9 c4be 9457 c2bd ac24 54bf
00000110: 1357 333e 6b33 9f3e 9024 0e37 c5b9 e0b8
00000120: b8ea c1b7 c9e3 1938 78e1 04b8 6552 9eb7
00000130: c2c8 1938 69cc a9b8 b23a 9c39 78a6 9a37
00000140: 81cb d23e efe9 32be c7cd a4bd 5248 e3be
00000150: eba8 44bd 1ddb ba3e 21ee c03e be98 963e
00000160: 87ae 88be 9190 d9be 86a0 afbe f935 92be
00000170: 39ee 6bbe 3f5d 02bf 60cf bcbe 81e7 abbe
00000180: 7f58 253d 0eb1 29be c7e1 a7bd 3de5 81be
00000190: 41e3 d9ba fd63 88bb 784d d6ba a5b3 d63a
000001a0: dc52 b63a ad8c 59ba 197d 463a 723e 5b39
000001b0: 11f4 dd3c cf9d df3a 83b1 41b9 008f dd36
000001c0: 104e eeb8 1141 e938 c428 af38 22a4 46b8
000001d0: 2b66 5c38 9f3d a638 0ab4 c33a a2f4 0c39
000001e0: e28c cfbd 80cf c33e 7249 af3e 49d7 c5bb
000001f0: 737f 8fbe fdcb 22be dddc 143e 330d 3abf
00000200: b279 7a3e ab21 8e3e 9517 7838 5cbf 98b9
00000210: 2b80 0437 40cf 1233 9bc5 3c37 70e7 f4b6
00000220: adca 8b37 4af0 81b8 b31e d239 f04d bbb7
00000230: 5f00 8cbd 132f 81be 74aa dd3d b998 8ebe
00000240: 0234 883e f855 22bd dc47 1cbe a349 8dbe
00000250: 6a5e adbe 454f 863e 829f d4b7 86cb 0839
00000260: 1e73 2ab8 fd7c 4f38 907e 66b8 db40 cd38
00000270: c278 94b8 ec42 90b8 f25d 62b9 483f a837
00000280: 6cf8 a237 6cb2 bf39 c89e 1ab7 3fd5 4b38
00000290: 4244 b238 b1b5 a3b7 c83e 17b8 4d33 9239
000002a0: e4bb 05ba d49a ce38 dc3c 64be 58bf 9abe
000002b0: cd32 e03e b23d a53e b434 0c3e 3d33 f8bb
000002c0: 947b 823e d8ac 9e3e e196 88be a3ca d43e
000002d0: d0c4 38b8 e8ce 8339 654f d0b7 8272 0b37
000002e0: 5ee4 0f38 c6fb 3b38 fc6d e9b7 5728 3039
000002f0: 2869 2bb9 41a2 c337 be49 7ab7 e93b 5e39
00000300: 6495 a1b6 c49c 10b7 357d 0938 0f0f acb8
00000310: f22d 8b38 e559 1939 f496 8bb9 8521 1c38
00000320: 6840 9cb7 6806 0db9 3cce 9638 4eee 06b9
00000330: 43df a6b8 30f4 f738 64b3 9db8 644a 03b9
00000340: 665a 83b9 9e76 4fb9 9cbe 5737 6301 5f39
00000350: 70eb 9335 20b1 1936 12e8 5a38 f390 c8b8
00000360: c100 9938 da27 4f39 54e3 8eb9 f635 5938
00000370: 0c84 8cb8 9e04 5fb8 ecc3 b8b8 16b2 b438
00000380: cdd7 8538 e6a6 b2b7 1a7d f037 0ce9 d638
00000390: 04a1 8a3a b433 e438 00d8 74b7 2092 cfb7
000003a0: 005c 9036 2771 88b7 fa57 d6b7 8b43 b838
000003b0: 9dab a2b8 1e76 36b7 287e 4b38 3749 8bb8
000003c0: d61b 18bc 8668 c63e 03a7 37be b40e 99bc
000003d0: e4d6 3abe 52da b43d 29e0 9c3a 01c6 f63d
000003e0: 7c8b 213e 1517 8e3e 1dad 8437 dd15 2b39
000003f0: 28f1 9235 0002 9ab7 3c4f f136 fed7 ebb6
-2.8316914e-05 0.00039188223 -3.2465487e-05 1.809822e-05 5.4744854e-05 -1.8310693e-05 -4.4665812e-06 0.00024174401
-0.0004862586 7.310717e-05 0.000103296195 5.7276942e-05 0.00012803743 -0.0001513878 -5.754086e-05 -3.872869e-05
-2.0663956e-05 -1.994018e-06 -0.0012760466 -0.00018570972 -0.25759512 -0.19845381 -0.4681768 0.21232127
0.21319105 -0.24871825 0.02313697 0.14124443 -0.36317486 -0.09475111 1.8160761e-06 -0.00010711861
1.4698066e-05 -4.6067526e-06 -5.404081e-07 -4.098345e-06 2.6984249e-06 -4.534218e-05 0.00026165383 -1.183702e-05
0.0021481463 0.004873348 0.002083992 -0.0020747508 -0.0017306635 0.00095296087 -0.0008386356 -0.00034115103
-0.03369916 -0.0021338789 8.062008e-05 -1.362128e-05 5.934687e-05 -8.401655e-05 -2.0761438e-05 -4.13573e-05
2.6110116e-05 2.913642e-05 -0.00063714286 -0.00010371479 0.36905256 0.014795889 -0.5161203 -0.29632053
-0.15799613 -0.38434848 -0.094893605 -0.82868457 0.17513685 0.31093916 8.472372e-06 -0.000107157546
-2.3116692e-05 3.6690184e-05 -3.1681237e-05 -1.8873436e-05 3.6665013e-05 -8.096622e-05 0.0002979837 1.8435749e-05
0.41170886 -0.17472051 -0.080470614 -0.44391114 -0.048012655 0.36495295 0.37681678 0.29413408
-0.26695654 -0.42493108 -0.34302157 -0.28556803 -0.23040093 -0.5092353 -0.36876965 -0.3357506
0.0403676 -0.16571447 -0.081973605 -0.25370207 -0.0016623513 -0.00416231 -0.0016349992 0.0016380443
0.0013910192 -0.00082988554 0.00075717416 0.0002090873 0.027093919 0.001706058 -0.00018472043 6.6029606e-06
-0.00011363265 0.00011122425 8.3522435e-05 -4.735974e-05 5.254724e-05 7.926975e-05 0.0014930975 0.00013442573
-0.10134293 0.38244247 0.34235722 -0.006037627 -0.28026924 -0.15898128 0.14537378 -0.7267639
0.24460486 0.27760062 5.914977e-05 -0.00029134273 7.8976545e-06 3.4181767e-08 1.1251682e-05 -7.2987095e-06
1.666447e-05 -6.195957e-05 0.00040077194 -2.232843e-05 -0.06836008 -0.25231227 0.10823527 -0.27850893
0.2660218 -0.039632767 -0.15261787 -0.27595243 -0.33861095 0.26232353 -2.5346646e-05 0.00013045789
-4.063837e-05 4.946905e-05 -5.4954144e-05 9.787242e-05 -7.079683e-05 -6.87892e-05 -0.00021588037 2.0056628e-05
1.9427585e-05 0.00036563294 -9.216084e-06 4.8597572e-05 8.5004154e-05 -1.951572e-05 -3.6059675e-05 0.00027885512
-0.0005101545 9.8516844e-05 -0.22288841 -0.3022411 0.43788758 0.32273632 0.1369198 -0.0075744675
0.25484908 0.30991244 -0.2667761 0.4156085 -4.4052314e-05 0.00025140424 -2.4832503e-05 8.311707e-06
3.430654e-05 4.4818757e-05 -2.782698e-05 0.00016799696 -0.00016347005 2.3321367e-05 -1.4918331e-05 0.00021193888
-4.8155653e-06 -8.619569e-06 3.2779953e-05 -8.204404e-05 6.6365945e-05 0.00014624705 -0.00026624615 3.7224516e-05
-1.862664e-05 -0.00013449194 7.1909715e-05 -0.00012868011 -7.9570826e-05 0.00011823361 -7.5197575e-05 -0.00012520846
-0.0002505362 -0.00019785247 1.2859378e-05 0.00021267454 1.1020875e-06 2.2901877e-06 5.2191383e-05 -9.563742e-05
7.295749e-05 0.00019755904 -0.00027253723 5.1787087e-05 -6.700316e-05 -5.3171643e-05 -8.810297e-05 8.61624e-05
6.38213e-05 -2.1296972e-05 2.8668484e-05 0.000102477235 0.0010576551 0.00010881518 -1.4593825e-05 -2.4744368e-05
4.3022446e-06 -1.6265154e-05 -2.5551755e-05 8.7863846e-05 -7.7567274e-05 -1.0875547e-05 4.8516464e-05 -6.641674e-05
-0.00928398 0.3875162 -0.17934804 -0.018683769 -0.18246037 0.08830704 0.001196866 0.12049485
0.15775865 0.27751985 1.5816238e-05 0.00016315976 1.0948033e-06 -1.8359162e-05 7.191584e-06 -7.0286906e-06

bias f4 [400]
00000000: e259 c7b9 0e76 ea3a 6093 893e 6d60 7eb8
00000010: 631d 1a3d 9b88 843a 2475 22be 72d1 19b9
00000020: 8f9a 483d 1909 57be 1698 f3bc 9bab 12bb
00000030: bc8f 3c3d 740b 2339 1792 1f3e f09d 1ab7
00000040: f0eb a4b9 a0c7 d33c 8233 ceb9 ca01 65b9
00000050: 2b35 6f3a 4812 61b9 9943 baba 964f 8138
00000060: defc 2f3e 2983 5c39 a6c3 f23d a7e2 feba
00000070: 4383 c7ba a653 28be b855 b4b9 3a14 f3b8
00000080: ad50 eeb9 88b8 3dba 8015 16ba f004 c039
00000090: f898 1ab9 c0e9 fabc aeac 263d 50c7 df37
000000a0: 1bc7 553d ad22 c039 2b34 243e 3637 79ba
000000b0: 5c08 603e f976 8d3c 7cfa 1639 0830 15b9
000000c0: ea0f b63d c641 05ba 8a10 d0bc 348b cd3d
000000d0: 5d1a a1bd dba0 8bba d5ec b8b9 b662 453a
000000e0: 1309 0c39 4c61 eb39 9ddb 9dbb 498c bb3d
000000f0: c191 b1bb 1e8c ce38 5dad 823a 2ccd 3a39
00000100: 6daf 68ba 0b2a fe3a e168 94ba 2c4b 09ba
00000110: 8480 d8ba 7677 cb39 8dca 3c3e 9f4b 0a3e
00000120: f372 55bd 5625 0bbb 5cac 833a c06e 49b7
00000130: 3faf 85ba 3978 04ba 1b16 303a 9e55 e43a
00000140: c0ca fa3a 28cf acb8 4f18 553d d8ef ecb8
00000150: 88c8 aebd 4ce3 b2ba 7115 a5ba acac 233e
00000160: f4b6 d23a 0a8f f038 84b5 7abd f847 db38
00000170: 146b 98bd 02ef 7239 34ef 0bbe 8379 aebc
00000180: e14f 913d dafc 9e38 ba37 8339 6220 243a
00000190: 30a1 b2b9 b674 8c3a cd6f a33c bb13 b4ba
000001a0: 7588 8f3a 9acb c8ba 123a f53a 7ca8 1b3b
000001b0: ba9b b0b8 7916 d83d b44d 76ba f639 0fba
000001c0: 1bf8 373e 7657 1a3e 23d0 3b3d a0ef 4e3e
000001d0: c135 82bb b525 11bb 4cbf 133a cf1f ae3d
000001e0: da5a 0f3a b75e df39 862b ffba 5aa3 eabb
000001f0: f0d1 11ba dcbd d8b8 221f 02b7 dfd9 aeb8
00000200: b5c5 f4bc 649f bb3a d820 473b 1b56 2cbc
00000210: 1168 1d3a ac7b 083a f4c1 bcbd b354 2db9
00000220: 9427 003c 19c5 89ba 0285 4cba e4c3 a339
00000230: b8fc 253e 7d3c a23a fefd 00be fe3a c23c
00000240: 6016 92ba 0d2f a43a 140b ca3d d8d0 81bc
00000250: a688 18ba 520f 44b9 e768 0c3c 62c0 ce3a
00000260: a168 ebbd 721b 053a 205d 18be 933f 213a
00000270: e56a b239 761a adba 5a33 493b 042e d93c
00000280: 82d1 84ba ced8 023b 2c47 53bd c955 78b9
00000290: 1172 c9bb 7000 f837 cea0 4339 5fbf e0ba
000002a0: c222 5d3a 7705 c9bd 2a72 0abe 6981 95ba
000002b0: 1bd8 3db9 c203 c1b8 1650 a739 78c4 7fb9
000002c0: 3eec 0fbb ee27 4cbe 55ed c23d b8bb 083c
000002d0: 5182 cc3a 937c 7c3a a86a cfba 717e 31be
000002e0: 183d d338 d3f7 6e3a 8ebe 533e c9b5 5fba
000002f0: bfbf f23d 89e4 9837 1a9c 6aba 7833 1a3b
00000300: 4e7b 30be b46e 2fbe a9f2 243e 3296 87bc
00000310: 620f 9b3a 06b8 083e 6f48 22bd a146 42bb
00000320: 8a86 393c f441 f6bd 0cb1 3bba 3479 4fba
00000330: 0701 14b9 796f 6bba 63d1 d3ba 08c7 15b8
00000340: 224a 1238 8558 26bc bdca bcba d4f2 9bba
00000350: 7caa 823a 7e99 b9bc 9e9a f5ba 61da 453a
00000360: b993 25be 6ec2 22ba d294 18bd 374d 0e3d
00000370: 408d a5ba 1ed4 073b aa00 773d 879f d13a
00000380: 94f6 163a 722d 5b3a 5872 cf3d 07f3 113b
00000390: f43f a8ba 02df 41bc aa0a 793a cde0 b8ba
000003a0: 1148 c238 8225 b3ba eda8 c9bb c2a4 2b3e
000003b0: 0ae4 8abb f8c5 43be 754f 963a 655a aa3a
000003c0: d660 a4bc 2bd6 63be e28d de3c 3624 9e3e
000003d0: f2cc 99ba 4714 7d39 1f99 ed3a f6c8 ec3d
000003e0: 5e43 75ba 007d 35ba b2b3 18be 9716 213a
000003f0: 76ae 0bba 9dad 483e 7061 383a f574 f7ba
-0.00038023206 0.0017887966 0.2687025 -6.0648123e-05 0.03762568 0.0010111512 -0.15864998 -0.00014669242
0.048975524 -0.20999564 -0.029735606 -0.0022380117 0.046035513 0.00015549158 0.15583073 -9.215888e-06
-0.00031456305 0.025852025 -0.00039329758 -0.00021839808 0.0009125049 -0.00021464482 -0.001421082 6.1660234e-05
0.17186305 0.00021029696 0.11853723 -0.001944621 -0.0015221614 -0.1643816 -0.0003439614 -0.000115909104
-0.00045455006 -0.0007237275 -0.00057252496 0.00036624772 -0.0001474357 -0.030629039 0.040692024 2.6676484e-05
0.052191835 0.0003664693 0.16035526 -0.0009506823 0.21878189 0.017268645 0.00014398427 -0.0001422764
0.08889754 -0.00050833484 -0.025398511 0.100363165 -0.078663565 -0.0010652797 -0.00035271668 0.00075296627
0.00013354821 0.00044895185 -0.0048174397 0.09157617 -0.0054189865 9.848944e-05 0.0009969879 0.00017814775
-0.0008876238 0.0019391192 -0.001132276 -0.0005237337 -0.0016517793 0.00038808183 0.18436642 0.1350541
-0.052111577 -0.002123197 0.0010045874 -1.200632e-05 -0.0010199322 -0.0005053315 0.0006717161 0.0017420535
0.001913391 -8.240185e-05 0.052025136 -0.00011298031 -0.08534342 -0.0013648062 -0.0012594891 0.15983838
0.0016076253 0.00011470735 -0.061208263 0.00010456139 -0.074422985 0.00023167956 -0.13665468 -0.021298176
0.07095314 7.5811244e-05 0.00025027787 0.0006260929 -0.000340709 0.0010715935 0.019950772 -0.001373879
0.0010950702 -0.0015319467 0.0018709323 0.0023751548 -8.42134e-05 0.10551161 -0.0009395734 -0.0005463654
0.17965738 0.15072426 0.04585279 0.20208597 -0.003973693 -0.002214772 0.00056361104 0.08502161
0.0005468555 0.00042604443 -0.0019467927 -0.0071605863 -0.0005562594 -0.00010335047 -7.7558525e-06 -8.337548e-05
-0.02987943 0.001431447 0.0030384567 -0.010518576 0.0006004582 0.0005206417 -0.09216681 -0.00016530119
0.007821936 -0.001051101 -0.0007801802 0.00031235733 0.16209686 0.0012377646 -0.1259689 0.02370977
-0.0011145584 0.0012526229 0.09865394 -0.015846655 -0.0005818702 -0.00018697724 0.008569933 0.0015773887
-0.11494566 0.0005077637 -0.14879274 0.0006151136 0.00034030448 -0.0013206739 0.0030700774 0.0265112
-0.0010133239 0.0019965651 -0.051581547 -0.0002368308 -0.006147631 2.9564108e-05 0.00018656554 -0.0017146877
0.000843566 -0.098154955 -0.13520113 -0.0011406365 -0.0001810495 -9.203657e-05 0.0003191239 -0.00024391885
-0.002196088 -0.19937107 0.09517924 0.008345537 0.0015602802 0.00096316 -0.0015824633 -0.1733339
0.000100726436 0.0009115908 0.2067816 -0.0008533863 0.11852979 1.8226232e-05 -0.00089496525 0.0023529213
-0.17234537 -0.17132074 0.16108193 -0.01655111 0.0011830146 0.1335145 -0.03961986 -0.002964415
0.0113235805 -0.12024298 -0.0007159866 -0.0007914484 -0.00014114763 -0.00089811493 -0.0016160425 -3.570973e-05
3.4878154e-05 -0.010152941 -0.0014403682 -0.001189793 0.0009969021 -0.022656199 -0.0018738096 0.00075474946
-0.16169633 -0.0006208782 -0.0372513 0.034741607 -0.0012630597 0.0020725797 0.060303368 0.0015992977
0.0005758789 0.0008360959 0.10129231 0.00222701 -0.0012836442 -0.011832954 0.0009500185 -0.0014105082
9.264064e-05 -0.0013667794 -0.0061541707 0.16762069 -0.00423861 -0.19118488 0.0011467772 0.001299691
-0.020065706 -0.22249667 0.027167264 0.30887002 -0.0011734052 0.00024135514 0.0018127299 0.11561768
-0.0009356047 -0.00069232285 -0.14912298 0.0006145029 -0.0005328426 0.19597478 0.0007033562 -0.001887946

weight f4 [36, 400]
00000000: 2172 bfb9 ac5d d839 bb18 423e 0c17 8839
00000010: 2791 b93a 0de4 83b9 d348 4d3d ad82 9538
00000020: b0bb 00bd bb7b 03bd 7211 98ba 8126 08b9
00000030: 5a8a c5bd 4fac 88b9 a055 f73d bdb3 3739
00000040: 37d1 aab8 76fe 5cbd f883 9ab9 0e0e 17b9
00000050: 8ad8 b738 d3c0 95b8 0cb1 a2b9 8b77 0a3a
00000060: e1d9 513d 8a12 6d39 3df5 d13c 74c7 fab8
00000070: 2c77 65b9 6630 dabb 36ae dfb8 eeef 92b9
00000080: 4879 1e39 2be0 0dba e49d c438 8f8e 2038
00000090: 7763 a9b8 3b4a 753d b2cb 19bd 3ee1 2739
000000a0: 5180 ee3a ef82 efb8 49c5 02bb b6be 0ab9
000000b0: 6574 06bd f6dd aa3b 6937 54b9 570e 00b8
000000c0: ca86 513c d36b 61b9 31df 43bd 71a4 bb3c
000000d0: 8492 89bd 7c75 4838 90e1 bd37 4d9a 023a
000000e0: f987 35b9 362f 7d39 505d 96b8 a6c6 2e3b
000000f0: 7976 cab8 bbce 4a39 0ff9 2f39 a549 47b9
00000100: c6d6 e336 f644 c538 e9b5 8438 78f2 81b8
00000110: 0de6 00ba 6110 2438 090e cb3c 16a3 853c
00000120: 75f1 61bc 5ab7 2f38 995b e538 2eda 07b9
00000130: 8673 4638 303c aa38 8b71 86b9 5d79 7cb8
00000140: 524a 2439 89fc 3a39 cb7d 4d3d 8e5c 6d39
00000150: 658f 853d 2b84 90b9 305f a6b8 3cb8 c9bc
00000160: 5fec c1b9 d310 92b8 3270 74bc f0ea 9739
00000170: 8226 14bb 8daf 2539 6cbf a9bd daec 34ba
00000180: a984 53bd 604c f338 5c2e e638 a12d 8a39
00000190: 0a34 eab7 baa5 ceb8 89c5 323a 8016 e7b3
000001a0: 2bdc 8cb9 1380 12b9 024b e337 867e 4d39
000001b0: 57ca e9b9 ab4f a6bb 5114 89b9 2d81 6038
000001c0: b2db a23b b453 9e3c c802 afbc e404 25bd
000001d0: 6e9d 9cb7 fdee e5b8 67f2 73b9 e042 063d
000001e0: ec74 7d39 ce29 bbb8 8838 74b7 5d0d bdb8
000001f0: fe46 84b7 76c6 5eb9 4dc1 77b8 8912 b038
00000200: c28c 3ebd 4894 1439 fe37 a139 d962 c7bc
00000210: 8cc7 b8b8 b364 3a39 ba6d 513d a700 a239
00000220: d816 d2bd badd 5638 f0af 97b8 701a 7939
00000230: f8e3 9fbd a392 9837 853d 253b 0956 f5ba
00000240: de49 da37 ee71 8e39 f4cb 863b 11d4 133e
00000250: dff4 8db8 94de 2fb9 e50a 6939 32ee 30b9
00000260: 172d 913d 26e1 8c39 a98e 8b3d 3c82 3fb9
00000270: f3e6 b3b8 bc04 0eb9 d1d7 26b9 edfc 153c
00000280: b07d 12b9 be74 c437 5923 59bd 1212 c6b8
00000290: 4cae 6cb9 adc3 1039 fe1d 7fb8 a2ad 133a
000002a0: f72c 8bb8 5a54 13bd e3d5 073e 4362 a6b9
000002b0: 849d 1939 78d1 4eb9 8c6a ac38 6021 1fb9
000002c0: 45d6 d6b9 f5d5 98bd b61a bf3d 35e6 5139
000002d0: 7361 68b9 267b ad39 d556 413a d3c8 cf3d
000002e0: d75f 4fb8 6672 0b39 715a 00be f1f0 0e39
000002f0: 9fc2 a83c 09b3 f438 ef76 7b38 bd86 b737
00000300: 98d0 99bb 6fea eabd 0699 a93c 7f6f 03ba
00000310: 9664 de39 8e36 03bd 05fc 583c 2779 f1b9
00000320: 61cd 443b d14a 3cbd f7e6 6539 49a4 5b38
00000330: d888 ca37 226e ec39 c69a 84b9 f0a8 cb38
00000340: c852 e838 24c8 aabc 894f c3b9 c4ac fab8
00000350: 50b2 7538 b993 84ba 3e0c dbb9 bfbc c037
00000360: 9107 9dbb 7e7e d1b8 ff22 b3ba 66c1 09be
00000370: a8b7 2eb9 ef88 cd39 45d8 25bc 181e 7039
00000380: 7246 12b9 dd29 2f39 5ddd 09bd 5133 7837
00000390: 024e 6bb9 aa9a 543d 2f6a 3739 ac52 67b9
000003a0: 3822 a3b9 d4ad c2b9 f030 dbb8 0020 d83c
000003b0: 33b1 04b9 208b b3bb 3235 c139 eeb0 a939
000003c0: c24a 653c 8030 81bd 464f 833a 1d24 4e3d
000003d0: 0ecd f3b8 5bb5 9939 aefa b838 bd15 523b
000003e0: 6fdc 75b9 7d0c 94b8 2aa8 2cbc 1658 5638
000003f0: bb81 ba37 17c0 383d 2856 b6b9 a7c9 5938
-0.00036515392 0.0004126852 0.18954746 0.00025957113 0.0014157639 -0.00025156178 0.05011828 7.129214e-05
-0.031428993 -0.03210042 -0.0011601879 -0.00012984315 -0.09645529 -0.0002606832 0.120768785 0.00017519198
-8.145201e-05 -0.05395361 -0.00029471493 -0.00014405718 8.7664535e-05 -7.14079e-05 -0.00031030958 0.00052820955
0.051233176 0.00022608988 0.025629634 -0.0001195808 -0.00021883537 -0.0066586016 -0.00010665918 -0.00028026052
0.00015113235 -0.0005412127 9.375418e-05 3.827974e-05 -8.077075e-05 0.059885245 -0.037547775 0.0001601027
0.00181962 -0.00011420796 -0.0019954017 -0.00013231751 -0.032825846 0.005214448 -0.00020238537 -3.0530933e-05
0.012788484 -0.0002149784 -0.047820274 0.02290556 -0.06717399 4.779313e-05 2.2635591e-05 0.0004982099
-0.00017312159 0.00024145548 -7.169938e-05 0.0026668697 -9.654178e-05 0.00019341234 0.00016782082 -0.00019005554
6.79013e-06 9.406537e-05 6.328134e-05 -6.196363e-05 -0.0004917093 3.91159e-05 0.024786966 0.016313117
-0.013790478 4.189401e-05 0.00010936632 -0.00012955882 4.731447e-05 8.1174425e-05 -0.00025643068 -6.019451e-05
0.00015667945 0.00017832419 0.050168794 0.0002263656 0.06521491 -0.00027564293 -7.933227e-05 -0.024623983
-0.0003698794 -6.964956e-05 -0.014919328 0.00028976006 -0.002260596 0.00015801024 -0.08288464 -0.0006901749
-0.051640186 0.00011601369 0.0001097589 0.00026355407 -2.7919206e-05 -9.8537144e-05 0.0006819596 -1.07608685e-07
-0.0002686692 -0.00013971356 2.7095437e-05 0.00019597457 -0.00044591978 -0.005075415 -0.00026145813 5.3526066e-05
0.0049700374 0.019327022 -0.02136363 -0.040287867 -1.8669958e-05 -0.00010964086 -0.00023264588 0.03277862
0.00024171517 -8.9246416e-05 -1.45566955e-05 -9.0147114e-05 -1.5768685e-05 -0.00021245502 -5.9069414e-05 8.3957864e-05
-0.046520956 0.00014169619 0.0003075003 -0.024339126 -8.810972e-05 0.00017775856 0.051130034 0.00030899534
-0.10258263 5.1228075e-05 -7.233012e-05 0.00023756339 -0.078071535 1.8188095e-05 0.002521367 -0.0018717657
2.6022022e-05 0.00027169235 0.0041136686 0.14436366 -6.769015e-05 -0.00016772217 0.0002222467 -0.00016873403
0.07088678 0.0002687063 0.0681432 -0.00018263696 -8.578403e-05 -0.00013543939 -0.00015911392 0.0091545405
-0.00013970467 2.3419383e-05 -0.053012226 -9.4447416e-05 -0.00022571645 0.00013805805 -6.082467e-05 0.0005633478
-6.636412e-05 -0.035969116 0.13265185 -0.00031735198 0.00014649896 -0.00019723724 8.221445e-05 -0.00015175855
-0.00040976904 -0.07462684 0.093312666 0.00020017552 -0.00022161547 0.00033088884 0.00073753047 0.10145726
-4.9441904e-05 0.0001329869 -0.125345 0.00013631933 0.020600615 0.000116681746 5.995383e-05 2.1878042e-05
-0.0046940558 -0.11470496 0.02070285 -0.00050138676 0.00042418082 -0.03203445 0.01324368 -0.00046057368
0.0030029642 -0.045969788 0.00021925183 5.236667e-05 2.4144e-05 0.00045095483 -0.00025292317 9.7112614e-05
0.00011078041 -0.020847388 -0.00037252557 -0.00011953109 5.857862e-05 -0.0010114826 -0.00041780056 2.2976075e-05
-0.0047921618 -9.9894576e-05 -0.0013667046 -0.13452682 -0.0001666235 0.0003920267 -0.010122363 0.00022899394
-0.00013949888 0.00016704896 -0.033658374 1.47939e-05 -0.00022440407 0.05190531 0.00017491796 -0.00022060674
-0.00031115278 -0.00037132076 -0.00010451849 0.026382446 -0.00012654513 -0.0054792315 0.00036851462 0.00032366015
0.013994874 -0.06308079 0.0010018132 0.05032741 -0.00011625337 0.00029317554 8.8204964e-05 0.0032056414
-0.00023447139 -7.059516e-05 -0.01053814 5.1103612e-05 2.2233338e-05 0.045105066 -0.00034777937 5.1924635e-05

bias f4 [36]
00000000: c631 6dbd c434 723c 9131 353c 5635 8e3d
00000010: 199b 99bb ad39 9a3c c96c dd3c d678 fa3a
00000020: 2ec5 cdbc 6efc 353c 4fb0 ce3c ff5d b23c
00000030: 2246 c4bc 7b04 27bd 5925 b9bc 85dd a7bc
00000040: 6caf d5bc 7c78 023c 3811 df3a bc0c bc3b
00000050: 8752 6abc 28cf 283c 740d 8fbc 3898 4d3c
00000060: 7737 a63b d6b8 dc3c 061d 11bc 1edd 4fbc
00000070: ed27 a7bc 68b5 bf3c edfe 7d3c e7ec b93b
00000080: 7081 dd3c f00e 493d ac81 cbbc a799 07bd
-0.057908796 0.014783088 0.011059181 0.06943767 -0.0046876785 0.01882633 0.027029412 0.0019109498
-0.025118437 0.011107547 0.025230555 0.021773336 -0.023959223 -0.040775757 -0.022600817 -0.02049137
-0.026084624 0.007963296 0.0017018681 0.0057388227 -0.014301903 0.010303296 -0.01746247 0.012548499
0.00507253 0.026943605 -0.008857017 -0.012686996 -0.02040478 0.02340193 0.015502674 0.005673993
0.02703926 0.04908651 -0.024842106 -0.03310552
