data/results/lindblad/R_op_vals_N_40_J_0.0_Jz_1.0_hx_0.576_hz_0.487_chi_100_eps_1.0/latent-3_epochs-250000.dat_final.net.pkl (torch_old, 638024 bytes, 8 tensors)

weight f4 [400, 192]
0.032595027 -0.060024068 -0.015319738 -0.23355436 -0.16113102 0.08539552 0.15235783 0.09357351
0.042738054 -0.07959013 -0.09139114 0.00049623393 0.26143354 0.037463225 0.20847458 -0.13130425
0.2440962 0.008565235 -0.31148565 -0.16653526 -0.30416977 0.16564688 0.1250133 -0.083910696
0.20472275 0.032723222 0.13546272 0.18347533 0.18655632 0.15440488 -0.007577448 -0.14536557
-0.05950644 -0.013384539 -0.042300124 0.1531694 -0.22440526 0.07039395 -0.014403232 0.27522084
0.011199908 0.11749826 -0.115487024 -0.009530595 -0.12588598 0.10798506 0.0014024528 0.03808547
-0.08814176 0.095244534 -0.011286468 0.051623918 0.2932675 -0.045119867 -0.2841377 -0.19673759
0.19279896 -0.093915984 0.17508112 0.028522074 -0.002588768 -0.12008849 -0.19702077 0.2582994
-0.29438493 -0.6861971 0.089644045 -0.42961997 1.0919682 0.304325 0.7699023 -0.510125
-0.0062727854 0.09545954 0.004207277 -0.13979419 -0.19121592 0.46180263 0.021208726 0.18617928
-0.12795408 -0.32319126 -0.44352138 0.2663424 -0.011034592 0.08445073 0.019670622 -0.34017485
0.25278348 0.22487262 -0.27808857 -0.9919537 -0.012164754 0.081453934 0.37037852 -0.13227816
-0.06420242 -0.24448197 0.024634326 0.18901424 -0.06466746 0.12834959 -0.14927363 0.14361426
-0.08148862 0.066250056 0.04972263 -0.055273928 -0.090392165 -0.29446074 0.11051913 0.21580702
0.52685976 -0.8275375 0.019872705 0.3438449 0.020600973 0.118167154 0.059768174 -0.26115707
0.18423021 0.18333761 0.07251897 0.45968634 0.14465189 -0.07271489 -0.40231693 -0.006929934
0.02695079 0.22388661 -0.12516437 -0.04043136 0.06655716 -0.12570079 0.19700527 -0.7088067
0.50385153 -0.1958652 0.45234796 0.30933008 -0.30044627 0.11482582 0.28193945 -0.37539917
-0.048604503 -0.033290837 0.08189067 -0.39855516 0.16251296 -0.01301369 0.21670493 -0.08765733
-0.17650539 -0.0437976 0.25556046 0.034633987 -0.11309153 0.194601 0.020322114 0.3246058
0.58570486 0.08114102 -0.14270394 -0.26796785 0.31579947 0.067421526 -0.17036287 0.039388187
0.33792946 -0.1660996 0.07844884 -0.26475716 -0.27842456 -0.1675237 -0.21747707 0.30215082
0.015635667 0.06371039 -0.13024026 -0.12391722 -0.064878404 -0.027039377 0.028540771 -0.21100447
0.13419929 0.13505504 0.18231942 0.07500768 0.19391483 0.17451683 0.37344798 -0.03536486
-0.031103907 0.021191921 0.012090562 -0.014323195 0.06553461 0.0005824242 0.025362883 0.011831041
0.080815345 -0.018241018 0.07615085 0.041918788 0.019978855 -0.0580221 0.017565213 0.035333913
0.12869747 0.06723394 -0.017547946 -0.17406482 0.05791124 0.0056709894 -0.034094173 0.06025915
0.1175055 -0.010465061 -0.065890044 -0.17795984 -0.008861425 -0.09322171 -0.13613902 0.019420592
0.031433556 0.06166056 -0.085940294 -0.14024441 0.15194203 0.029172506 -0.05544943 -0.14026663
0.06787281 0.027491985 0.120469704 0.020121543 0.08572656 -0.043472927 0.024775602 -0.073419
-0.06989877 -0.09802972 -0.018169923 0.10996807 0.02678187 0.04708176 -0.0075895404 0.0061181397
0.008556676 0.15494092 -0.068190366 0.02110167 -0.029957348 0.0031869516 -0.056132004 0.012177756
00000000: 5d82 053d ccdb 75bd a3ff 7abc e028 6fbe
00000010: 88ff 24be d9e3 ae3d b103 1c3e 78a3 bf3d
00000020: 190e 2f3d 2600 a3bd 472b bbbd b215 023a
00000030: 9eda 853e 0a73 193d 5c7a 553e 9f74 06be
00000040: 5bf4 793e 3355 0c3c 0c7b 9fbe 3888 2abe
00000050: 24bc 9bbe 569f 293e 7d03 003e 5fd9 abbd
00000060: d7a2 513e c908 063d bdb6 0a3e f5e0 3b3e
00000070: 9f08 3f3e 501c 1e3e 3e4c f8bb b6da 14be
00000080: 06bd 73bd d34a 5bbc e542 2dbd 70d8 1c3e
00000090: 7eca 65be b42a 903d 89fb 6bbc bfe9 8c3e
000000a0: d27f 373c eea2 f03d 7684 ecbd 3626 1cbc
000000b0: 41e8 00be 4527 dd3d 82d2 b73a 83ff 1b3d
000000c0: ab83 b4bd 910f c33d e1ea 38bc 9a73 533d
000000d0: 2827 963e 9ccf 38bd 7f7a 91be 9475 49be
000000e0: 176d 453e 0657 c0bd 7748 333e 20a7 e93c
000000f0: 52a8 29bb f4f0 f5bd d0bf 49be d23f 843e
00000100: 9fb9 96be 9daa 2fbf 4c97 b73d 26f7 dbbe
00000110: 9dc5 8b3f 7dd0 9b3e 5118 453f 8d97 02bf
00000120: f08b cdbb 4b80 c33d 33dd 893b 3526 0fbe
00000130: 1bce 43be 6571 ec3e ecbd ad3c c8a5 3e3e
00000140: 6506 03be 5379 a5be 3c15 e3be 085e 883e
00000150: 6fca 34bc 81f4 ac3d 4924 a13c 662b aebe
00000160: d66c 813e 0245 663e a061 8ebe adf0 7dbf
00000170: ad4e 47bc 52d1 a63d 41a2 bd3e ed73 07be
00000180: 8f7c 83bd 7b59 7abe edcd c93c f38c 413e
00000190: 6070 84bd 136e 033e 30db 18be 9e0f 133e
000001a0: 81e3 a6bd 1cae 873d f5a9 4b3d ea66 62bd
000001b0: 871f b9bd 8fc3 96be db57 e23d 84fc 5c3e
000001c0: 48e0 063f 7fd9 53bf 15cc a23c 700c b03e
000001d0: 5fc3 a83c 9f01 f23d 79cf 743d 61b6 85be
000001e0: d8a6 3c3e dbbc 3b3e d384 943d 025c eb3e
000001f0: a01f 143e 8beb 94bd 7cfc cdbe 8014 e3bb
00000200: e7c7 dc3c 8842 653e 172b 00be 5b9b 25bd
00000210: 1f4f 883d b5b7 00be c0bb 493e 5b74 35bf
00000220: 6afc 003f e390 48be 279a e73e 8360 9e3e
00000230: 18d4 99be cd29 eb3d 5e5a 903e 5234 c0be
00000240: 8415 47bd f95b 08bd 4cb6 a73d 6c0f ccbe
00000250: cc69 263e 5f37 55bc e6e7 5d3e b085 b3bd
00000260: d4bd 34be 1d65 33bd d2d8 823e 5edc 0d3d
00000270: 889c e7bd 7c45 473e 907a a63c bb32 a63e
00000280: c1f0 153f 432d a63d fb20 12be 1533 89be
00000290: 78b0 a13e 4c14 8a3d 9b73 2ebe 8255 213d
000002a0: 1705 ad3e 0316 2abe c9a9 a03d 408e 87be
000002b0: aa8d 8ebe 558b 2bbe 4fb2 5ebe 83b3 9a3e
000002c0: 5f16 803c 987a 823d b45d 05be 50c8 fdbd
000002d0: f8de 84bd af81 ddbc 56ce e93c 8e11 58be
000002e0: 8a6b 093e de4b 0a3e f1b1 3a3e a09d 993d
000002f0: 9c91 463e 8ab4 323e 9334 bf3e beda 10bd
00000300: 9fcd febc ae9a ad3c 7e17 463c d6ab 6abc
00000310: 0237 863d d4ad 183a d2c5 cf3c fcd6 413c
00000320: 8482 a53d 306e 95bc faf4 9b3d 09b3 2b3d
00000330: b2aa a33c 95a8 6dbd ece4 8f3c 4bba 103d
00000340: 45c9 033e f3b1 893d b6c0 8fbc 0c3e 32be
00000350: 5634 6d3d b5d3 b93b 55a6 0bbd 4cd2 763d
00000360: b9a6 f03d a675 2bbc 5cf1 86bd 1b3b 36be
00000370: 832f 11bc 06eb bebd 0768 0bbe ef17 9f3c
00000380: 79c0 003d c98f 7c3d 7701 b0bd 3b9c 0fbe
00000390: b196 1b3e 2efb ee3c f11e 63bd 0ea2 0fbe
000003a0: e600 8b3d df36 e13c d2b8 f63d efd5 a43c
000003b0: 6891 af3d ab10 32bd 34f6 ca3c b35c 96bd
000003c0: 1627 8fbd cec3 c8bd 17d9 94bc f136 e13d
000003d0: a765 db3c ced8 403d aeb1 f8bb ad7a c83b
000003e0: 4d31 0c3c d5a8 1e3e 64a7 8bbd 69dd ac3c
000003f0: 1d69 f5bc 2ddc 503b acea 65bd 3685 473c

bias f4 [400]
0.0039411094 0.00059423235 0.002806355 -0.0017928537 0.004067057 0.00079952495 -0.0044610947 -0.0017775673
0.0009784768 -0.00039395338 0.00081034884 0.0007500823 -0.002463168 -0.00063199527 0.000755821 -0.0030510167
0.00095370656 0.0067884834 0.00620646 0.0005166341 -0.0028424473 0.0009572448 0.004262819 -0.002917554
0.0023487508 -0.0039810743 -0.0025746766 -9.2377784e-05 0.035956055 0.0034415936 0.002339496 -5.4503158e-05
-0.001959647 0.0021390675 -0.0011073488 0.0021838865 -0.005350446 0.0036534823 0.0015953976 -0.03805996
-0.0027479024 -0.003926314 0.00043429644 0.0017395754 0.0013623552 0.010412916 0.0013667506 -0.004770839
-0.000600217 0.00045427418 0.00048682533 0.16960292 -0.0038896634 0.0013688181 0.0013654875 -0.0020382747
0.005484239 -0.103030935 0.00047433533 0.0029069583 -0.01049581 -0.000307377 -0.002321899 0.0015005864
-0.001857584 -0.0008388952 0.45997214 0.001715236 0.13826278 -0.0012701484 0.002432966 -0.001984592
0.002809208 -0.00033015735 0.0045710094 -0.0007021281 0.00022108042 0.00064916204 -0.0035473686 -0.00089683
0.21833691 0.0007686167 -0.0059887106 0.001806521 0.0015363664 -0.0046768147 -0.23660205 0.0051748343
-0.0016826027 0.0011607341 -0.008591975 0.0016272741 -0.003074421 0.0020022998 -0.003953697 0.00053770514
-0.0013050522 -0.0027749706 -0.0034018394 0.007826092 -0.0012928888 7.565375e-05 -0.0012965427 -0.0014611203
-0.034792095 0.005923235 -0.0029694291 -0.0027461776 -0.00059578393 -0.005907639 -0.0004003766 0.00479515
-0.0002471991 -0.0042779567 -0.0040166904 -0.00090623135 0.0022822097 0.0010618096 0.004003997 -0.00010148011
0.0010944356 -0.00041009393 -0.006852418 0.00040820302 -0.16288881 -0.0023716865 -0.0025583552 0.0025029194
-0.0026137244 -0.0020709925 -0.0014391922 0.004325986 -0.0021358633 0.019445872 0.0018768231 -0.0020653985
0.0015507952 0.24349196 -0.0008555535 0.0048487205 0.0030293267 -0.0032519284 0.00011004969 1.5527112e-05
0.0031089147 0.0061 0.0019088656 0.0020265155 -0.0023079484 0.08809055 0.0050981585 0.003773944
0.0028879908 0.023063123 -0.003555591 -0.0011177942 0.0013501894 -0.002442465 0.0021407658 -0.0035179087
0.0014687955 0.0017465096 0.0019256093 0.0007884933 -0.0011632221 -0.0070438706 -0.0022230723 0.00292865
0.0007713411 -0.0011425639 -0.0035468903 -0.0010490358 -8.337757e-05 0.001911826 0.0019847215 -0.0016517136
0.0005594863 -0.0018222494 0.000101009275 -0.0015850498 0.0015550379 -0.006503519 0.0015509098 0.0173426
0.003276011 0.0017276291 -0.003479014 0.011512968 -0.005194879 -0.001958012 0.0008192321 -0.0031623961
0.0027225497 0.008008892 -0.0039098114 0.00068100286 0.0010595701 0.0011938968 0.007203824 0.0017661545
9.615452e-05 -0.0004670628 0.006575257 -0.00084682525 6.677018e-05 -0.0017068097 0.003375596 0.0032947678
-0.0023010827 -0.0013023681 0.0008986963 -0.0010715497 0.002072565 0.00021485359 -0.004486158 -0.0016811959
0.00481973 0.0011038199 -0.0044287452 0.008857869 -0.0034020962 0.0023758702 0.0032134654 -0.12555371
0.003837004 0.03596073 -0.11720995 0.0013498219 0.0030810423 -0.0010617264 0.088961534 0.0018970777
0.0018067645 -0.00017899697 0.0016890696 0.1700175 -0.0020562238 0.0048589436 0.00079070695 -0.0014598151
-0.005135927 -0.0025869028 -0.00022920338 0.001062016 -0.10043265 -0.0062487777 -0.0029333236 -0.0016839731
0.0012188491 0.0049365624 -0.0014107508 0.00051807205 0.00037898554 2.6382346e-05 -3.9343846e-05 -0.0007022628
00000000: 6c24 813b 42c6 1b3a d3ea 373b 30fe eaba
00000010: f244 853b 3697 513a 602e 92bb 43fd e8ba
00000020: 3c40 803a 878b ceb9 976d 543a 2ca1 443a
00000030: 1a6d 21bb 7cac 25ba 4a22 463a 91f3 47bb
00000040: 2a02 7a3a ed71 de3b 8f5f cb3b ba6e 073a
00000050: 5a48 3abb 9cef 7a3a 1eaf 8b3b 6f34 3fbb
00000060: 80ed 193b ac73 82bb e8bb 28bb f2ba c1b8
00000070: a846 133d 5c8c 613b 3b52 193b 529a 64b8
00000080: 6c6d 00bb 992f 0c3b 7624 91ba 891f 0f3b
00000090: cb52 afbb 436f 6f3b a91c d13a c3e4 1bbd
000000a0: 2716 34bb 4fa8 80bb 48b2 e339 7702 e43a
000000b0: 0e91 b23a ef9a 2a3c 8a24 b33a b354 9cbb
000000c0: e257 1dba a62b ee39 973c ff39 63ac 2d3e
000000d0: b9e9 7ebb ea69 b33a 28fa b23a 9394 05bb
000000e0: 22b5 b33b e201 d3bd 36b0 f839 ab82 3e3b
000000f0: 9ef6 2bbc 7127 a1b9 002b 18bb 53af c43a
00000100: 2d7a f3ba 4ee9 5bba 7881 eb3e c5d1 e03a
00000110: c294 0d3e 1c7b a6ba 6572 1f3b ee0f 02bb
00000120: b01a 383b f818 adb9 68c8 953b 050f 38ba
00000130: d3d1 6739 872c 2a3a f87a 68bb 3e19 6bba
00000140: b693 5f3e fe7c 493a f23c c4bb c9c8 ec3a
00000150: e75f c93a f73f 99bb cf47 72be a891 a93b
00000160: c78a dcba c623 983a 5bc5 0cbc 424a d53a
00000170: 3a7c 49bb 0439 033b 048e 81bb c8f4 0c3a
00000180: 490e abba 48dc 35bb 65f1 5ebb 0239 003c
00000190: 2676 a9ba 4ca8 9e38 c1f0 a9ba 1083 bfba
000001a0: 2882 0ebd b217 c23b c19a 42bb 37f9 33bb
000001b0: 622e 1cba de94 c1bb a3e9 d1b9 a220 9d3b
000001c0: 809a 81b9 1a2e 8cbb 719e 83bb 2890 6dba
000001d0: 2091 153b 6b2c 8b3a f633 833b b8d1 d4b8
000001e0: 2a73 8f3a e001 d7b9 408a e0bb 1504 d639
000001f0: 53cc 26be 4c6e 1bbb 14aa 27bb 0508 243b
00000200: 054b 2bbb 7db9 07bb 47a3 bcba 00c1 8d3b
00000210: d7f9 0bbb f34c 9f3c bcff f53a a35b 07bb
00000220: 0d44 cb3a f555 793e 3947 60ba 04e2 9e3b
00000230: ab87 463b 4e1e 55bb 7aca e638 3840 8237
00000240: efbe 4b3b 82e2 c73b e732 fa3a 4acf 043b
00000250: f340 17bb d168 b43d 740e a73b 4654 773b
00000260: 7244 3d3b e0ee bc3c eb04 69bb f382 92ba
00000270: d7f8 b03a c311 20bb 174c 0c3b b78c 66bb
00000280: 9984 c03a 23eb e43a ba64 fc3a e4b2 4e3a
00000290: 4277 98ba 45d0 e6bb f7b0 11bb 98ee 3f3b
000002a0: d333 4a3a 15c2 95ba f272 68bb cd7f 89ba
000002b0: feda aeb8 3c96 fa3a 1a12 023b 507e d8ba
000002c0: 7daa 123a 8bd8 eeba f1d4 d338 72c1 cfba
000002d0: 6ad2 cb3a 791b d5bb e647 cb3a 1112 8e3c
000002e0: 58b2 563b 9d71 e23a 2b00 64bb e3a0 3c3c
000002f0: ce39 aabb fe51 00bb bcc1 563a 3440 4fbb
00000300: ce6c 323b ba37 033c e01d 80bb 5485 323a
00000310: 46e1 8a3a 877c 9c3a 0e0e ec3b 507e e73a
00000320: 91a6 c938 1ce0 f4b9 4175 d73b 7bfd 5dba
00000330: f806 8c38 08b7 dfba 1a39 5d3b 08ed 573b
00000340: c3cd 16bb 39b4 aaba 7d96 6b3a 3e73 8cba
00000350: dfd3 073b 524a 6139 9f00 93bb 935b dcba
00000360: d3ee 9d3b 0dae 903a 021f 91bb 9820 113c
00000370: b4f5 5ebb 7db4 1b3b 0199 523b 2791 00be
00000380: 3f76 7b3b 8f4b 133d c50b f0bd 82ec b03a
00000390: 50eb 493b a029 8bba 7731 b63d 5da7 f83a
000003a0: f5d0 ec3a 22b1 3bb9 c563 dd3a 1119 2e3e
000003b0: b6c1 06bb c637 9f3b 7247 4f3a 4457 bfba
000003c0: 474b a8bb 0789 29bb 5056 70b9 5833 8b3a
000003d0: a2af cdbd 8cc2 ccbb 013d 40bb c3b8 dcba
000003e0: cac1 9f3a e3c2 a13b f1e8 b8ba 3acf 073a
000003f0: 94b2 c639 a84f dd37 2205 25b8 0f18 38ba

weight f4 [3, 400]
0.0013654524 -0.0004470073 -0.00026188145 0.00023653025 -0.00051806297 -0.001817129 -0.0011445194 -0.0004008882
7.051521e-05 -7.0526476e-05 0.00038881882 0.00013206832 0.0013873553 0.0012163155 0.0018352557 -0.0012175572
0.0004067704 0.00050460023 -0.00021780578 -0.0024512287 -0.001281447 0.0017490351 -0.00026382512 0.0021387232
0.002149438 -0.0007540573 -0.0013074655 0.0012249061 0.00072069047 -0.0002281563 -0.0014035585 0.0009996999
-0.0010306621 -0.0024716256 -0.0005271531 -0.00021653212 -0.00038816012 0.0019420234 0.0017502405 0.0016225657
-8.7421984e-05 -0.00092672324 -0.002146454 -0.0009975669 -0.002071643 -0.0007878043 -0.0007016745 -0.00022041741
0.00084615115 2.159254e-05 -0.00032679673 -0.031245012 0.0010367162 0.00018157951 0.0001240343 0.0005904334
-0.001377437 0.24148618 -0.0007011926 -0.00079395727 -0.0009575999 -0.0006032375 0.0010825052 -0.0002945095
0.0015347804 0.0008076968 -0.8195098 -0.00029734685 0.27094123 0.0011060293 0.00081392063 -0.0007446073
-0.00079415605 0.00032354574 -0.00032005645 0.0005384483 0.0012540598 -0.00072601286 -0.0008943461 -0.0027583844
0.1452315 -0.00076635275 0.00026181422 -0.0009251186 0.0011713443 -0.0024841977 -0.035479363 0.00088463427
0.0003984677 0.0008421147 -0.0019046408 2.486558e-05 -0.002055583 -0.00029415643 -0.00029678392 0.0016228796
-0.001999339 -0.0005619951 -0.0027994576 0.00085098 -0.00048641316 -0.0010243863 0.0004669854 -0.0012253389
-0.0022312864 0.002036438 -0.00045408373 -9.005395e-05 -0.00066434697 0.0020043838 0.0005419071 0.0010417758
-0.000433269 -0.0011410719 -0.001361338 -0.00033373572 0.00077891035 0.0012641217 0.00027727959 -0.00093506713
-0.0009819281 0.0015180494 7.1319955e-05 0.00078552077 -0.73040575 0.00023623861 0.00015874117 -0.0020271859
-0.0017126689 0.00024653226 0.00028527522 0.00038935436 -0.0007157334 0.0010407335 -0.0015585234 -0.00095240696
-0.0010464938 0.05700216 -0.00073685526 -0.00069030264 0.00076922355 0.0013227704 -0.00063986727 0.0008026538
0.00055535114 -0.0008352004 -0.0018441747 0.0007054314 0.00036315282 0.00015112765 0.00010519384 0.0003961021
0.0008481041 0.0012262268 -0.0008156144 0.001036699 -0.0011410803 0.001318398 -0.00030629925 0.000326927
-0.00032720246 0.0010025095 0.0006820697 0.0014985154 0.00025450983 -0.0018544374 -0.0006075017 0.00013892625
0.0019028074 -3.7156184e-05 0.0013773027 0.0011817619 0.0012281381 0.00044033243 0.0012699416 0.00083881256
-0.0014351587 -7.970673e-05 0.0005374488 -0.0009297628 0.0024552115 -0.0008737339 0.0010328066 0.0020718798
5.8686845e-05 -0.0017913395 -5.2914755e-05 0.0017346471 -0.0017809455 0.0016549485 -0.0012067877 0.00016147264
-0.00015848929 0.0012545168 -0.00020075194 0.0005702267 -0.00051093876 0.001548533 -0.0010299734 -0.0007190818
0.00015486928 -0.00092080573 0.001851146 -0.0015938922 0.0005751094 0.0009623481 0.0006003806 0.0015545011
0.0017043228 0.00094880676 -0.0017677956 0.0021457332 0.00047396848 0.0010258767 -0.00035910006 0.00028270148
0.0011303722 -0.001308284 -0.00046975623 -0.0025195135 0.0008684008 -0.0021719623 0.0003093309 -0.1656491
-0.00047701888 -0.0010842365 -0.05816193 0.000108056774 0.0009803796 0.00051623204 -0.035979427 0.0010003588
0.0003628366 0.0010891332 -0.00039111119 0.13350639 -0.00032057046 0.0014278761 0.0013007196 -0.00044059253
0.0016118 -3.032777e-05 -0.0009860614 -0.00026400894 0.05429564 0.00042891805 -0.00034605069 -0.0003531447
0.0011063995 -0.00021354834 0.0010710725 -0.00058386894 -0.0016511491 0.0015189847 0.00071113574 0.00018468284
00000000: fbf8 b23a 4e5c eab9 224d 89b9 1b05 7839
00000010: 9ece 07ba bb2c eeba b303 96ba 4e2e d2b9
00000020: 91e1 9338 9de7 93b8 61da cb39 d27b 0a39
00000030: ebd7 b53a c76c 9f3a f68c f03a 7196 9fba
00000040: cd43 d539 2647 043a cb62 64b9 cba4 20bb
00000050: 3af6 a7ba e13f e53a 0252 8ab9 d229 0c3b
00000060: 96dd 0c3b eeab 45ba 435f abba 078d a03a
00000070: b8ec 3c3a 3e3d 6fb9 9cf7 b7ba 5d08 833a
00000080: 4817 87ba fffa 21bb a530 0aba e60c 63b9
00000090: f881 cbb9 7e8b fe3a 5368 e53a 45ac d43a
000000a0: 5256 b7b8 58ef 72ba 86ab 0cbb cac0 82ba
000000b0: 67c4 07bb a784 4eba 94f0 37ba d91f 67b9
000000c0: 3ed0 5d3a a021 b537 ea55 abb9 8af5 ffbc
000000d0: 6ce2 873a 6166 3e39 340f 0239 51c7 1a3a
000000e0: 1e8b b4ba 2748 773e 3dd0 37ba 9221 50ba
000000f0: 7107 7bba 9522 1eba d9e2 8d3a 6568 9ab9
00000100: af2a c93a 9dbb 533a 65cb 51bf 38e5 9bb9
00000110: cfb8 8a3e 2ff8 903a 4a5d 553a c031 43ba
00000120: e92e 50ba 93a1 a939 40cd a7b9 a726 0d3a
00000130: 445f a43a e651 3eba 8d72 6aba 03c6 34bb
00000140: 91b7 143e 10e5 48ba 1c44 8939 a983 72ba
00000150: cb87 993a eccd 22bb cf52 11bd cde6 673a
00000160: 6ee9 d039 5cc1 5c3a 24a5 f9ba 6d96 d037
00000170: f6b6 06bb 0239 9ab9 aa99 9bb9 ceb6 d43a
00000180: 5807 03bb da52 13ba 1b77 37bb 4d14 5f3a
00000190: 4505 ffb9 b344 86ba b8d5 f439 8d9b a0ba
000001a0: c63a 12bb c375 053b 1612 eeb9 59db bcb8
000001b0: 9227 2eba fb5b 033b c50e 0e3a 328c 883a
000001c0: 6128 e3b9 0590 95ba ec6e b2ba 40f9 aeb9
000001d0: ca2f 4c3a e3b0 a53a d65f 9139 4b1f 75ba
000001e0: 0ab4 80ba 49f9 c63a 9c91 9538 68eb 4d3a
000001f0: dffb 3abf d2b6 7739 c273 2639 89da 04bb
00000200: a27b e0ba 0041 8139 fe90 9539 4222 cc39
00000210: 0ea0 3bba 3969 883a 5e47 ccba f3aa 79ba
00000220: 812a 89ba 197b 693d 8529 41ba 6df5 34ba
00000230: b8a5 493a cf60 ad3a c4bc 27ba 2f69 523a
00000240: fc94 113a 5af1 5aba 3cb8 f1ba b3ec 383a
00000250: 8c65 be39 0578 1e39 839b dc38 edab cf39
00000260: 4d53 5e3a 58b9 a03a f5ce 55ba d9e1 873a
00000270: 4d90 95ba 19ce ac3a ca96 a0b9 6667 ab39
00000280: 5f8c abb9 a366 833a eccc 323a d569 c43a
00000290: bb6f 8539 9810 f3ba c040 1fba bbac 1139
000002a0: 9f67 f93a 26d8 1bb8 9c86 b43a 59e5 9a3a
000002b0: 7af9 a03a 6bdc e639 2b74 a63a c2e3 5b3a
000002c0: ef1b bcba 3a28 a7b8 94e3 0c3a 53bb 73ba
000002d0: 9de7 203b 4a0b 65ba 3d5f 873a 60c8 073b
000002e0: 8526 7638 61cb eaba c9f0 5db8 195d e33a
000002f0: 9d6e e9ba dbea d83a 132d 9eba fb50 2939
00000300: 2530 26b9 996e a43a f080 52b9 447b 153a
00000310: 85f0 05ba 25f8 ca3a 2c00 87ba c380 3cba
00000320: 6864 2239 3a62 71ba 27a2 f23a 26ea d0ba
00000330: f0c2 163a 1646 7c3a dc62 1d3a 67c0 cb3a
00000340: 9563 df3a 58b9 783a 61b5 e7ba 6e9f 0c3b
00000350: f97e f839 b676 863a 9845 bcb9 8d37 9439
00000360: ff28 943a ba7a abba 9d49 f6b9 6c1e 25bb
00000370: 64a5 633a 7b57 0ebb b12d a239 eb9f 29be
00000380: 6418 fab9 f11c 8eba 343b 6ebd 8a9c e238
00000390: 1580 803a bf53 073a 2a5f 13bd 791e 833a
000003a0: 1b3b be39 3fc1 8e3a 0e0e cdb9 e6b5 083e
000003b0: 3d12 a8b9 9227 bb3a e87c aa3a 54ff e6b9
000003c0: 0943 d33a 6468 feb7 bb3e 81ba ae6a 8ab9
000003d0: 1b65 5e3d 68e0 e039 236e b5b9 4726 b9b9
000003e0: 9b04 913a f2eb 5fb9 3b63 8c3a c80e 19ba
000003f0: 5f6b d8ba ab18 c73a 836b 3a3a 6ca7 4139

bias f4 [3]
0.100610435 0.015585512 -0.094220616
00000000: d80c ce3d 605a 7f3c bdf6 c0bd

weight f4 [400, 3]
-7.3386705e-06 -2.3047958e-05 -3.160587e-05 -8.702093e-06 -3.4516426e-05 -9.555702e-06 2.010713 -0.09033932
0.070259154 -1.735085e-05 -1.2269044e-05 1.7421216e-06 -3.1092983e-05 -3.1698e-05 1.89114e-05 -2.1488293e-05
-1.0839849e-05 1.4839726e-06 1.6781873e-05 -1.04542e-05 -5.1467387e-06 -2.239499e-05 -1.1679531e-05 -7.032625e-06
1.5828997e-05 3.237042e-05 -8.126516e-06 -2.8931143e-05 1.9601233e-05 -1.9608478e-06 3.974313e-05 1.8560058e-06
9.620908e-07 -3.2257674e-05 -3.3111304e-05 6.358945e-06 -3.1621767e-06 2.1237769e-05 7.339058e-06 -1.307266e-05
-1.684035e-05 -4.3837117e-06 2.098771e-05 5.694572e-06 2.184085e-05 2.6445487e-05 2.9862189e-05 2.9402213e-06
5.0589015e-06 -2.1086082e-05 -1.8715833e-05 -1.3719212e-05 -2.5447996e-05 -8.262483e-06 -3.6471756e-05 -5.3193362e-05
-1.3571629e-05 1.4424494e-05 6.1594474e-05 1.1901246e-05 1.8579044 -1.7115741 3.9623275 -3.621003e-05
-2.021698e-05 -6.4361784e-06 2.6066042e-05 6.173531e-05 5.3274716e-06 -4.161153 1.0168275 0.44954842
-2.4109535e-05 1.6506463e-05 -1.4752023e-05 -3.430593e-05 -4.0604504e-05 1.2943532e-05 3.6525043e-06 -2.1657795e-06
-1.48626605e-05 1.02471695e-05 -4.058147e-05 -4.625793e-06 5.5329965e-05 2.2381279e-05 -2.3353667e-05 2.5363812e-05
2.1882797e-05 -7.019089e-06 -0.14482948 -0.27670264 -0.1441621 -0.040862545 0.1381599 -0.13354015
1.8512211 -1.3120694 -1.0035152 -1.0932649e-06 -2.6516776e-05 5.044544e-06 1.7734415e-06 5.7824953e-05
1.8359592e-06 2.1322126e-05 1.1581124e-05 1.0386128e-05 7.266954e-06 -8.520317e-06 -1.7191824e-05 3.7843924e-06
3.0092651e-05 -1.590162e-05 5.7506586e-06 4.1796895e-05 -1.6340446e-06 4.3206808e-07 -3.944184e-05 -7.1519808e-06
1.7276676e-05 2.7561944e-05 -2.988193e-06 1.1379854e-05 -4.8103675e-06 -3.3056886e-06 -1.0335825e-05 -6.0027254e-05
-7.3588185e-06 2.6914851e-05 2.1019787e-05 -2.4822866e-06 -4.337174e-05 2.2805394e-05 -1.0845906e-07 2.385797e-05
4.4022116e-05 -2.5216817e-05 -2.1986682e-05 -1.3526118e-05 3.087567e-05 8.629484e-06 1.2192374e-05 7.537259e-06
2.1074011 0.658585 -0.31064674 -1.966066e-05 -2.0944719e-05 -3.8844328e-06 4.7239155e-09 -2.9613308e-05
-1.77965e-05 -3.0588199e-06 -3.3654935e-05 -1.0940021e-05 -0.22525439 0.18814182 2.0497098 -0.6835895
1.030711 0.8559502 2.1058807 0.18638538 1.3005178 4.6260913e-05 -1.5598109e-05 8.180599e-06
-3.3537213e-05 6.8161917e-06 -7.4775244e-06 -1.1099744e-05 1.9220086e-05 1.898666e-05 3.8207304 0.015122691
-0.15787148 -3.1902222e-05 6.9626394e-06 -9.025008e-06 -5.5656774e-06 -4.785211e-05 -9.9228e-06 6.119766e-06
1.7854678e-05 2.7019076e-05 -5.836946e-06 -6.8989495e-05 -7.3923393e-06 -1.9960164e-05 -6.87583e-06 2.0105712e-05
1.893852e-05 3.1516038e-06 -1.2388967e-05 -1.2317803e-05 -1.1142625e-05 -9.607781e-06 -2.2533692e-05 -4.4099666e-05
7.168623e-06 -1.3417445e-05 1.5128552e-05 2.246608e-05 1.6551244e-06 -9.715747e-06 -7.732002e-06 -2.2629098e-05
-1.8569206e-05 6.3259604e-06 1.2699472 1.5867841 0.88287824 -4.2050135e-05 -2.7950573e-05 1.49454745e-05
-2.1449697 1.2057743 1.9545121 -3.8678027e-06 2.4910223e-05 -6.392149e-06 3.8275803e-06 3.5088167e-05
1.7114862e-05 4.7006426e-05 2.391959e-05 8.6831715e-06 -2.0078038e-05 -3.859955e-05 -8.126291e-06 2.6246413e-05
8.048057e-05 1.3044392e-05 -5.166188e-05 -5.1320163e-05 -4.548936e-06 -5.6676367e-06 -4.3357577e-05 -1.16552355e-05
7.112714e-06 -2.643083e-05 2.3518794e-05 1.5728592e-05 -2.7673432e-05 -2.4121573e-06 -8.251061e-06 4.621452e-05
-3.055552e-07 -2.3092547e-05 -3.1813626e-05 2.2823759e-05 0.48069966 0.70700246 1.398233 -5.9345366e-06
00000000: b33e f6b6 1d57 c1b7 8b90 04b8 34ff 11b7
00000010: bbc5 10b8 6d51 20b7 86af 0040 d203 b9bd
00000020: 08e4 8f3d ab8c 91b7 25d7 4db7 d8d2 e935
00000030: d669 02b8 78f3 04b8 eca3 9e37 c241 b4b7
00000040: ccdc 35b7 e92c c735 ccc6 8c37 7264 2fb7
00000050: 26b2 acb6 e0dc bbb7 34f3 43b7 caf9 ebb6
00000060: 83c8 8437 79c5 0738 1f57 08b7 28b1 f2b7
00000070: 546d a437 1c97 03b6 dcb1 2638 e01b f935
00000080: 3021 8135 6a4c 07b8 fee0 0ab8 ec5e d536
00000090: c835 54b6 c327 b237 0742 f636 a652 5bb7
000000a0: 6044 8db7 cc17 93b6 c40e b037 0014 bf36
000000b0: de36 b737 40d7 dd37 9080 fa37 9e50 4536
000000c0: a2bf a936 04e2 b0b7 f2ff 9cb7 912b 66b7
000000d0: 2879 d5b7 189f 0ab7 40f9 18b8 f01b 5fb8
000000e0: b4b1 63b7 bb00 7237 482c 8138 76ab 4737
000000f0: d0cf ed3f dc14 dbbf c696 7d40 39e0 17b8
00000100: a297 a9b7 5af6 d7b6 66a8 da37 e477 8138
00000110: a2c2 b236 2a28 85c0 6727 823f 362b e63e
00000120: d53e cab7 5c77 8a37 757f 77b7 b6e3 0fb8
00000130: c14e 2ab8 0c28 5937 8c1d 7536 cf57 11b6
00000140: a45a 79b7 42eb 2b37 0636 2ab8 4237 9bb6
00000150: 1912 6838 6ebf bb37 9ee7 c3b7 5fc4 d437
00000160: f390 b737 8485 ebb6 2e4e 14be f8ab 8dbe
00000170: 3b9f 13be 7c5f 27bd ca79 0d3e c0be 08be
00000180: d0f4 ec3f e4f1 a7bf 3073 80bf 4cbc 92b5
00000190: 5870 deb7 4e44 a936 fc06 ee35 1289 7238
000001a0: 146b f635 ebdc b237 8d4c 4237 1540 2e37
000001b0: a9d6 f336 7cf2 0eb7 2937 90b7 5ef7 7d36
000001c0: 7a6f fc37 7864 85b7 c8f5 c036 134f 2f38
000001d0: 5851 dbb5 fcf6 e734 5a6e 25b8 0cfb efb6
000001e0: 61ed 9037 d334 e737 c488 48b6 1aec 3e37
000001f0: be68 a1b6 4cd7 5db6 0868 2db7 c6c5 7bb8
00000200: c5eb f6b6 34c7 e137 a653 b037 5c95 26b6
00000210: 0dea 35b8 364e bf37 00ea e8b3 9a22 c837
00000220: 63a4 3838 b488 d3b7 0a70 b8b7 3cee 62b7
00000230: 8080 0138 5ac7 1037 d98d 4c37 90e8 fc36
00000240: a9df 0640 0799 283f 170d 9fbe f2ec a4b7
00000250: 71b2 afb7 0657 82b6 0050 a231 186a f8b7
00000260: b149 95b7 2046 4db6 b628 0db8 088b 37b7
00000270: 16a9 66be 40a8 403e 722e 0340 b9ff 2ebf
00000280: 57ee 833f 8d1f 5b3f c0c6 0640 cfdb 3e3e
00000290: 5e77 a63f 4708 4238 afd8 82b7 683f 0937
000002a0: 4faa 0cb8 a4b6 e436 72e7 fab6 0a39 3ab7
000002b0: d23a a137 8b45 9f37 d986 7440 2ac5 773c
000002c0: 10a9 21be c0ce 05b8 9ea0 e936 1d6a 17b7
000002d0: cec0 bab6 d0b4 48b8 1a7a 26b7 6458 cd36
000002e0: a1c6 9537 06a7 e237 fcda c3b6 74ae 90b8
000002f0: b60b f8b6 2070 a7b7 eeb6 e6b6 b0a8 a837
00000300: 29de 9e37 2480 5336 35da 4fb7 90a8 4eb7
00000310: 36f1 3ab7 1b31 21b7 bc06 bdb7 a8f7 38b8
00000320: 018a f036 7d1b 61b7 a3d0 7d37 8a75 bc37
00000330: a425 de35 d100 23b7 b2b8 01b7 9ed3 bdb7
00000340: 11c5 9bb7 9643 d436 a18d a23f be1b cb3f
00000350: 4f04 623f fd5e 30b8 6677 eab7 53be 7a37
00000360: 2f47 09c0 d056 9a3f 742d fa3f 2cc8 81b6
00000370: 4cf6 d037 247c d6b6 aa6e 8036 a22b 1338
00000380: e391 8f37 c428 4538 eea6 c837 f0ad 1137
00000390: 426d a8b7 f4e5 21b8 2756 08b7 be2b dc37
000003a0: adc7 a838 3dd9 5a37 85af 58b8 9b40 57b8
000003b0: 10a3 98b6 a12c beb6 d8da 35b8 db8a 43b7
000003c0: bfa9 ee36 c6b7 ddb7 3a4a c537 e5f0 8337
000003d0: 3e24 e8b7 8ce0 21b6 0a6e 0ab7 77d6 4138
000003e0: 300b a4b4 deb6 c1b7 9f6f 05b8 a675 bf37
000003f0: 441e f63e 1dfe 343f 4df9 b23f 4821 c7b6

bias f4 [400]
1.044885e-05 -2.444558e-05 -0.12884896 -5.21734e-06 1.5608197e-05 -1.0639196e-06 -4.096653e-05 -3.2187974e-05
2.2460931e-06 3.8589955e-05 -4.63986e-05 -2.91516e-05 2.15107e-05 1.184881e-05 -1.3442732e-05 3.7508744e-07
5.136617e-06 -2.8038727e-05 -1.6149539e-05 1.5651794e-05 -0.80324715 -7.665387e-06 1.4198384e-05 -0.40035924
4.5287423e-05 -7.3294977e-06 8.049921e-06 -5.615947e-05 -1.8379815e-05 1.3687171e-05 -0.03785979 -0.036652494
-0.24036586 2.3589126e-05 2.8127402e-05 -7.629439e-06 1.41702085e-05 2.5121644e-06 2.6537688e-05 -1.7492368e-05
3.060319e-05 -5.3762233e-06 -2.0494455e-05 2.1049704e-05 5.247216e-05 7.2204803e-06 -2.3503402e-05 -2.5136482e-05
0.42316145 -2.5595054e-05 -3.450208e-05 -3.482349e-05 0.67385143 0.40500867 0.41631028 -7.852402e-05
1.7965773e-05 -5.7398584e-06 0.04550884 -9.847524e-06 -1.1141667e-05 -2.986831e-06 -5.7475652e-05 -1.5331821e-05
-1.9591182e-05 6.0744605e-06 -3.3007203e-05 -1.6712418e-05 -3.2474858e-05 9.208088e-08 0.40871707 1.4287889e-06
-0.23437373 1.0008833e-05 1.9348081e-05 2.2262191e-05 -3.5468973e-05 6.18671e-05 -9.006539e-06 -2.6640499e-05
-3.3629403e-05 2.6325513e-05 4.2622436e-05 -2.7082897e-06 -0.046172176 3.339407e-05 3.3820517e-05 6.71028e-06
2.8070142e-05 3.4194632e-05 1.584398e-05 -3.992286e-05 5.499529e-05 4.2637017e-05 8.003397e-06 7.477209e-06
-5.664184e-06 -1.832996e-05 -2.1806822e-05 4.8824295e-06 -4.3307114e-06 -2.8617107e-05 2.7391594e-05 -3.590938e-06
-6.3015677e-06 -2.5152638e-05 -4.0129344e-06 -6.5926397e-06 0.46200928 3.7224057e-05 1.2099105e-05 -9.813141e-06
-4.655947e-05 1.8955534e-05 -3.8901344e-05 0.025703704 2.94076e-05 1.4287218e-06 -0.0041148555 1.12667785e-05
-0.095654406 -7.552562e-07 -0.45419207 7.078186e-06 -3.969064e-06 -1.5720421e-05 -6.258e-06 -5.200135e-06
0.42209524 2.2337594e-05 -4.0333984e-05 -7.5540065e-06 -2.0307363e-05 -5.9877875e-05 0.3607019 -2.8206696e-05
-1.4410759e-05 -2.4775922e-05 -1.5686375e-05 4.3394135e-05 0.019109052 -2.6159873e-05 -2.888948e-06 -2.0790521e-05
-4.9298284e-05 -2.7136208e-05 3.416799e-05 -7.1632876e-06 4.8923248e-05 4.7706573e-05 -1.8144241e-05 -3.90458e-05
3.291778e-05 0.29180646 -6.280878e-05 3.6297362e-05 2.7009726e-05 -3.0381716e-06 1.3935132e-06 1.7554134e-05
1.4203108e-06 2.8476918e-05 3.9441293e-05 2.1488431e-05 -1.7872313e-05 -0.088166654 4.978548e-05 9.44232e-06
4.321801e-05 -2.0211717e-05 1.4216297e-05 -3.098535e-05 0.5038657 0.48177284 2.3044775e-05 1.5823927e-05
1.6054837e-05 -1.1669568e-05 2.7438022e-05 -2.49822e-06 -0.04009866 6.476699e-05 4.6185745e-05 2.5662428e-05
-6.5535314e-06 -3.5669727e-06 3.157617e-05 2.9720039e-05 0.08912902 9.792829e-06 6.317887e-07 5.621027e-05
-5.1599563e-06 -1.4389567e-05 1.7232886e-05 -0.4996805 1.4577297e-05 1.2386454e-05 -3.0376868e-05 5.306534e-06
6.2498602e-06 -6.7870574e-06 -6.0985867e-06 1.8503406e-05 1.650278e-05 -9.006646e-06 -3.361046e-05 -1.4681953e-05
3.6851336e-05 -0.5486407 1.4939149e-05 -1.7824455e-05 -2.9810704e-05 5.9292688e-05 -5.1417133e-05 5.424581e-05
-3.2576008e-07 -6.651502e-06 -3.3929948e-05 0.081825405 2.2083213e-05 0.1885225 9.2845785e-06 -2.658655e-06
-8.605008e-06 3.192662e-05 1.9821931e-05 4.7206668e-06 -1.775808e-05 -2.2666609e-07 -0.5272462 -4.0704068e-05
-2.9555413e-05 -1.7759134e-05 -6.3426114e-06 -7.3011515e-06 -3.7082005e-05 2.2288918e-05 1.2752654e-05 -0.34276968
-9.111591e-07 9.848484e-06 4.763629e-05 -4.87139e-05 -2.0921492e-05 0.04673535 4.8982944e-05 -2.3816283e-05
-1.4846363e-05 -1.2524174e-05 0.46156782 -3.1408385e-05 -8.82032e-06 -0.67337936 5.2484784e-06 -3.4542543e-05
00000000: 784d 2f37 7c10 cdb7 fbf0 03be 9c10 afb6
00000010: 59ee 8237 00cc 8eb5 7ad3 2bb8 9301 07b8
00000020: 96bb 1636 a6db 2138 1e9c 42b8 968a f4b7
00000030: e071 b437 40ca 4637 1888 61b7 a05f c934
00000040: 345b ac36 b534 ebb7 df78 87b7 f94b 8337
00000050: 9ba1 4dbf 969a 00b7 9835 6e37 e3fb ccbe
00000060: 00f3 3d38 e8ef f5b6 260e 0737 c68c 6bb8
00000070: 5a2e 9ab7 f4a1 6537 de12 1bbd ed20 16bd
00000080: 7822 76be 43e1 c537 23f3 eb37 3100 00b7
00000090: 95bc 6d37 a896 2836 409d de37 93bc 92b7
000000a0: ed5b 0038 6865 b4b6 82eb abb7 e593 b037
000000b0: 8e15 5c38 7447 f236 2c29 c5b7 2fdc d2b7
000000c0: 9ea8 d83e f6b4 d6b7 54b6 10b8 700f 12b8
000000d0: 8781 2c3f 4c5d cf3e 9f26 d53e 43ad a4b8
000000e0: 34b5 9637 0299 c0b6 7a67 3a3d cb36 25b7
000000f0: 18ed 3ab7 5e71 48b6 0312 71b8 d69c 80b7
00000100: be57 a4b7 38d3 cb36 3771 0ab8 a531 8cb7
00000110: 9d35 08b8 00be c533 5d43 d13e d0c4 bf35
00000120: abff 6fbe 9ceb 2737 b04d a237 b1bf ba37
00000130: 85c4 14b8 a5be 8138 ca1a 17b7 097a dfb7
00000140: 4c0d 0db8 9cd5 dc37 7ec5 3238 10c0 35b6
00000150: 091f 3dbd 9c10 0c38 81da 0d38 de28 e136
00000160: 2c78 eb37 356c 0f38 b0e8 8437 d872 27b8
00000170: beaa 6638 26d5 3238 5446 0637 bce4 fa36
00000180: f80e beb6 4ac3 99b7 cbed b6b7 c0d3 a336
00000190: 8750 91b6 c50e f0b7 00c7 e537 d8fb 70b6
000001a0: 0e72 d3b6 e1fe d2b7 d8a6 86b6 5836 ddb6
000001b0: 7b8c ec3e 0721 1c38 43fd 4a37 1fa3 24b7
000001c0: da48 43b8 b302 9f37 002a 23b8 9390 d23c
000001d0: 57b0 f637 82c2 bf35 e9d5 86bb 7206 3d37
000001e0: 75e6 c3bd d0bc 4ab5 dd8b e8be 2881 ed36
000001f0: 002e 85b6 59df 83b7 d0fb d1b6 d27c aeb6
00000200: de1c d83e 9e61 bb37 492c 29b8 6c78 fdb6
00000210: bb59 aab7 6125 7bb8 ebad b83e 6b9d ecb7
00000220: bdc5 71b7 e3d5 cfb7 3c96 83b7 1902 3638
00000230: 968a 9c3c e671 dbb7 c0df 41b6 4e67 aeb7
00000240: a1c5 4eb8 90a2 e3b7 9a4f 0f38 2c5c f0b6
00000250: f032 4d38 8b18 4838 7634 98b7 1cc5 23b8
00000260: 3211 0a38 a867 953e 35b8 83b8 ff3d 1838
00000270: f292 e237 64e3 4bb6 c008 bb35 3741 9337
00000280: 82a1 be35 b7e1 ee37 c46d 2538 0e42 b437
00000290: 80ec 95b7 b890 b4bd c1d0 5038 756a 1e37
000002a0: fc44 3538 558c a9b7 8882 6e37 44f6 01b8
000002b0: 58fd 003f eeaa f63e 4750 c137 a0bd 8437
000002c0: 80ad 8637 6ac8 43b7 b42a e637 18a7 27b6
000002d0: 7e3e 24bd 83d3 8738 91b7 4138 a545 d737
000002e0: 68e6 dbb6 2060 6fb6 a870 0438 4c4f f937
000002f0: 4789 b63d e14b 2437 3098 2935 51c3 6b38
00000300: b023 adb6 b86a 71b7 578f 9037 1fd6 ffbe
00000310: 0491 7437 6acf 4f37 d4d1 feb7 c80e b236
00000320: e4b5 d136 61bc e3b6 76a2 ccb6 c337 9b37
00000330: 736f 8a37 401b 17b7 f5f8 0cb8 8252 76b7
00000340: d290 1a38 b873 0cbf 28a3 7a37 ba85 95b7
00000350: 0012 fab7 0ab1 7838 baa8 57b8 ff85 6338
00000360: 20e4 aeb4 f82f dfb6 0150 0eb8 1494 a73d
00000370: 573f b937 0b0c 413e f6c4 1b37 586b 32b6
00000380: 3a5e 10b7 f2e8 0538 4647 a637 3866 9e36
00000390: 30f7 94b7 8061 73b4 9bf9 06bf a9b9 2ab8
000003a0: c4ed f7b7 73f9 94b7 9ed2 d4b6 6afc f4b6
000003b0: 8088 1bb8 16f9 ba37 3bf4 5537 827f afbe
000003c0: 6096 74b5 eb3a 2537 14cd 4738 2752 4cb8
000003d0: 9080 afb7 916d 3f3d 0973 4d38 14c9 c7b7
000003e0: a514 79b7 eb1e 52b7 9e52 ec3e 7fbc 03b8
000003f0: fcfa 13b7 9762 2cbf 161c b036 c6e1 10b8

weight f4 [192, 400]
0.00033800874 0.00053200644 -0.0740557 0.001392201 0.00095483876 0.0010325828 -0.0009768854 0.0007988315
-0.0003691226 0.0007398128 -0.0010720136 0.0008496839 0.00036255262 -0.00085798977 -0.00058568706 -0.00022214252
-6.4288775e-05 0.0013611123 0.000958963 0.00064166 0.008418508 0.0010135501 -9.719806e-05 -0.059919804
0.00054654793 0.0007788663 -0.0008063051 -0.0013858619 -0.0007551533 -0.0009214534 0.030051252 -0.4115516
0.20975068 -0.0004600301 0.0007662032 -0.0010299387 0.0006816072 0.00046344686 0.00037234966 -0.00057301077
-0.00067903864 -0.00017820677 -0.00019361915 -0.000653412 0.0006220932 -0.0009635897 0.0007025332 0.0006220952
0.56954104 -0.0010956659 -0.00045666026 -0.000496626 0.3636281 0.52880573 0.012757556 -0.000471995
0.00063705794 -3.593321e-05 -0.099198855 0.0003901167 -0.0004468084 -0.00085624325 0.000117279036 0.000417667
-0.00094434276 0.0005750838 0.0008211765 0.0002097467 -0.0001582564 0.0010038243 0.15522023 0.0006068973
0.20418973 -0.0008658365 0.00067233946 -0.0010630446 -0.00037345078 -0.0003848724 -0.00075744616 -0.00019262833
0.0005226561 -0.0007477698 0.00061295944 0.00040260548 -0.2607079 1.636339e-05 0.0007429124 0.00028426072
0.00026750623 -0.00082621246 -0.0012134813 -0.0007267804 -0.00043957768 -0.0009216708 -0.0008020139 0.0005785738
-0.00075860874 -0.0006270215 -0.0011223382 0.0012440995 -0.00023749005 -0.0004734743 0.0002950348 -0.0005844353
0.00050204195 0.00055213465 -0.00020083909 -0.00034135702 0.033770856 -0.00054491224 -0.001011619 0.00053671835
-0.0006091338 0.0004896882 -0.0010948676 0.4216062 0.000629297 0.0005022824 -0.20375954 -0.00021826204
0.15228252 7.2564894e-06 -0.1714704 -0.001306747 -0.00039488936 0.00028567883 -0.0009118314 -0.00042751018
-0.11330532 -0.00050046033 -0.00082616217 0.00016092916 -0.0006951176 -0.00081380387 0.11093121 -0.0011770012
0.0004325133 -5.41061e-05 -0.0006923974 0.00075749966 0.39734814 -0.00051335135 -0.00049483334 0.0011651268
-0.00119883 -0.0006853837 0.0005418473 0.00080182694 0.00087203726 0.0005458142 -0.0014486267 -0.0003805594
0.00064782065 0.12651479 -0.0007942234 0.00063017063 9.3662165e-05 -6.8524896e-06 -0.0010022338 0.0011194372
-0.0005571419 0.00094842224 0.0007036108 0.0008853761 -0.00065790507 -0.48239258 0.0011614722 0.00049510103
0.0006899375 -0.0002731073 0.0010183383 0.001336303 0.14971328 -0.36211118 -0.00024359053 0.000278575
0.0004153445 0.00091498194 -0.0003456927 -0.00021079091 0.02683772 -1.8375755e-05 -0.0002142403 0.00022116913
0.0004938322 0.0006090944 -0.0005240417 0.00022062416 -0.07157833 0.0007519096 -0.0008467495 0.00035483943
0.0005769289 -4.216708e-05 0.0007455958 0.04342588 -0.00038930387 -0.00029190478 -0.0008360704 -0.00013665443
0.0011825425 -0.0004074968 0.00067522685 -0.00029587778 -0.0010545652 -0.00030982177 -1.4423519e-05 -0.00055520993
0.0015398246 -0.01895697 0.00035831984 -0.0009618563 0.0011858159 -0.0005431598 -0.00051949685 0.0006361725
-0.000930479 -0.00042525886 -0.0006648403 -0.22768201 0.00038067173 -0.44326824 0.00083245273 0.00035301512
-0.00077474734 4.925281e-05 0.0012964219 0.00030999197 0.0010129451 -0.0013357177 -0.37804902 -0.0007093124
0.00095668156 -0.0005513004 0.0003259595 -0.0007112656 -0.00056005834 0.00048241744 0.0005468775 0.13625349
0.00091601483 -0.00062119693 0.0013505715 -0.0011764073 0.00039650328 0.30361494 0.0013619824 0.000987561
-0.0009922247 0.0009574528 -0.29912487 -0.00018440073 -6.285568e-05 -0.7123538 -2.885696e-05 0.0012290069
00000000: c436 b139 5976 0b3a 84aa 97bd 847a b63a
00000010: 254e 7a3a bb57 873a d60a 80ba ad68 513a
00000020: cc86 c1b9 ffef 413a cf82 8cba 52bd 5e3a
00000030: fd14 be39 b8ea 60ba cb88 19ba eeee 68b9
00000040: c6d2 86b8 5a67 b23a eb62 7b3a 1335 283a
00000050: c8ed 093c 19d9 843a d0d6 cbb8 786e 75bd
00000060: 3646 0f3a d52c 4c3a 385e 53ba cfa5 b5ba
00000070: 7bf5 45ba b18d 71ba 0b2e f63c e4b6 d2be
00000080: e2c8 563e 3230 f1b9 07db 483a 02ff 86ba
00000090: e3ad 323a c9fa f239 ed37 c339 1a36 16ba
000000a0: 8301 32ba 04dd 3ab9 3f06 4bb9 bd49 2bba
000000b0: f813 233a 6999 7cba 342a 383a 1a14 233a
000000c0: 71cd 113f 729c 8fba e76b efb9 0230 02ba
000000d0: 762d ba3e d05f 073f 1105 513c 1976 f7b9
000000e0: 3c00 273a feb6 16b8 c528 cbbd 9488 cc39
000000f0: 9c41 eab9 8375 60ba b4f3 f538 51fa da39
00000100: c58d 77ba 38c1 163a 3944 573a 73ef 5b39
00000110: a1f1 25b9 c192 833a 0df2 1e3e 3018 1f3a
00000120: 1d17 513e 4ef9 62ba f03f 303a dc55 8bba
00000130: b7cb c3b9 b3c8 c9b9 5a8f 46ba 46fc 49b9
00000140: db02 093a fb05 44ba 03af 203a cb14 d339
00000150: 827b 85be 1d44 8937 02c0 423a d408 9539
00000160: 1440 8c39 2e96 58ba ad0d 9fba 6885 3eba
00000170: 1e77 e6b9 489c 71ba 3e3e 52ba 6eab 173a
00000180: 5fdd 46ba b35e 24ba 6c1b 93ba 0d11 a33a
00000190: c006 79b9 a53c f8b9 e7ae 9a39 ca34 19ba
000001a0: 779b 033a 21bd 103a 5598 52b9 2af8 b2b9
000001b0: 4f53 0a3d 71d8 0eba 4d98 84ba 8fb2 0c3a
000001c0: 47ae 1fba 6b5e 003a a981 8fba c5dc d73e
000001d0: 68f7 243a 9aab 033a 57a6 50be 45dd 64b9
000001e0: f3ef 1b3e c57c f336 f095 2fbe 2747 abba
000001f0: 2709 cfb9 2ac7 9539 f807 6fba 7223 e0b9
00000200: 9f0c e8bd 5331 03ba ce92 58ba 18bf 2839
00000210: 8d38 36ba 7455 55ba e72f e33d 9b45 9aba
00000220: f4c2 e239 fcef 62b8 0182 35ba f192 463a
00000230: 3771 cb3e 6d92 06ba b4b7 01ba 2bb7 983a
00000240: 0f22 9dba 52ab 33ba c20a 0e3a b231 523a
00000250: 6e99 643a f914 0f3a d9df bdba d185 c7b9
00000260: 82d2 293a 188d 013e 6e33 50ba 0932 253a
00000270: 7e6c c438 70ee e5b6 635d 83ba 14ba 923a
00000280: 290d 12ba 8a9f 783a 8672 383a 9618 683a
00000290: 4377 2cba 29fc f6be 8a3c 983a abc9 013a
000002a0: ecdc 343a d72f 8fb9 c379 853a e326 af3a
000002b0: 704e 193e a366 b9be 566c 7fb9 b40d 9239
000002c0: 98c2 d939 66db 6f3a 173e b5b9 c107 5db9
000002d0: c7da db3c a225 9ab7 b1a5 60b9 a3e9 6739
000002e0: 8574 013a a2ab 1f3a d85f 09ba 5957 6739
000002f0: a997 92bd cd1b 453a 66f8 5dba be09 ba39
00000300: 0b3d 173a 8fdc 30b8 1674 433a 56df 313d
00000310: 7b1b ccb9 cc0a 99b9 bc2b 5bba e54a 0fb9
00000320: 8bff 9a3a 4ba5 d5b9 b501 313a 0b20 9bb9
00000330: 5639 8aba 936f a2b9 8bfc 71b7 828b 11ba
00000340: f1d3 c93a a64b 9bbc e0dc bb39 1525 7cba
00000350: 616d 9b3a d662 0eba d82e 08ba d0c4 263a
00000360: 63eb 73ba 47f5 deb9 ad48 2eba 7925 69be
00000370: e594 c739 0ef4 e2be f538 5a3a e314 b939
00000380: 6a18 4bba cd94 4e38 b3ec a93a 6b86 a239
00000390: ccc4 843a 4013 afba a48f c1be 26f1 39ba
000003a0: d0c9 7a3a 2585 10ba 8be5 aa39 3a74 3aba
000003b0: e1d0 12ba f9ec fc39 545c 0f3a 0986 0b3e
000003c0: b720 703a d2d7 22ba a905 b13a ae31 9aba
000003d0: c5e1 cf39 6b73 9b3e 8c84 b23a 0c71 813a
000003e0: 890d 82ba 92fd 7a3a e526 99be b25b 41b9
000003f0: 63d1 83b8 d25c 36bf da11 f2b7 a116 a13a

bias f4 [192]
0.54945296 0.008642067 -0.6939873 0.13308936 -0.06711803 0.10747521 -0.18725604 0.12983826
0.012536571 -0.036603227 0.28257895 0.18967412 0.37701914 -0.04631215 0.18170887 -0.08926526
0.029403906 -0.123338774 0.12665494 -0.11923638 0.028255431 -0.049803566 -0.015636919 0.060284514
-0.063688874 0.31375757 -0.17272262 0.070069015 -0.152082 0.039825294 -0.15225947 0.24188428
-0.34972596 -0.047972783 -0.10386701 0.08419653 0.13875742 -0.27413768 0.5131327 -0.22401236
0.1330497 -0.15549159 0.14049369 -0.4178092 0.25777498 0.10597973 0.2528669 -0.39595154
0.36811635 -0.047585484 0.17410894 0.013168195 0.02415815 -0.018487679 0.08117524 -0.08829512
-0.02265523 -0.104023404 0.09639311 0.07041841 0.006901404 -0.05531347 -0.10388456 0.06513208
-0.01233492 -0.03951081 0.006777807 0.08487748 0.03361232 -0.052669175 0.02245994 -0.045335434
0.052062422 -0.058965936 0.048146784 -0.002077733 0.08449501 -0.00024305694 0.10807115 -0.03631557
0.009273421 0.009969951 0.051575065 0.0013284654 -0.034891866 -0.14263113 0.05427226 -0.058691025
0.0546477 -0.06828213 -0.021107722 -0.015146666 0.11253694 0.059653133 0.046014417 -0.10363566
-0.073293194 0.2534929 -0.18413052 -0.046848916 -0.11330466 -0.10837048 -0.06676195 0.11058779
0.040309384 -0.018931085 -0.109765425 0.10978463 0.09201574 -0.05518344 0.019229272 -0.027245296
0.07661915 0.0005323542 0.08093666 -0.06969781 -0.0068668267 0.017655075 0.011936837 0.07631359
-0.14998391 0.1063305 -0.20575754 0.08146956 -0.091267556 -0.069407746 -0.058070377 0.15133953
0.033574764 0.040885642 -0.04348107 0.01880551 0.004718827 0.013890789 -0.00855132 0.07942719
0.046211455 0.061792806 0.06313468 0.041115314 -0.16760789 -0.014961516 0.020878807 0.012116134
0.12144854 -0.16335818 0.394957 -0.12647499 0.058726158 0.08151481 0.022351256 -0.23939943
-0.04087318 0.10180798 0.10490774 -0.3708756 -0.12127264 -0.043778274 0.06671606 -0.045787677
0.07385155 -0.05416692 -0.007493684 -0.02662282 0.032838367 0.020856012 0.030326532 -0.1624886
0.1466168 -0.12008388 0.13595988 -0.037309613 -0.000870303 0.08118904 -0.0046981447 -0.07313224
-0.070615016 0.01866304 0.021416292 0.018645406 0.1122771 0.060389243 -0.3672411 0.027027102
-0.00686851 -0.09819515 -0.04387791 0.060601342 0.077700034 -0.09344537 -0.036292214 0.4281583
00000000: f3a8 0c3f 7597 0d3c 27a9 31bf 9448 083e
00000010: 2d75 89bd f71b dc3d 0cc0 3fbe 52f4 043e
00000020: 3166 4d3c 44ed 15bd 30ae 903e ef39 423e
00000030: a708 c13e cfb1 3dbd e411 3a3e b4d0 b6bd
00000040: 76e0 f03c 0a99 fcbd d5b1 013e 3432 f4bd
00000050: ef77 e73c d3fe 4bbd ff18 80bc e5ec 763d
00000060: 506f 82bd d5a4 a03e 33de 30be 5880 8f3d
00000070: 62bb 1bbe d91f 233d e8e9 1bbe 83b0 773e
00000080: 480f b3be 1c7f 44bd 3ab8 d4bd 3b6f ac3d
00000090: 6d16 0e3e c65b 8cbe aa5c 033f 7f63 65be
000000a0: 2e3e 083e 3039 1fbe 94dd 0f3e 16eb d5be
000000b0: 15fb 833e e70b d93d c577 813e 29ba cabe
000000c0: bf79 bc3e ffe8 42bd 9d49 323e 6abf 573c
000000d0: 50e7 c53c 7973 97bc 343f a63d 12d4 b4bd
000000e0: 7697 b9bc 390a d5bd c069 c53d 8737 903d
000000f0: 2c25 e23b 6190 62bd 6ec1 d4bd f863 853d
00000100: 6718 4abc 16d6 21bd 5e18 de3b 3fd4 ad3d
00000110: 12ad 093d a2bb 57bd e8fd b73c a6b1 39bd
00000120: 683f 553d 4486 71bd 9035 453d 932a 08bb
00000130: b80b ad3d 1add 7eb9 6854 dd3d a3bf 14bd
00000140: 8cef 173c 0159 233c 6040 533d e71f ae3a
00000150: c6ea 0ebd e50d 12be 974c 5e3d 0066 70bd
00000160: 44d6 5f3d 80d7 8bbd 1aea acbc b929 78bc
00000170: c479 e63d d856 743d 9d79 3c3d ef3e d4bd
00000180: be1a 96bd d2c9 813e b68c 3cbe a6e4 3fbd
00000190: 460c e8bd 58f1 ddbd 7dba 88bd da7b e23d
000001a0: 741b 253d 5d15 9bbc b2cc e0bd c4d6 e03d
000001b0: c072 bc3d 0808 62bd b586 9d3c 8731 dfbc
000001c0: 80ea 9c3d b08d 0b3a 1fc2 a53d babd 8ebd
000001d0: 1e03 e1bb 60a1 903c b992 433c 4d4a 9c3d
000001e0: 6295 19be cec3 d93d 1bb2 52be 83d9 a63d
000001f0: 7cea babd a625 8ebd 34db 6dbd c0f8 1a3e
00000200: b185 093d b477 273d 3519 32bd 030e 9a3c
00000210: 64a0 9a3b 3196 633c d61a 0cbc b9aa a23d
00000220: 3948 3d3d 741a 7d3d c14c 813d 8868 283d
00000230: 67a1 2bbe 2521 75bc 080a ab3c c082 463c
00000240: 03ba f83d 5e47 27be ce37 ca3e a982 01be
00000250: d78a 703d 3df1 a63d fb19 b73c 2025 75be
00000260: a36a 27bd b480 d03d dfd9 d63d 68e3 bdbe
00000270: ca5d f8bd d950 33bd 6ea2 883d dc8b 3bbd
00000280: 7b3f 973d 22de 5dbd 948d f5bb 1a18 dabc
00000290: 8681 063d 3ada aa3c 596f f83c 6963 26be
000002a0: b722 163e 8aee f5bd 1139 0b3e f7d1 18bd
000002b0: 0c25 64ba 7046 a63d e5f2 99bb 5bc6 95bd
000002c0: 9b9e 90bd 3be3 983c 3871 af3c 40be 983c
000002d0: 89f1 e53d b65a 773d 0707 bcbe f167 dd3c
000002e0: 3d11 e1bb 8a1a c9bd 53b9 33bd 1d39 783d
000002f0: 3221 9f3d 4960 bfbd 25a7 14bd 9137 db3e
