data/results/lindblad/R_op_vals_N_40_J_0.0_Jz_1.0_hx_0.676_hz_0.0_chi_100_eps_0.005/latent-4_epochs-250000.dat_final.net.pkl (torch_old, 641228 bytes, 8 tensors)

weight f4 [400, 192]
-0.08589371 -0.22635439 -0.14674582 -0.17555444 0.15131065 -0.25340012 0.089594886 0.5593521
-0.1472583 0.059407946 -0.08991529 0.1526651 -0.009659359 0.019499872 0.20270483 0.17118561
-0.05911531 0.13156156 -0.18464215 0.09510714 -0.099424474 -0.07662865 0.13463715 0.10342967
0.10839302 0.09308426 0.33232024 -0.06254328 0.68560994 -0.34987396 0.11985473 0.1188231
-0.18456703 -0.23988225 -0.08681999 0.10776474 -0.045195192 -0.018252017 -0.043569893 0.03898437
-0.031494077 -0.2788854 0.05377746 -0.24524173 -0.08896932 -0.119463965 0.04817518 -0.3792078
-0.008868425 -0.020679304 0.0021364049 -0.53984237 -0.05192647 0.25625116 0.017307064 -0.3206426
-0.13249865 -0.036201455 -0.17744946 -0.063520715 -0.29730675 -0.099335924 0.0804513 -0.10447293
-0.14538093 -0.08277729 -0.088885136 0.084116906 0.113944165 -0.11977188 0.073484205 -0.052113593
-0.097021945 -0.06937498 0.20541438 -0.08350613 0.022332884 -0.04993187 0.2758906 -0.1771324
0.04575934 -0.0062068854 -0.13975587 -0.34650847 0.11404278 -0.25996265 -0.05578949 -0.14449333
-0.3991687 0.013094466 -0.03962778 -5.0822196e-05 0.11620246 -0.012076895 -0.051606417 0.2616732
0.096336044 0.52495605 -0.24306552 -0.18269978 -0.020836294 0.3250201 0.005830553 -0.22625187
0.06399566 0.30553252 -0.24228899 -0.054232247 0.017320191 -0.02623048 -0.070862405 -0.19261932
0.30961978 -0.30428958 -0.10786466 0.2155478 -0.25043786 0.28396636 0.16821921 0.04655115
-0.03270818 0.07364023 -0.148513 -0.2882473 -0.115663 0.0015206895 0.12089421 -0.18344364
-0.08846421 0.13550626 -0.17197102 0.06139513 0.08690919 -0.02369264 -0.09359956 0.22618936
-0.1915973 0.012006029 -0.06168511 -0.16553533 -0.1772647 -0.05929837 -0.058062296 -0.31805784
0.007868491 0.12706675 0.57690465 0.059988752 0.06751883 -0.013936049 -0.050454963 -0.01783257
-0.20745207 -0.1203934 -0.012078929 -0.00037928182 -0.042120796 0.11020707 0.02477144 0.0063735433
-0.28562564 0.33460268 -0.032883465 -0.1402295 0.016634518 -0.22497638 0.02271801 -0.0512703
0.15328646 0.05999058 0.041087452 -0.3164806 -0.10151417 -0.23943348 -0.014746632 -0.059793748
-0.122858904 0.008700723 -0.26276407 -0.34624195 -0.015569174 -0.07949786 0.02031494 -0.47916877
-0.09896214 -0.061743967 -0.15713897 -0.050231505 0.25479412 0.24764016 0.12711623 -0.034305822
0.004213831 -0.21784395 -0.0007950899 -0.18586917 0.15873644 -0.056669496 0.036334813 0.071388304
0.21038651 0.06791585 0.02361295 -0.052936196 -0.00043454528 -0.061816007 0.076824434 -0.04707511
-0.072985195 0.18977053 -0.09102224 0.0034191855 -0.10848605 0.09292061 0.0052881544 0.11177972
-0.12390533 0.04497859 0.0806907 -0.011608654 0.0489342 -0.23832057 -0.064589255 -0.05901529
0.1202839 -0.038392443 0.05819958 -0.14740202 -0.0090302015 0.20243652 -0.04443104 -0.07108597
0.10019133 0.030864134 0.19711709 -0.29239473 -0.009044467 -0.035541177 0.113393225 -0.17945224
0.09874225 -0.020838547 -0.027052958 0.19515301 -0.0247851 0.256395 0.012537915 -0.1273053
0.028335815 -0.05416464 0.020636233 0.014386985 0.042113427 -0.13376068 -0.0063282046 -0.28034204
00000000: 0be9 afbd 72c9 67be 8944 16be 8bc4 33be
00000010: 2ef1 1a3e a9bd 81be 867d b73d b331 0f3f
00000020: e1ca 16be bf55 733d 8225 b8bd 3d54 1c3e
00000030: 4a42 1ebc 32be 9f3c db91 4f3e 484b 2f3e
00000040: e522 72bd 13b8 063e d512 3dbe 88c7 c23d
00000050: 0f9f cbbd 7bef 9cbd 52de 093e efd2 d33d
00000060: 29fd dd3d f6a2 be3d e125 aa3e b116 80bd
00000070: 2284 2f3f ae22 b3be 6676 f53d 8759 f33d
00000080: 24ff 3cbe b1a3 75be aece b1bd c3b3 dc3d
00000090: 981e 39bd 4185 95bc 5876 32bd 13ae 1f3d
000000a0: efff 00bd 11ca 8ebe c145 5c3d a620 7bbe
000000b0: 8c35 b6bd 86a9 f4bd 5653 453d 8627 c2be
000000c0: df4c 11bc a567 a9bc ed02 0c3b 1c33 0abf
000000d0: dab0 54bd 5a33 833e 8bc7 8d3c 442b a4be
000000e0: baad 07be fa47 14bd 50b5 35be 2617 82bd
000000f0: 9738 98be a270 cbbd a7c3 a43d e7f5 d5bd
00000100: bdde 14be 2487 a9bd 6909 b6bd 7c45 ac3d
00000110: 8f5b e93d f64a f5bd e37e 963d 1075 55bd
00000120: 71b3 c6bd 7814 8ebd 2658 523e 4305 abbd
00000130: 74f3 b63c 5c85 4cbd 8841 8d3e 3262 35be
00000140: 256e 3b3d 2163 cbbb 2a1c 0fbe 8f69 b1be
00000150: 438f e93d d319 85be 8583 64bd 0ff6 13be
00000160: d75f ccbe 2c8a 563c bd50 22bd eb29 55b8
00000170: 8efb ed3d 2bde 45bc 4061 53bd 08fa 853e
00000180: d54b c53d 8563 063f 2be6 78be a715 3bbe
00000190: e0b0 aabc 0969 a63e 390e bf3b 92ae 67be
000001a0: 2810 833d c26e 9c3e 9b1a 78be a222 5ebd
000001b0: 13e3 8d3c 4ee1 d6bc 4f20 91bd 003e 45be
000001c0: 7c86 9e3e d8cb 9bbe 26e8 dcbd 90b8 5c3e
000001d0: 6439 80be 0a64 913e a841 2c3e 6bac 3e3d
000001e0: 03f9 05bd b0d0 963d cb13 18be 2695 93be
000001f0: b9e0 ecbd df51 c73a 6297 f73d a6d8 3bbe
00000200: b92c b5bd 27c2 0a3e 2c19 30be 7679 7b3d
00000210: 72fd b13d 1117 c2bc 20b1 bfbd 2f9e 673e
00000220: 1532 44be efb4 443c 87a9 7cbd 1882 29be
00000230: e184 35be d9e2 72bd bbd2 6dbd 7ad8 a2be
00000240: d8ea 003c c91d 023e 06b0 133f c4b6 753d
00000250: 5047 8a3d 0754 64bc dda9 4ebd 9c15 92bc
00000260: 516e 54be d190 f6bd b3e6 45bc 58da c6b9
00000270: db86 2cbd 3fb4 e13d 7aed ca3c 28d9 d03b
00000280: 863d 92be 0b51 ab3e d0b0 06bd 5298 0fbe
00000290: 1d45 883c 3560 66be 1f1b ba3c ce00 52bd
000002a0: 20f7 1c3e afb8 753d 514b 283d bf09 a2be
000002b0: a9e6 cfbd 0d2e 75be dc9b 71bc 4aea 74bd
000002c0: 739d fbbd 7a8d 0e3c 0389 86be a046 b1be
000002d0: d915 7fbc c6cf a2bd 846b a63c 9c55 f5be
000002e0: aaac cabd 3ee7 7cbd 0ae9 20be 8dbf 4dbd
000002f0: 6074 823e 6295 7d3e c22a 023e 4384 0cbd
00000300: 2d14 8a3b 7c12 5fbe 946d 50ba 7d54 3ebe
00000310: ce8b 223e 461e 68bd d0d3 143d 0834 923d
00000320: 906f 573e 7717 8b3d f26f c13c a0d3 58bd
00000330: aed3 e3b9 c832 7dbd 2156 9d3d d5d1 40bd
00000340: 4379 95bd 3553 423e de69 babd 6a14 603b
00000350: ef2d debd 294d be3d 4148 ad3b c4ec e43d
00000360: 14c2 fdbd 783b 383d 2a41 a53d 3932 3ebc
00000370: 3a6f 483d 4f0a 74be 5f47 84bd 04ba 71bd
00000380: 6857 f63d 6541 1dbd af62 6e3d 8ef0 16be
00000390: 69f3 13bc 854b 4f3e 52fd 35bd 8595 91bd
000003a0: 1d31 cd3d c8d6 fc3c 10d9 493e c3b4 95be
000003b0: 3e2f 14bc a093 11bd b53a e83d 54c2 37be
000003c0: 6039 ca3d 9ab5 aabc 2a9e ddbc 31d6 473e
000003d0: 1f0a cbbc 3546 833e d46b 4d3c 525c 02be
000003e0: 8320 e83c bedb 5dbd 510d a93c 64b7 6b3c
000003f0: 217f 2c3d 8ff8 08be d45c cfbb fe88 8fbe

bias f4 [400]
-6.0859336e-05 -0.0030812083 0.018550282 -0.00033707623 -0.006423761 0.0007300717 0.00014196242 8.378096e-05
-3.7091304e-05 1.4538734e-05 -0.001578892 -0.00050669076 0.021221628 -0.0018544928 -0.0008948539 0.0016590046
0.0011392318 0.00034794037 -0.0017227969 0.00045783052 0.00077388686 0.0008487326 0.0007999962 -0.0012436877
-0.0002408875 0.00032275767 0.0018051324 -0.00067235786 -0.0012049889 -0.0021530609 0.0011507673 -0.0013999022
-0.00036123244 -0.00011770216 0.00053510565 -0.0022572302 0.00034189425 2.8229533e-05 -0.0013101029 -0.0072842096
0.0023609179 0.0007082415 0.0024366153 0.00019611778 0.00077180617 0.0007484183 -0.0012804267 -0.0009894937
0.0003708767 0.00014162473 0.00056306145 -0.00082755246 0.0003506324 -0.0005857928 -0.00073886156 0.00037193776
0.0005857498 0.0016017955 0.00061258423 0.003268264 -0.06629378 0.0008762966 0.00016362815 -5.2459098e-05
-0.00031327608 -0.000696323 0.001384583 3.719212e-05 -0.0022207354 -0.00011748976 -5.3810178e-05 -0.00015567457
-0.0003617353 0.0008582413 0.0004204034 0.00062068406 0.0006749074 -0.00060615165 -3.9987528e-05 -0.000424706
-0.0011564492 2.1100295e-05 0.00048548402 0.00047050745 -0.0009191637 5.0287126e-06 0.00038928102 -0.00077136786
-0.00047949672 -0.008279281 -0.0013235087 0.00057372067 -0.00167877 -0.0011748887 0.0016180064 -0.000834762
-0.00045159983 0.0011385344 -9.900742e-05 0.00030822173 -0.0019473033 0.000572582 0.00095605396 -0.00018540212
-0.00063705526 -0.00042911168 -0.0005461346 0.004304594 -0.000101516925 0.00026104433 -0.0010870214 0.0009469536
0.00071515614 -0.001051856 0.00013417684 -0.00019723718 0.0005650205 0.0006314304 -0.00028549824 -0.00070994813
-0.0009811778 -0.0025072813 -0.0015707766 -0.00018165777 0.0026153487 -0.0014662191 0.0008597337 0.0009422769
-0.00025166653 0.0004561174 -0.0005788344 -0.00095139636 -0.00012838906 -0.0006000033 -0.00018612065 0.00096233754
4.5852437e-05 0.0006531253 -0.0017341736 -0.0010397774 0.00019548193 -0.0009882805 -0.00066836446 -0.00036798834
-0.001344951 -0.00011901394 0.00095898734 -0.002236983 -0.00023418466 0.00067079795 -0.0004184124 -5.399237e-06
-0.0012046193 -0.00053816073 0.00029713032 0.00015710012 -0.00042275825 2.8748189e-05 -0.00042716943 0.00035195175
-0.00045457834 0.0014337082 -0.0015397496 0.0014153695 0.0010027835 0.0005448851 -0.00017987748 0.0005268756
0.0009310958 0.0029820194 0.0016186688 0.0014347219 7.41853e-05 -0.0010922669 -0.00033717477 -0.0005250368
0.00015305038 0.0005576841 -0.0012027561 0.0001790554 -0.0012662216 0.0010654682 0.0005592918 -0.00079158903
0.0010582593 -0.00013855688 -0.001056017 -0.00048138638 0.0011097641 0.0004881406 -0.00017736989 0.0012771249
0.00015808489 -0.0011630782 0.0005710722 0.00022681191 0.00035061612 -8.434897e-05 0.001087082 0.00078611734
-0.00013197381 0.00038396515 -0.0060338145 -0.000872459 -0.0012290899 6.67524e-06 0.0018445265 -0.006359643
0.0005209655 -0.0026569515 0.0010045465 -0.002211646 -2.9719726e-05 0.0016011692 0.00484402 -0.00045938816
0.0014594183 -0.0007969676 0.00035519685 -0.00063699705 0.00029806403 -0.0007257329 -0.0011489862 0.00037308224
-0.000546364 0.0017352633 0.000399246 -0.00061871693 0.0005524221 -0.0019553204 -0.0003284992 -0.00024895804
-0.0012376322 -9.130929e-05 0.00064938236 -0.00041297267 -0.0013557614 -0.0018268537 -0.0028238774 -0.0012357729
0.0035584453 -0.00058611116 0.00020816621 -0.0012454981 -0.0007545898 -0.0013115829 -0.011810716 0.00096378167
-0.00039329677 -6.7752204e-05 -0.0003279971 -0.0005367897 0.00017529716 -0.000344833 -0.00026491072 0.0010864661
00000000: 3743 7fb8 19ee 49bb c3f6 973c 9bb9 b0b9
00000010: 6a7e d2bb 4862 3f3a bfdb 1439 8fb3 af38
00000020: 7c92 1bb8 63eb 7337 d3f2 ceba 71d3 04ba
00000030: fbd8 ad3c 7412 f3ba a194 6aba f572 d93a
00000040: 4752 953a c46b b639 79cf e1ba f908 f039
00000050: abde 4a3a 7b7d 5e3a d6b6 513a 3c03 a3ba
00000060: bf96 7cb9 cd37 a939 319a ec3a 2c41 30ba
00000070: b8f0 9dba 5e1a 0dbb 58d5 963a ec7c b7ba
00000080: cc63 bdb9 ded6 f6b8 5546 0c3a 0aee 13bb
00000090: 4540 b339 76ce ec37 c2b7 abba 61b0 eebb
000000a0: a1b9 1a3b 48a9 393a 9faf 1f3b f7a4 4d39
000000b0: 0953 4a3a 8031 443a fed3 a7ba e6b1 81ba
000000c0: 3a72 c239 1981 1439 6a9a 133a 1bf0 58ba
000000d0: 16d5 b739 e48f 19ba 29b0 41ba a400 c339
000000e0: 018d 193a 57f3 d13a d595 203a 5f30 563b
000000f0: 09c5 87bd 45b7 653a 9993 2b39 8707 5cb8
00000100: 343f a4b9 7289 36ba e57a b53a bcfe 1b38
00000110: c289 11bb d664 f6b8 3db2 61b8 933c 23b9
00000120: 4aa7 bdb9 99fb 603a 9769 dc39 67b5 223a
00000130: 45ec 303a 26e6 1eba 48b8 27b8 13ab deb9
00000140: ff93 97ba 8a00 b137 9088 fe39 71ae f639
00000150: 08f4 70ba 50bc a836 6a18 cc39 9f35 4aba
00000160: f664 fbb9 d2a5 07bc 9579 adba be65 163a
00000170: 2c0a dcba b9fe 99ba 4913 d43a eed3 5aba
00000180: b4c4 ecb9 e03a 953a 34a2 cfb8 d298 a139
00000190: a83c ffba 5419 163a b29f 7a3a 8168 42b9
000001a0: 0e00 27ba 65fa e0b9 792a 0fba 8d0d 8d3b
000001b0: 7ce5 d4b8 c7dc 8839 637a 8eba fb3c 783a
000001c0: 5179 3b3a 6ede 89ba d2b1 0c39 74d1 4eb9
000001d0: e21d 143a 9486 253a edae 95b9 d01b 3aba
000001e0: dd9a 80ba 3351 24bb 84e2 cdba 637b 3eb9
000001f0: 4566 2b3b 262e c0ba c05f 613a 2203 773a
00000200: 1cf2 83b9 0b23 ef39 ebbc 17ba 2167 79ba
00000210: 2da0 06b9 8a49 1dba 6229 43b9 6145 7c3a
00000220: ae51 4038 7f36 2b3a 364d e3ba 2449 88ba
00000230: 48fa 4c39 3189 81ba 2e35 2fba 8fee c0b9
00000240: 1149 b0ba 1f97 f9b8 8d64 7b3a 599a 12bb
00000250: 778f 75b9 7dd8 2f3a 5d5e dbb9 182b b5b6
00000260: 51e4 9dba 5b13 0dba 28c8 9b39 3ebb 2439
00000270: a7a5 ddb9 4428 f137 b6f5 dfb9 2a86 b839
00000280: 7954 eeb9 44eb bb3a 6cd1 c9ba eb83 b93a
00000290: d56f 833a 9fd6 0e3a 7e9d 3cb9 061e 0a3a
000002a0: c814 743a fc6d 433b 8329 d43a 470d bc3a
000002b0: ee93 9b38 652a 8fba d5c6 b0b9 a0a2 09ba
000002c0: 267c 2039 8c31 123a cca5 9dba d1c0 3b39
000002d0: 59f7 a5ba 2ea7 8b3a 709d 123a a482 4fba
000002e0: 4ab5 8a3a 9449 11b9 0d6a 8aba 9662 fcb9
000002f0: 8175 913a 1fed ff39 5efc 39b9 3365 a73a
00000300: 97c3 2539 6e72 98ba 02b4 153a 5cd4 6d39
00000310: e6d2 b739 82e4 b0b8 6b7c 8e3a 7113 4e3a
00000320: 7362 0ab9 ee4e c939 4eb7 c5bb bbb5 64ba
00000330: 6a19 a1ba e0fb df36 0ac4 f13a 8d64 d0bb
00000340: 6791 083a 4020 2ebb fdaa 833a 43f1 10bb
00000350: a04e f9b7 53de d13a 96ba 9e3b 09da f0b9
00000360: f449 bf3a 97eb 50ba b739 ba39 26fc 26ba
00000370: 7a45 9c39 1c3f 3eba 9499 96ba 409a c339
00000380: de39 0fba c671 e33a e451 d139 6431 22ba
00000390: 6bd0 103a d524 00bb 6b3a acb9 9586 82b9
000003a0: 0c38 a2ba 4d7d bfb8 503b 2a3a 4184 d8b9
000003b0: ceb3 b1ba 0a73 efba cd10 39bb a8f9 a1ba
000003c0: ce34 693b 41a5 19ba 3147 5a39 fb3f a3ba
000003d0: aacf 45ba 6be9 abba bc81 41bc 4ba6 7c3a
000003e0: 6633 ceb9 3016 8eb8 07f7 abb9 59b7 0cba
000003f0: f9cf 3739 b4ca b4b9 b7e3 8ab9 c167 8e3a

weight f4 [4, 400]
0.040439095 0.015995994 -0.16342215 0.012709788 0.08095769 -0.009667865 0.009445656 0.012308353
0.012245635 -0.00721086 0.005005167 -0.011686822 -0.58806413 -0.0005342874 0.0054031247 -0.0061956756
-0.021156004 0.0025516374 -0.029767506 -0.017683236 0.036237076 -0.02019394 -0.00650849 0.35608655
-0.006487947 0.0010814487 -0.001616665 -0.0005572931 0.018549955 0.058001425 -0.016910793 -0.00058494415
0.059515413 0.04492573 -0.00605266 0.035164934 0.023949819 -0.02039167 -0.0031217567 0.005763653
-0.00060964836 -0.02342476 -0.440181 0.010595454 0.00984639 -0.0041686883 -0.013749421 0.026766762
-0.0030405242 -0.016848724 -0.0017414046 -0.009192346 0.021721087 0.023196403 -0.0090950765 0.0071847257
0.0205468 -0.027547192 -0.011714785 0.04274534 0.17469613 -0.017917097 0.00030585844 -0.01208103
0.006561911 -0.0071881437 0.013284955 -0.03551567 -0.65723217 0.010967463 0.0008520291 -0.024906814
-0.0012422284 -0.0008456644 0.0102062 -0.00575959 0.00088248414 -0.011313187 0.01134573 -0.010135017
0.022926366 -0.014417408 -0.06570844 0.024935097 0.018423324 -0.014984946 0.0026029306 0.0023625428
-0.011963715 1.8741004e-05 0.023269959 -0.035713267 0.0014139368 0.038984522 0.0047880528 -0.013411522
-0.0027673556 -0.0068286094 -0.04855499 0.026180584 -0.014280303 -0.00031949204 0.009540213 -0.022407085
-0.015886424 0.037785266 -0.023479939 -0.012880926 0.009106746 -0.012203965 0.03524972 -0.0057673724
-0.014852643 -0.019739123 -0.0063736476 0.005020861 -0.010991793 0.00949094 0.026162786 0.0058554607
-0.0015094127 0.048989166 -0.0024305608 -0.0054913387 -0.009048962 -0.0047451616 0.006103468 0.022029145
0.0061838455 0.020099621 -0.013488741 -0.019962598 -0.004691927 -0.021231703 -0.014317109 0.02691776
-0.0065342905 0.041335568 -0.027639432 0.012199988 0.004635415 -0.008494842 -0.017470848 0.00506941
-0.038020436 -0.0036864525 0.008664354 0.0381793 0.050001774 -0.01121149 0.009878391 0.03426661
0.01541097 0.0028088135 -0.009057858 0.015926052 -0.022320293 -0.0026014908 -0.0077771116 0.011719211
0.012680684 0.009843815 0.03217488 0.0073243156 -0.011483559 0.0021605112 -0.0060520414 0.0041121026
0.0034658336 -0.21141054 -0.024703836 0.0014344397 2.3072096e-05 -0.00607954 -0.016277557 0.005961506
-0.0076334006 0.010796625 0.0048717526 -0.015387071 -0.008779349 0.016863842 -0.00053210335 0.049057543
-0.060888145 0.018419262 -0.009487196 -0.02069931 0.004476857 0.011006603 -0.004251712 0.009404195
0.04231334 -0.016507413 0.012297061 0.011263989 0.06661159 -0.019246733 -0.0012229222 -0.0006340816
0.017121147 0.010687916 0.16011848 0.008998075 0.008594272 -0.048043102 -0.014525614 0.008640182
-0.04469902 0.0011709245 -0.002822563 0.0019772674 0.0072820866 0.010950933 -0.003000905 0.008518581
0.006861582 -0.0060507855 -0.0020909247 0.013892724 0.014589207 -0.01692556 -0.0038890205 -0.00218972
0.04237055 -0.022198407 0.004881193 0.004099446 -0.009050508 0.060825244 0.00607671 -0.030939493
-0.011377252 0.011893398 0.008893014 0.017487798 -0.004060638 -0.004331182 -0.012810751 0.036239445
-0.003693536 0.012414481 0.020531133 -0.02734834 0.0075053 -0.024329303 -0.051222607 0.0030630967
-0.056675464 -0.023037925 0.017792761 0.0048899455 0.00069115125 -0.050178844 -0.013937992 -0.013737087
00000000: 77a3 253d 080a 833c 2358 27be b73c 503c
00000010: 25cd a53d f765 1ebc f4c1 1a3c f9a8 493c
00000020: eaa1 483c 1449 ecbb 6202 a43b 167a 3fbc
00000030: 5f8b 16bf 6c0f 0cba b20c b13b 1805 cbbb
00000040: 5b4f adbc 5f39 273b fcda f3bc 6fdc 90bc
00000050: 546d 143d c36d a5bc 2c45 d5bb fa50 b63e
00000060: d898 d4bb 66bf 8d3a 47e6 d3ba 4f17 12ba
00000070: 13f6 973c e792 6d3d 8188 8abc f056 19ba
00000080: 6fc6 733d 0b04 383d 6455 c6bb 1b09 103d
00000090: 6932 c43c 6e0c a7bc 6396 4cbb 07dd bc3b
000000a0: cfd0 1fba 48e5 bfbc 675f e1be 8e98 2d3c
000000b0: c152 213c 7e99 88bb 4045 61bc f845 db3c
000000c0: 8843 47bb 5606 8abc d83f e4ba 7e9b 16bc
000000d0: 6cf0 b13c 6206 be3c 8403 15bc d96d eb3b
000000e0: c351 a83c a6aa e1bc 5fef 3fbc bd15 2f3d
000000f0: 8be3 323e e0c6 92bc a05b a039 83ef 45bc
00000100: 4d05 d73b 858a ebbb 24a9 593c e178 11bd
00000110: 5e40 28bf e0b0 333c b45a 5f3a 6009 ccbc
00000120: 45d2 a2ba 94af 5dba e837 273c f1ba bcbb
00000130: 8256 673a f25a 39bc 71e3 393c 580d 26bc
00000140: 13d0 bb3c fe36 6cbc 2692 86bd b044 cc3c
00000150: 83ec 963c 6b83 75bc ee95 2a3b e4d4 1a3b
00000160: 7503 44bc 0036 9d37 a4a0 be3c 1348 12bd
00000170: d953 b93a 3cae 1f3d 19e5 9c3b 00bc 5bbc
00000180: 865c 35bb 87c2 dfbb 99e1 46bd aa78 d63c
00000190: eff7 69bc 7f81 a7b9 8e4e 1c3c 108f b7bc
000001a0: 3f24 82bc b9c4 1a3d 0059 c0bc 850a 53bc
000001b0: 7634 153c 24f3 47bc 0362 103d 3afc bcbb
000001c0: 8058 73bc f1b3 a1bc 08da d0bb 0986 a43b
000001d0: ec16 34bc e37f 1b3c 5753 d63c 2adf bf3b
000001e0: 7cd7 c5ba dda8 483d 0b4a 1fbb b0f0 b3bb
000001f0: 1942 14bc 4d7d 9bbb 9aff c73b 7776 b43c
00000200: dba1 ca3b f6a7 a43c e1ff 5cbc 9a88 a3bc
00000210: bdbe 99bb 1cee adbc 4f92 6abc a282 dc3c
00000220: 9a1d d6bb 7c4f 293d 176c e2bc 75e2 473c
00000230: aee4 973b f32d 0bbc 061f 8fbc 4b1d a63b
00000240: 51bb 1bbd 6998 71bb eff4 0d3c e661 1c3d
00000250: a9ce 4c3d 66b0 37bc fad8 213c 255b 0c3d
00000260: 4b7e 7c3c 1214 383b 6967 14bc 5a77 823c
00000270: 0cd9 b6bc c67d 2abb 24d7 febb ef01 403c
00000280: a5c2 4f3c f447 213c cfc9 033d d000 f03b
00000290: 8a25 3cbc 5d97 0d3b 3450 c6bb d1be 863b
000002a0: 0a23 633b 017c 58be b35f cabc cf03 bc3a
000002b0: f38a c137 e136 c7bb 8358 85bc bd58 c33b
000002c0: 9b21 fabb 54e4 303c 39a3 9f3b 0e1a 7cbc
000002d0: 42d7 0fbc 0a26 8a3c da7c 0bba 90f0 483d
000002e0: d965 79bd fee3 963c 2f70 1bbc 9991 a9bc
000002f0: 99b2 923b 0a55 343c f251 8bbb 0d14 1a3c
00000300: c150 2d3d 8e3a 87bc 9d79 493c 988c 383c
00000310: a86b 883d 53ab 9dbc 764a a0ba 7f38 26ba
00000320: a641 8c3c 5e1c 2f3c 19f6 233e a96c 133c
00000330: fdce 0c3c d8c8 44bd d7fc 6dbc 8d8f 0d3c
00000340: 5216 37bd b579 993a c0fa 38bb 0b95 013b
00000350: 929e ee3b 8b6b 333c d5aa 44bb 8591 0b3c
00000360: 1fd7 e03b ab45 c6bb e507 09bb 4f9e 633c
00000370: 9207 6f3c 79a7 8abc f0de 7ebb 6881 0fbb
00000380: be8c 2d3d 6fd9 b5bc 6af2 9f3b a554 863b
00000390: 9548 14bc e423 793d 231f c73b d274 fdbc
000003a0: a767 3abc 87dc 423c 01b4 113c 9242 8f3c
000003b0: 1a0f 85bb 97ec 8dbb 2fe4 51bc d06f 143d
000003c0: 400f 72bb 1b66 4b3c e830 a83c a009 e0bc
000003d0: 05ef f53b 3f4e c7bc ccce 51bd 3cbe 483b
000003e0: 8824 68bd 08ba bcbc 20c2 913c d63b a03b
000003f0: 602e 353a 5588 4dbd 2d5c 64bc 8511 61bc

bias f4 [4]
0.08103454 -0.012989874 -0.10163135 -0.09443699
00000000: 70f5 a53d 7bd3 54bc 1924 d0bd 2e68 c1bd

weight f4 [400, 4]
0.10608457 1.8377135 -0.5010275 0.26853943 5.8645435e-07 -3.5221797e-07 3.439186e-07 1.6985857e-06
1.2331325e-06 -3.067528e-07 2.0875445e-06 8.4837325e-07 2.6705623e-06 5.39259e-07 -1.1115081e-06 -7.443662e-07
1.9461256e-06 -1.573968e-06 6.344682e-06 8.922443e-06 5.9992262e-06 2.9831132e-05 -0.00023486055 -8.345195e-05
2.2472561e-06 -9.34395e-08 1.3633263e-06 1.1547697e-06 8.537128e-07 -4.6071773e-07 8.5461295e-07 1.1093537e-06
1.0571931e-06 1.3534691e-07 -4.712065e-07 6.9650815e-07 6.6705616e-06 4.1562953e-07 -4.1306635e-06 -6.794496e-06
0.6221375 -0.35752133 -0.8746288 0.6682941 0.49720967 0.05684183 0.013771634 -0.11869567
1.5515961e-06 1.5867403e-07 -2.9844455e-07 7.8202254e-07 1.7838713e-06 -9.471739e-09 1.2119403e-06 2.4203945e-07
-3.7187175e-07 1.0830845e-06 -3.3651168e-06 -1.3973314e-06 -0.00037964038 -9.790525e-05 0.00053583836 0.00026750652
4.0959417e-06 -4.3422748e-08 4.1053457e-07 6.130313e-07 -3.1774632e-06 6.0316023e-07 -4.4686362e-06 -2.1294063e-06
-2.970079e-06 7.532133e-07 4.478148e-07 -1.1022371e-06 1.7331074e-06 -2.7756363e-07 2.1955525e-06 2.2186661e-07
1.8507943 0.30477285 -0.564582 -1.1729842 3.1502932e-05 4.5812208e-06 -3.4249955e-05 -2.3826724e-05
-2.559483e-06 -1.4894499e-07 -3.072905e-07 -8.839524e-07 -1.7762788e-05 -3.3139117e-06 -4.9121354e-06 -1.6472302e-06
8.555762e-06 4.9535074e-06 -1.188207e-05 -8.815219e-06 2.934507e-06 3.7269635e-07 4.837723e-07 1.2177605e-06
7.349063e-07 -1.6216259e-07 1.4001804e-06 2.7782602e-07 4.221213e-07 -3.456653e-08 1.1344838e-06 8.087559e-07
-0.6302512 -0.22250436 1.0939403 -0.08779635 -0.44364595 0.79952586 1.0529779 0.6043316
-1.6146935e-06 -5.6345797e-08 -7.779033e-07 -2.5636579e-08 9.985523e-07 3.1586177e-07 2.1892654e-06 2.2520298e-06
1.1549888e-05 4.5073443e-06 -4.399261e-06 -4.320634e-06 -4.230342e-06 -1.6006144e-06 6.2518484e-06 1.4771418e-06
1.04789415e-05 5.2280475e-06 1.8111493e-06 -1.1072079e-05 1.7720018e-05 1.066288e-05 -0.000119731325 -3.696234e-05
5.3258236e-06 -3.5130864e-07 3.933277e-06 2.2179152e-06 7.305353e-05 1.3930677e-06 -4.1587627e-05 -2.0613255e-05
-1.1709036e-06 -4.6066214e-07 2.8254963e-06 1.6191236e-06 -5.221319e-05 -7.7515215e-06 -1.647856e-05 -4.7199726e-05
-0.07959136 -0.011921342 0.11712525 0.076619506 2.1152133e-05 4.012244e-06 -3.8550497e-05 -1.4970664e-05
-5.577675e-06 4.462603e-06 1.4326718e-06 2.2457525e-05 -4.4920802e-07 1.9247085e-07 -9.710597e-08 -2.5011386e-07
-2.6520856e-06 -1.0124112e-06 -2.4024794e-06 -2.5208697e-06 8.4930605e-07 -1.0778867e-07 -5.1562156e-06 -5.289323e-06
1.6597228e-06 9.952014e-07 -3.4934246e-06 -1.6147076e-06 8.591981e-06 2.3832901e-07 -7.678557e-08 2.8342416e-07
1.5568083e-05 1.4255941e-06 3.0509584e-05 7.267546e-06 7.0062506e-06 -2.3945458e-06 1.9420224e-05 1.1568676e-05
6.8673506e-07 -1.9219654e-07 -6.004544e-07 -2.576758e-06 -7.6438033e-07 -2.2046697e-07 -2.0408881e-06 -1.6716131e-06
-5.2435304e-08 -5.5552032e-08 1.8311553e-07 -2.6153344e-07 -7.9394395e-06 7.1379577e-07 -4.118624e-06 -3.5258429e-06
-3.5448287e-05 9.833651e-07 3.7883528e-06 -2.1505894e-06 -1.85797e-06 -9.998207e-08 -7.7474334e-07 -3.3186973e-07
-1.5376594e-06 3.1569755e-06 -1.6371512e-05 -1.1749041e-05 2.6143948e-06 -4.859868e-08 4.6202106e-07 1.4051603e-06
-2.174439e-06 2.1238204e-06 -1.4323204e-05 -4.400923e-06 2.8552415e-06 7.4748965e-07 -2.8775607e-06 -3.4625264e-06
-1.0173167e-06 -2.9731683e-07 1.563427e-06 3.533639e-07 -2.1940381e-05 -9.9934e-07 0.000105253355 1.50766355e-05
8.835789e-06 -2.3290263e-06 3.269336e-06 3.843503e-06 -1.0833749e-06 3.146498e-08 1.1167895e-06 8.608021e-07
00000000: de42 d93d 323a eb3f 5743 00bf 007e 893e
00000010: d66c 1d35 7818 bdb4 d0a3 b834 f6fa e335
00000020: 1c82 a535 c9af a4b4 be17 0c36 c4bb 6335
00000030: e937 3336 99c1 1035 212f 95b5 75d0 47b5
00000040: 2f9a 0236 2141 d3b5 67e4 d436 9ab1 1537
00000050: f64c c936 de3d fa37 e644 76b9 ed02 afb8
00000060: 91cf 1636 e9a8 c8b3 89fb b635 96fd 9a35
00000070: b22a 6535 9058 f7b4 8e68 6535 1ae5 9435
00000080: e1e4 8d35 e053 1134 21fa fcb4 adf7 3a35
00000090: b0d3 df36 b023 df34 219a 8ab6 47fc e3b6
000000a0: 6744 1f3f 090d b7be ace7 5fbf 5215 2b3f
000000b0: 4492 fe3e fbd2 683d 6ba2 613c b716 f3bd
000000c0: 7040 d035 fc5f 2a34 e839 a0b4 2eec 5135
000000d0: 5a6d ef35 26b9 22b2 f4a9 a235 a6f1 8134
000000e0: aaa5 c7b4 805e 9135 44d4 61b6 f18b bbb5
000000f0: 780a c7b9 7b52 cdb8 8177 0c3a 1e40 8c39
00000100: df6f 8936 d17f 3ab3 7167 dc34 318f 2435
00000110: 673c 55b6 dbe8 2135 4bf1 95b6 ece6 0eb6
00000120: 9251 47b6 6d30 4a35 336b f034 94f0 93b5
00000130: 1e9d e835 0e04 95b4 4e57 1336 3b3a 6e34
00000140: d4e6 ec3f 300b 9c3e 7288 10bf 5924 96bf
00000150: 0422 0438 63b8 9936 9ca7 0fb8 80df c7b7
00000160: 95c3 2bb6 b0ed 1fb4 aff9 a4b4 bf48 6db5
00000170: 4c01 95b7 9264 5eb6 ecd2 a4b6 6616 ddb5
00000180: b88a 0f37 4e36 a636 1a59 47b7 14e5 13b7
00000190: 72ee 4436 ff16 c834 94dc 0135 ef71 a335
000001a0: 6046 4535 ea1e 2eb4 d5ed bb35 1e28 9534
000001b0: e99f e234 4d76 14b3 9144 9835 4819 5935
000001c0: 2558 21bf 2fd8 63be 3c06 8c3f 93ce b3bd
000001d0: 9025 e3be baad 4c3f fbc7 863f 7ab5 1a3f
000001e0: 72b8 d8b5 dc00 72b3 1cd1 50b5 6f37 dcb2
000001f0: ff05 8635 b693 a934 4beb 1236 9421 1736
00000200: 64c6 4137 cb3d 9736 5d9d 93b6 f7f9 90b6
00000210: 5cf2 8db6 b1d4 d6b5 f8c6 d136 3542 c635
00000220: b6ce 2f37 966c af36 9e16 f335 38c2 39b7
00000230: 73a5 9437 b9e4 3237 4418 fbb8 0308 1bb8
00000240: 7ab4 b236 7e9b bcb4 98fa 8336 7ed7 1436
00000250: 5134 9938 71f9 ba35 606e 2eb8 a1ea acb7
00000260: f127 9db5 ec50 f7b4 a89d 3d36 aa50 d935
00000270: 7cff 5ab8 880c 02b7 703b 8ab7 52f8 45b8
00000280: cc00 a3bd bc51 43bc 5ddf ef3d b0ea 9c3d
00000290: dc6f b137 eaa0 8636 48b1 21b8 832a 7bb7
000002a0: dd27 bbb6 78bd 9536 3a4a c035 2b63 bc37
000002b0: ae2a f1b4 fca9 4e34 9288 d0b3 6347 86b4
000002c0: 7cfa 31b6 2fe2 87b5 483a 21b6 362c 29b6
000002d0: defb 6335 7379 e7b3 8e03 adb6 f07a b1b6
000002e0: a4c3 de35 dc92 8535 9470 6ab6 eeb8 d8b5
000002f0: 4726 1037 61e7 7f34 50e5 a4b3 8529 9834
00000300: 3498 8237 0a57 bf35 d5ee ff37 bfdb f336
00000310: 3c17 eb36 fcb1 20b6 9de8 a237 1617 4237
00000320: 1358 3835 955e 4eb4 ea2e 21b5 5eec 2cb6
00000330: d12f 4db5 80b9 6cb4 31f6 08b6 305c e0b5
00000340: 3a35 61b3 1b98 6eb3 6a9e 4434 e268 8cb4
00000350: a233 05b7 ac9b 3f35 b632 8ab6 859d 6cb6
00000360: 4fae 14b8 2bfc 8335 683b 7e36 d852 10b6
00000370: 5d5f f9b5 b9b5 d6b3 f5f7 4fb5 d42b b2b4
00000380: 9361 ceb5 6ddc 5336 8e55 89b7 bf1d 45b7
00000390: f672 2f36 d0ba 50b3 b10b f834 f198 bc35
000003a0: 94ec 11b6 f586 0e36 b14d 70b7 a4ab 93b6
000003b0: ad9c 3f36 19a7 4835 1e1c 41b6 c05d 68b6
000003c0: bc8a 88b5 ea9e 9fb4 f1d6 d135 f7b5 bd34
000003d0: 9c0c b8b7 1021 86b5 77bb dc38 a8f1 7c37
000003e0: 6d3d 1437 5e4c 1cb6 c466 5b36 70f7 8036
000003f0: 7a68 91b5 1d24 0733 98e4 9535 df11 6735

bias f4 [400]
0.20773101 2.0012259e-07 2.7518865e-07 -3.5494884e-07 2.4357523e-06 -3.0357642e-05 2.1694017e-07 5.189572e-08
3.067685e-08 -1.6084523e-06 -0.004537818 -0.043816213 1.0384461e-08 5.055728e-08 -5.6288116e-07 0.000100089856
7.2420114e-08 -6.648851e-07 -4.4676757e-08 1.2819504e-07 -0.27860588 -7.422853e-06 4.985845e-08 3.845496e-07
-2.2538106e-06 1.07809655e-07 1.5301514e-07 2.2563947e-07 0.1270299 0.25571132 -4.9368435e-08 3.605012e-07
-1.6688753e-06 8.7198924e-07 -2.268444e-06 -1.3076483e-05 4.1377672e-07 -1.0895253e-05 4.6627036e-07 -8.825615e-06
0.024799133 -5.4967118e-06 1.1290683e-06 -1.2310052e-08 -1.1274764e-06 -1.0976255e-06 -6.509134e-07 -4.1151435e-07
1.9756849e-06 3.2800249e-06 -3.79796e-07 -2.7929207e-07 -2.6750469e-08 -1.9154571e-07 1.3894823e-06 -5.6340447e-08
-2.698934e-06 1.3500383e-07 -1.4965015e-06 -9.422787e-07 2.0006667e-07 6.8482686e-06 3.3500226e-07 2.8704915e-07
-3.6941105e-06 -0.053365577 1.0087675e-06 1.6634047e-07 -2.4883214e-08 2.1780679e-08 -4.977336e-09 2.2146403e-07
3.120254e-06 -2.40744e-07 -3.5294596e-07 2.0618242e-07 -2.9556278e-07 -1.2630612e-06 -2.134042e-06 -8.951522e-08
4.2848177e-07 5.3119043e-06 0.052226204 -1.8709953e-06 1.9364143e-05 -2.4176165e-08 -4.9378702e-08 0.20487913
3.4529307e-08 2.3693678e-07 2.761707e-05 0.083649926 2.1219677e-07 5.583315e-07 -9.899611e-07 0.046299126
6.027197e-07 4.343492e-05 5.60179e-08 -0.123486504 -7.6133927e-07 -2.1932954e-07 -1.8200708e-08 -3.4886588e-07
1.5314858e-07 1.5835622e-07 7.480902e-07 1.651786e-07 1.1468188e-07 3.385447e-07 6.6812663e-07 4.2239483e-07
4.7701345e-08 0.08092081 2.3271303e-07 4.364987e-06 -0.12252128 -1.3922561e-08 2.0215164e-06 6.654315e-08
4.1812477e-06 -8.8292424e-08 -8.0021735e-08 -2.8966193e-07 4.3528956e-07 1.8317085e-07 -0.13514969 -1.8281275e-08
-8.018789e-07 1.7732393e-07 4.4279952e-07 -2.8522874e-05 0.056210056 -7.161711e-08 6.404821e-07 1.846589e-05
9.719193e-06 3.4564235e-07 7.3247165e-06 -1.4050786e-06 1.160921e-06 -1.5194613e-07 -2.3003633e-06 1.1851923e-06
4.120069e-07 2.8806244e-07 6.029603e-06 9.1540315e-08 4.4583598e-07 -5.1480123e-07 7.92721e-09 -2.300848e-05
-2.5699467e-07 4.430688e-07 0.18162805 2.9783118e-07 3.2925854e-08 -1.304602e-07 1.1351466e-07 5.6949716e-07
2.8395934e-07 -3.303271e-07 9.590878e-06 3.839887e-06 -3.0031165e-07 -1.278849e-07 8.845093e-08 -4.2735655e-07
6.670803e-07 8.513927e-06 -1.3714843e-05 -8.247681e-07 1.4824862e-07 1.4521541e-07 -6.057912e-08 -5.3619397e-06
-3.4278816e-07 -1.1431888e-06 -4.1778168e-07 -6.531865e-07 3.5467647e-06 6.228141e-07 -0.19846915 -2.4804388e-07
-2.7839262e-06 -5.478113e-07 1.4259355e-07 4.6602835e-07 0.16493548 0.048260096 -1.0576332e-07 1.6698691e-06
-7.3784463e-09 1.4321871e-05 6.1498935e-07 -8.623895e-07 3.3881e-07 -2.5001061e-06 8.997057e-08 -1.1692974e-07
1.9052003e-08 7.029496e-08 1.6667076e-07 1.6330073e-07 -1.5132543e-05 -0.007800692 1.5049982e-06 1.019268e-06
-5.168019e-07 1.4423138e-07 -4.411324e-06 8.6311013e-07 0.014812497 0.12278161 -8.1347787e-07 -1.6391503e-08
-3.893959e-08 3.7441527e-08 4.0232476e-07 1.2399626e-07 1.5567043e-07 1.4807847e-07 6.789983e-08 9.788931e-08
-2.4578506e-07 1.4196927e-07 6.896856e-08 -6.1828578e-06 -0.26323614 4.1412773e-06 1.7402178e-07 -2.8407212e-07
6.7184715e-08 -8.0153896e-08 1.8737105e-06 8.675139e-08 -4.8825905e-06 -6.887798e-07 5.420896e-06 -5.1199102e-08
-8.3845714e-07 -1.2389987e-07 -1.2644334e-07 -2.4036374e-06 1.5637297e-06 -7.9159065e-07 1.4134218e-06 -9.125358e-07
0.0074623083 5.144157e-07 1.8791849e-07 -8.505477e-08 4.174325e-07 -1.15681384e-08 2.7870856e-06 -1.977059e-07
00000000: 70b7 543e 47e1 5634 a4bd 9334 cc8f beb4
00000010: e875 2336 8aa8 feb7 0ff0 6834 f3e3 5e33
00000020: 8ec1 0333 00e2 d7b5 fab1 94bb a178 33bd
00000030: 5867 3232 5124 5933 e618 17b5 55e7 d138
00000040: 6185 9b33 8e7a 32b5 9de2 3fb3 fca5 0934
00000050: 6ea5 8ebe d211 f9b6 f223 5633 1874 ce34
00000060: 2c40 17b6 fc84 e733 7b4c 2434 4e47 7234
00000070: 2014 023e 98ec 823e 2b09 54b3 e88a c134
00000080: 1efe dfb5 a512 6a35 923b 18b6 1163 5bb7
00000090: 0a25 de34 c1ca 36b7 b653 fa34 ba11 14b7
000000a0: 8d27 cb3c 6570 b8b6 7e8a 9735 2e7c 53b2
000000b0: cb53 97b5 2052 93b5 6eba 2eb5 1aee dcb4
000000c0: 0296 0436 661e 5c36 c4e6 cbb4 9cf1 95b4
000000d0: e7c8 e5b2 afab 4db4 407e ba35 fafa 71b3
000000e0: 551f 35b6 92f5 1034 66db c8b5 e6f0 7cb5
000000f0: e8d1 5634 2eca e536 5cda b334 bc1b 9a34
00000100: 56e8 77b6 dd95 5abd fd64 8735 529b 3234
00000110: c4be d5b2 3818 bb32 1c05 abb1 92cb 6d34
00000120: 8e65 5136 9a3f 81b4 867c bdb4 fe62 5d34
00000130: d7ad 9eb4 7486 a9b5 9036 0fb6 833b c0b3
00000140: 160a e634 e93c b236 25eb 553d e91e fbb5
00000150: 2e70 a237 f3ab cfb2 7514 54b3 d6cb 513e
00000160: 604d 1433 b068 7e34 35ab e737 a750 ab3d
00000170: 34d8 6334 40e0 1535 cede 84b5 27a4 3d3d
00000180: 95ca 2135 e42d 3638 5598 7033 7ee6 fcbd
00000190: d65e 4cb5 d880 6bb4 c857 9cb2 c34b bbb4
000001a0: 2971 2434 a008 2a34 5ed0 4835 f35b 3134
000001b0: 0847 f633 3bc1 b534 5059 3335 81c5 e234
000001c0: 2fe0 4c33 cfb9 a53d acdf 7934 f476 9236
000001d0: 70ec fabd 1230 6fb2 63a9 0736 7ce6 8e33
000001e0: a54c 8c36 469b bdb3 6ad8 abb3 d582 9bb4
000001f0: beb1 e934 9fad 4434 ae64 0abe f308 9db2
00000200: b340 57b5 6e66 3e34 e7b9 ed34 6844 efb7
00000210: 843c 663d eccb 99b3 98ed 2b35 32e7 9a37
00000220: 9e0f 2337 b990 b934 d6c6 f536 2296 bcb5
00000230: f1d0 9b35 a226 23b4 f15f 1ab6 e612 9f35
00000240: cc31 dd34 00a7 9a34 e551 ca36 d294 c433
00000250: 3b5b ef34 df30 0ab5 3d30 0832 5602 c1b7
00000260: 14f9 89b4 eade ed34 b4fc 393e 9be5 9f34
00000270: 5c6a 0d33 a014 0cb4 58c5 f333 8cdf 1835
00000280: 1373 9834 d057 b1b4 82e8 2037 61d8 8036
00000290: 853a a1b4 bc50 09b4 6af2 bd33 706f e5b4
000002a0: 6911 3335 0ad7 0e37 cd18 66b7 a265 5db5
000002b0: 452e 1f34 82ec 1b34 b917 82b3 b6ea b3b6
000002c0: 7208 b8b4 ab6f 99b5 7a4b e0b4 a256 2fb5
000002d0: f404 6e36 762f 2735 7f3b 4bbe e42a 85b4
000002e0: 7dd3 3ab6 4e0d 13b5 d11b 1934 7332 fa34
000002f0: d9e4 283e 61ac 453d 0020 e3b3 4420 e035
00000300: 8085 fdb1 f847 7037 bf15 2535 f57e 67b5
00000310: b1e5 b534 7fc7 27b6 d835 c133 ce1a fbb3
00000320: cca7 a332 10f5 9633 1cf6 3234 c357 2f34
00000330: c7e1 7db7 f39c ffbb 58ff c935 c8cd 8835
00000340: 5bba 0ab5 05de 1a34 fc04 94b6 7ab0 6735
00000350: 1eb0 723c ed74 fb3d c65d 5ab5 4ccd 8cb2
00000360: 883e 27b3 65cf 2033 18ff d734 d523 0534
00000370: 5d26 2734 80ff 1e34 54d0 9133 3837 d233
00000380: 71f4 83b4 3770 1834 de1b 9433 5876 cfb6
00000390: e3c6 86be 4df5 8a36 beda 3a34 9382 98b4
000003a0: 3047 9033 1221 acb3 347c fb35 154c ba33
000003b0: 22d5 a3b6 96e4 38b5 24e5 b536 02e6 5bb3
000003c0: 5612 61b5 5609 05b4 7bc4 07b4 2d4e 21b6
000003d0: 58e1 d135 b27d 54b5 ceb4 bd35 fcf4 74b5
000003e0: 6186 f43b 6116 0a35 a4c6 4934 5ba7 b6b3
000003f0: 7c1b e034 36bd 46b2 c409 3b36 fc48 54b4

weight f4 [192, 400]
-0.022548504 9.757071e-06 -2.3469525e-05 -1.827576e-05 0.00035144764 -6.8918605e-05 -1.1832451e-05 -2.9477338e-05
2.1161777e-05 -8.364307e-05 -0.6679089 0.039004337 -6.2154584e-07 -1.8527926e-05 2.0447658e-05 0.0004815081
7.2139555e-06 -6.0824927e-06 -6.2879684e-05 3.0155334e-06 -0.3384425 -9.794416e-05 -6.6687003e-06 7.808066e-05
0.00014862382 1.122202e-05 -1.3641854e-05 2.8424569e-05 -0.22842331 -0.17744635 -1.3346181e-06 2.1878906e-05
3.2312866e-05 -1.8866307e-05 -5.8627502e-05 0.00068295974 -2.2730463e-05 -0.00031319825 -6.440418e-06 -0.0009880663
0.072027735 0.00021324019 -1.8209035e-05 -2.695794e-06 -0.00026601448 -4.831978e-05 2.014859e-06 -2.9805826e-05
-0.0001676238 2.6695641e-05 -2.524005e-05 2.4291776e-05 1.0106686e-06 3.5100642e-05 -0.00010295231 1.3670733e-05
-0.00013274704 -3.4741526e-05 -1.1512596e-05 -2.776686e-06 -1.1129579e-05 -0.0011244984 1.7500102e-05 6.5642803e-06
-9.289517e-05 0.020824606 -0.0001365168 -3.571544e-05 -1.8791633e-06 6.515093e-06 -2.6380446e-06 -4.2778523e-05
0.0014958626 1.6291113e-05 2.5155376e-05 2.3295192e-05 -3.979304e-06 -5.624674e-06 0.00021195244 4.746309e-06
-3.9032166e-05 -0.00041218498 -0.1420107 7.051142e-05 -7.097423e-05 4.6439586e-06 -5.3449576e-06 0.018058307
-1.0084456e-05 0.00014055378 0.0018025939 -0.6678599 8.604598e-06 1.5766365e-05 0.00022802358 0.11406784
-0.000103979924 -0.003081073 3.3205855e-05 0.21065386 8.454312e-05 -1.3506296e-05 2.1387455e-06 2.4495434e-05
-6.8098293e-06 -7.34938e-06 2.4924968e-05 1.7741547e-06 -1.201889e-05 -1.5341013e-05 -0.00016732597 9.019638e-06
-2.3081284e-05 -0.0007809328 -2.6959238e-05 -0.0002513618 0.30622545 -6.57889e-06 8.022968e-06 3.0001224e-06
0.00043242495 4.4277213e-06 -2.0435844e-05 -7.939647e-06 -3.4325603e-06 -6.952749e-05 -0.358448 1.1329189e-05
5.7526977e-05 4.0067942e-05 3.8270904e-05 5.1966355e-05 0.39637762 3.9391853e-05 -3.8560076e-05 -0.00042083813
0.0012390157 1.5770847e-06 0.0006392837 6.109524e-06 1.3458011e-05 -2.3375712e-06 2.8299235e-06 -9.6450225e-05
6.8571717e-06 1.4971591e-05 0.00040503748 -1.258998e-05 -3.8862534e-05 -1.611341e-05 1.4967767e-06 -0.0004459688
-6.220532e-05 -2.385317e-06 -0.39607435 5.089542e-05 -1.8797688e-06 -0.00014443272 0.00041708458 3.6078178e-05
-6.0959028e-05 3.3661872e-05 0.00035887453 0.0002276902 -5.998022e-05 1.57819e-05 2.2214652e-05 1.5526934e-06
7.135027e-05 -0.0003565946 0.00215086 -6.544643e-05 5.1721217e-06 1.4251548e-05 -3.7162685e-05 0.00010929714
-6.4366934e-05 8.809399e-06 -7.052033e-06 5.2707484e-05 -0.0008614314 0.00021053922 0.42031035 -8.575919e-06
0.00028820374 -1.864212e-05 -4.879915e-05 3.34659e-05 0.068917476 -0.3943813 2.5264077e-05 5.8037995e-06
0.00038540043 -0.0009846509 -1.8860324e-05 0.0002129045 0.00034249658 -0.0002201601 -9.483651e-05 -3.753388e-05
6.140001e-05 -3.6973983e-05 -4.049175e-06 -1.612834e-06 0.0011854622 -0.013586184 -0.000492689 -9.535142e-06
-1.0593686e-05 -1.9416146e-05 -0.00035787898 2.4873354e-05 -0.054787282 -0.46770683 -2.2261609e-05 2.682035e-06
-5.8244077e-05 -2.3304406e-06 2.2549893e-05 5.1619387e-05 6.5820794e-05 4.451551e-05 -6.761136e-05 -2.2784778e-05
1.5033364e-05 -1.6145295e-05 -1.2220371e-05 0.00050577894 0.20418206 0.00069827767 1.05482095e-05 -7.5144904e-05
-9.282046e-06 1.4087679e-05 8.925608e-05 6.260973e-06 7.385976e-05 -2.169773e-06 4.5456244e-07 -2.0843885e-05
3.6843503e-05 4.834647e-06 2.2819013e-05 -0.00019661721 0.00018642802 7.366608e-05 3.8564307e-05 2.8400813e-05
0.095472276 1.6442124e-05 4.911804e-06 1.8754183e-05 0.0001435035 -6.968363e-06 -0.00021811025 1.8869254e-06
00000000: a4b7 b8bc 4db2 2337 6ce0 c4b7 e54e 99b7
00000010: 8142 b839 6588 90b8 fd83 46b7 1a46 f7b7
00000020: 9284 b137 8869 afb8 14fc 2abf 03c3 1f3d
00000030: 4ed8 26b5 6b6c 9bb7 0387 ab37 ec72 fc39
00000040: 680f f236 3718 ccb6 46de 83b8 785e 4a36
00000050: 5648 adbe 5f67 cdb8 b3c3 dfb6 3cbf a338
00000060: e7d7 1b39 3546 3c37 51df 64b7 4c71 ee37
00000070: cde7 69be 7fb4 35be 2121 b3b5 9888 b737
00000080: ad87 0738 1643 9eb7 cde6 75b8 a708 333a
00000090: 4cad beb7 c234 a4b9 c51a d8b6 0182 81ba
000000a0: 4783 933d 3a99 5f39 9bbf 98b7 63e9 34b6
000000b0: dc77 8bb9 f8aa 4ab8 0437 0736 8607 fab7
000000c0: 2cc4 2fb9 74f0 df37 98ba d3b7 31c6 cb37
000000d0: 4fa6 8735 0739 1338 1ae8 d7b8 5a5b 6537
000000e0: 0332 0bb9 6eb7 11b8 3926 41b7 1a57 3ab6
000000f0: 2eb9 3ab7 e863 93ba 2fcd 9237 bd42 dc36
00000100: b7d0 c2b8 5d98 aa3c f325 0fb9 29cd 15b8
00000110: 8f37 fcb5 399c da36 4309 31b6 176d 33b8
00000120: d210 c43a e6a8 8837 c204 d337 0b6a c337
00000130: f685 85b6 95bb bcb6 8d3f 5e39 7c42 9f36
00000140: 78b6 23b8 881a d8b9 416b 11be 88df 9338
00000150: 00d8 94b8 4dd3 9b36 d658 b3b6 04ef 933c
00000160: 6930 29b7 9e61 1339 0445 ec3a def8 2abf
00000170: 785c 1037 0342 8437 9d19 6f39 669c e93d
00000180: cc0f dab8 d4eb 49bb 8446 0b38 a5b5 573e
00000190: be4c b138 1a99 62b7 5e87 0f36 8b7b cd37
000001a0: fd7f e4b6 b29a f6b6 f615 d137 7e1f ee35
000001b0: bda4 49b7 93b0 80b7 3974 2fb9 0d53 1737
000001c0: ae9e c1b7 83b7 4cba 8626 e2b7 36c9 83b9
000001d0: 95c9 9c3e 3cc0 dcb6 639a 0637 b655 4936
000001e0: 18b7 e239 d691 9436 a46d abb7 8634 05b7
000001f0: f05a 66b6 49cf 91b8 7f86 b7be 7f12 3e37
00000200: 1f49 7138 a00e 2838 1285 2038 73f6 5938
00000210: 02f2 ca3e ae38 2538 91bb 21b8 f0a3 dcb9
00000220: 7866 a23a 38ac d335 9a95 273a 6900 cd36
00000230: b8c9 6137 2bdf 1cb6 b7e9 3d36 5245 cab8
00000240: a816 e636 7e2e 7b37 365b d439 8d39 53b7
00000250: 5400 23b8 492b 87b7 dbe4 c835 ebd0 e9b9
00000260: 3a74 82b8 6f13 20b6 42ca cabe 8b78 5538
00000270: 5d4c fcb5 dd72 17b9 25ac da39 a652 1738
00000280: 42ae 7fb8 2930 0d38 5327 bc39 1fc0 6e39
00000290: 4593 7bb8 5f63 8437 9a59 ba37 2466 d035
000002a0: e2a1 9538 51f5 bab9 71f5 0c3b 4940 89b8
000002b0: 308c ad36 ef19 6f37 21df 1bb8 7536 e538
000002c0: bcfc 86b8 15cc 1337 81a0 ecb6 3b12 5d38
000002d0: afd1 61ba 31c4 5c39 eb32 d73e 4be1 0fb7
000002e0: 0d1a 9739 a661 9cb7 b0ad 4cb8 bd5d 0c38
000002f0: 9b24 8d3d 59ec c9be 31ee d337 42be c236
00000300: 920f ca39 670f 81ba 3d36 9eb7 1e3f 5f39
00000310: 1d91 b339 c7da 66b9 f7e2 c6b8 b26d 1db8
00000320: e1c3 8038 8314 1bb8 26de 87b6 8e78 d8b5
00000330: 8361 9b3a 9698 5ebc cd27 01ba 20f9 1fb7
00000340: 89bb 31b7 dbdf a2b7 b4a1 bbb9 1fa7 d037
00000350: a168 60bd 4577 efbe 71be bab7 03fd 3336
00000360: 1a4b 74b8 aa64 1cb6 8729 bd37 e581 5838
00000370: 4509 8a38 2ab6 3a38 93ca 8db8 f021 bfb7
00000380: cf37 7c37 c26f 87b7 1806 4db7 4096 043a
00000390: 1a15 513e 9f0c 373a 37f8 3037 1d97 9db8
000003a0: 16ba 1bb7 1f5a 6c37 fe2e bb38 5915 d236
000003b0: 28e5 9a38 6b9c 11b6 960a f434 e7d9 aeb7
000003c0: 6988 1a38 4d39 a236 756b bf37 082b 4eb9
000003d0: e47b 4339 2d7d 9a38 1cc0 2138 483e ee37
000003e0: f886 c33d 31ed 8937 13d0 a436 4d52 9d37
000003f0: 6d79 1639 c8d1 e9b6 86b4 64b9 4342 fd35

bias f4 [192]
0.232605 0.0124707725 0.03161801 0.32167748 0.0038411699 -0.004740222 0.011923174 0.064056054
-0.02525743 -0.013261585 0.019193556 0.14004062 0.42059144 0.0023365591 0.009209126 0.056978606
0.0017508438 -0.0015296807 -0.00048279358 0.022433015 0.003533677 4.90822e-05 -0.0005365684 0.25139362
0.00012578018 0.07183168 -0.020744778 -0.0031799858 -0.0007282041 -0.14279845 0.02625988 -0.006197571
0.010336532 -0.0049411105 -0.012038115 0.0005349459 0.009424 0.017810667 0.21606919 -0.002839236
0.13897626 -0.04295554 0.0018762184 0.009528793 -0.005865981 0.25213963 -0.0012707527 0.0043909056
0.41878077 -0.0046497476 0.004631321 0.050114613 0.007670429 -0.002324741 0.0014816796 -0.035570383
-0.045618307 -6.855207e-05 0.051713724 0.25402665 0.054374132 0.004361221 -0.0022703388 0.05336949
0.00080585363 -0.0017315142 0.007978882 0.003623309 -0.006013521 -0.0033846535 0.0020800135 0.048459478
0.0024768068 -0.0067653055 -0.007878074 0.0052137254 -0.028005632 0.012448928 0.0063931528 -0.0041600913
0.00045416577 -0.0054250355 -5.3696705e-05 0.0015981946 -0.0019326223 0.0064862156 0.030605096 -0.001441376
-0.025588628 -0.041853935 0.004281717 0.0020410293 0.0014279452 0.049370784 0.000941854 -0.000277969
-0.004566156 -0.0024061757 -0.008261675 0.004665192 0.029598394 0.023618165 -0.010428339 -0.0021807046
4.8582042e-05 -0.009204436 0.0025573194 -0.003096584 0.0037596286 0.032525536 0.02182179 0.0004604908
0.0033424378 -0.06943594 -0.03047227 -0.004488294 0.0057748053 0.014005785 -0.006210781 0.0055702073
-0.04565048 -0.0025886376 -0.0032706265 0.002512323 -0.003819661 0.0051878146 -0.005489992 0.08991658
-0.0027047088 0.0008452922 0.022875652 0.09531442 -0.05606438 0.0010870554 -0.00042190388 -0.0011184877
-0.0081770625 0.00677724 -0.0003402588 -0.025493512 -0.005171658 -0.00045407703 -0.018029138 -0.018503528
0.0051522474 0.00820763 0.015054011 -0.0015294014 -0.024456048 -0.061354667 0.009372309 -0.0034056266
0.004578423 0.027930658 -0.004334261 0.007327961 -0.0009069518 -0.019283898 -0.053549938 -0.0006329204
0.066242225 -0.008365282 -0.009786673 0.0026379328 -0.0065005426 -0.039351266 0.0059781894 0.0007877241
0.046660136 0.0025060966 0.0020324208 0.00914742 0.0044214483 -0.0029287953 0.0021367394 -0.0010935214
0.011088098 0.00045289338 -0.007498521 0.030340677 0.24920492 -0.002650811 0.0054039555 0.042976968
0.0011653417 0.00017468109 -0.0016312887 0.107300445 -0.033240825 0.00068165007 0.015684977 0.2597305
00000000: 0130 6e3e 3652 4c3c e381 013d e9b2 a43e
00000010: 23bc 7b3b dd53 9bbb 6b59 433c d22f 833d
00000020: abe8 cebc 1e47 59bc ce3b 9d3c cf66 0f3e
00000030: c357 d73e f520 193b e0e1 163c 6662 693d
00000040: 927c e53a 917f c8ba 751f fdb9 71c5 b73c
00000050: 4395 673b 9cdd 4d38 7fa8 0cba aab6 803e
00000060: dce3 0339 7d1c 933d f4f0 a9bc 4f67 50bb
00000070: f3e4 3eba c239 12be f61e d73c fe14 cbbb
00000080: 8f5a 293c 0ae9 a1bb 843b 45bc 9d3b 0c3a
00000090: 1f67 1a3c ade7 913c 3e41 5d3e 7a12 3abb
000000a0: cb4f 0e3e 26f2 2fbd 71eb f53a a81e 1c3c
000000b0: 6a37 c0bb 7218 813e 638f a6ba 96e1 8f3b
000000c0: 6f6a d63e e95c 98bb 56c2 973b fb44 4d3d
000000d0: 3958 fb3b af5a 18bb eb34 c23a 40b2 11bd
000000e0: 43da 3abd 9dc3 8fb8 c5d1 533d c80f 823e
000000f0: 69b7 5e3d 93e8 8e3b f7c9 14bb f799 5a3d
00000100: ec3f 533a faf3 e2ba dbb9 023c 0a75 6d3b
00000110: 120d c5bb 10d1 5dbb d650 083b 727d 463d
00000120: ec51 223b 7faf ddbb 0a13 01bc e6d7 aa3b
00000130: 116c e5bc 97f6 4b3c a77d d13b 6051 88bb
00000140: 191d ee39 7fc4 b1bb 6638 61b8 837a d13a
00000150: 0b50 fdba 528a d43b 8ab7 fa3c 8eec bcba
00000160: 3e9f d1bc 086f 2bbd a54d 8c3b cac2 053b
00000170: e429 bb3a 0539 4a3d c1e6 763a 5ebc 91b9
00000180: b19f 95bb eeb0 1dbb fa5b 07bc 78de 983b
00000190: 5578 f23c e27a c13c a0db 2abc 27ea 0ebb
000001a0: 92c4 4b38 34ce 16bc b398 273b 0ff0 4abb
000001b0: 1a64 763b 7f39 053d 9cc3 b23c 076e f139
000001c0: cd0c 5b3b 6e34 8ebd fba0 f9bc 8a12 93bb
000001d0: 943a bd3b 8578 653c cf83 cbbb 4986 b63b
000001e0: fffb 3abd 22a6 29bb 0258 56bb c9a5 243b
000001f0: 4753 7abb 8bfe a93b 64e5 b3bb 2f26 b83d
00000200: 7c41 31bb 9996 5d3a b865 bb3c 3534 c33d
00000210: c3a3 65bd 877b 8e3a fb32 ddb9 389a 92ba
00000220: 16f9 05bc 9c13 de3b c364 b2b9 c5d7 d0bc
00000230: 0377 a9bb 3011 eeb9 d8b1 93bc b694 97bc
00000240: 2fd4 a83b 4c79 063c 19a5 763c 3276 c8ba
00000250: 0d58 c8bc 084f 7bbd 508e 193c ef30 5fbb
00000260: 9906 963b d6ce e43c 6b06 8ebb 641f f03b
00000270: 81c0 6dba 44f9 9dbc 2e57 5bbd 92ea 25ba
00000280: 01aa 873d 890e 09bc 4858 20bc 2be1 2c3b
00000290: 8102 d5bb cb2e 21bd b0e4 c33b 457f 4e3a
000002a0: b31e 3f3d 533d 243b 5d32 053b 0fdf 153c
000002b0: cce1 903b 08f1 3fbb 8a08 0c3b 7d54 8fba
000002c0: dbaa 353c 5272 ed39 27b6 f5bb 038d f83c
000002d0: 932f 7f3e 3bb9 2dbb aa13 b13b 9e08 303d
000002e0: 61be 983a 992a 3739 f7d0 d5ba 56c0 db3d
000002f0: 8827 08bd c3b0 323a c87d 803c 65fb 843e
