data/results/random_unitary/L=20/obs_t=2.0/latent-10_epochs-50000.dat_final.net.pkl (torch_old, 160624 bytes, 8 tensors)

weight f4 [400, 36]
00000000: 5389 4ebf 5ec0 4e3e f256 6abe 671d 98be
00000010: 0987 01be ccfb 08bb 0cc4 e5be b76a ce3d
00000020: 187f c73e f0d9 af3e afee 163e c3bf f2bd
00000030: 2593 973e c984 02bf 81ab cf3e 9f58 5ebd
00000040: 4666 ee3e 3849 fabc 21b9 d8bd fef1 b3bc
00000050: b20a 453f 6506 59be 7d46 553e 3f84 8ebe
00000060: 5051 7a3e 8749 e43d 9a54 e83d 40e6 c43c
00000070: 7c05 193e 2d39 c4bd 87b7 9bbe e683 0d3d
00000080: 6e31 fabe 5b34 e03b 18cd e23d 8898 113d
00000090: 3b5e c63e dc1d b53d a226 c63e f24b ffbe
000000a0: 5c97 09bf f7b3 1dbe bfe8 dbbe b5a4 9b3d
000000b0: 6b46 8c3e b069 b53e 4b64 b8be cf64 64be
000000c0: 4dbb 54be 2758 b1be d59d ae3e ca39 7fbd
000000d0: bdab 2f3f 78b6 1cbe 87e4 b0bd 7ca1 09be
000000e0: ce73 57bd ca0e 55be 2a22 103f 8767 dd3e
000000f0: 56b5 99bd 9c5b 833d cff4 f93c 518b 433e
00000100: 341c c53e 573d 9fbd effb f43c 80e8 cd3c
00000110: 47a5 02bf 2394 6ebd 0d4c 0f3e 35c2 2bbe
00000120: 6443 83be 3eb2 863e b504 513e 37dc a13d
00000130: 4f20 a53e 8eeb 993e 6df4 cabd 74a1 c8bd
00000140: c824 0e3d 1797 10bf e606 8cbe e132 253d
00000150: bb2f 63be 00ee aa3e 73a4 95be b3da 653d
00000160: 2c71 c5be da7a ae3e df3e 033d 7351 963d
00000170: 16c9 ad3e cabf a13d 0a7e 243e 9d3a 973e
00000180: ed09 683c e9f3 44be aef3 a0bc ee4b 783b
00000190: 0b3e f2be 6c18 133e 4c3a 0ebe 6a9b 45bb
000001a0: 87fb 02be 1837 35bd eb49 65bd c30a 393c
000001b0: 60bb 18bd 2dcb 413d 8fef 88bb aff2 8abc
000001c0: d7e6 773c 9b9d 71bc 53ff 4dbb 22a5 d3bd
000001d0: dba8 c4bc 210a 8bbc a513 023c 6538 ba3c
000001e0: 5eea ba3b 18ef 67bb 7ba4 663c cc14 00b9
000001f0: 4e53 dc3b fa3a 103c 3053 df3d 34ff 263d
00000200: b9cc 67bc a222 f3bb bfdf 9e3a 0c2f 493d
00000210: 3a0f dc3d fecb 143c b0a8 1bbb 249f 30bb
00000220: 6903 e4bb f5bc fdbc 1d82 153b ecab e2bd
00000230: fc80 2fbc b3d3 04bb d816 2abc d506 833a
00000240: aa42 66bf a53c 13c0 2d21 72bf 0fa7 43bf
00000250: 6ef8 82bd 4928 acbe 267a b93e 686d 053d
00000260: 3cd1 95bf 2b30 09bf 0b23 aa3e c771 d4be
00000270: 0501 ba3e 8333 813f c80c a2bf c47a f53e
00000280: 3252 103e fab3 abbf baae c1bd 1481 2f3f
00000290: 8df3 e3be 32d2 2bbf f1f0 09c0 650c eb3e
000002a0: 39b1 b9bf 2cb5 eabf d783 9cbf 7038 f5bc
000002b0: ba80 14bf b7e7 01bf e42b ac3f bb51 b7bf
000002c0: 23a5 a7be 902d 5bbe 7e66 81bc 2f42 dbbf
000002d0: cba2 bf3f 4555 b7bd 2777 81bf 7094 c83f
000002e0: bf1f 92bf 433a 79bf 3a0a f53d 1e76 2b3f
000002f0: 8469 76be 2d97 733e ba65 97bf 03b0 3c3f
00000300: facd 44bf 4417 91bf 252a 50be 4e15 68bf
00000310: c4a2 28bf ce96 4e3e 50c4 1e3f 1024 803f
00000320: f289 963e 3bab c0be 9c84 963e ddfc e2bd
00000330: 03ea e7be 9cac 873f 0e1b 123e ee92 ebbe
00000340: 2448 8bbf e364 523f f813 9dbf 237f ddbe
00000350: 573a f73f 5bff 82bf 2edb 1cbe 4a2f ec3e
00000360: 9358 70bf c09e 89bf dd84 9f3f 1371 e8be
00000370: 875e 96bd 73d6 743f d21a e93d 98f5 e63d
00000380: 2359 fd3e 7757 65bf c384 583f c82f 703e
00000390: 130c 08bf 88c5 ea3e cfbb 9a3e 5ccd 05bf
000003a0: 8913 a2bd 1a09 793f 54a5 973e 4512 103f
000003b0: 0447 8b3f 3679 36bf d011 913e ab42 8c3f
000003c0: df5a bc3e 694f 24bf 9c06 fa3e 1acb 84be
000003d0: 7fb1 513f 4e88 093f 5dea 9ebd 513e e43e
000003e0: b8e3 a33f 0f6f 2b3e b8de 3abe dfc8 0e3e
000003f0: 2d7a 5c3c e694 94bc 3b11 813c b25d 1c3c
-0.8067829 0.2019057 -0.2288473 -0.29709932 -0.12649168 -0.0020902036 -0.44876134 0.10078948
0.38964152 0.3434596 0.14739488 -0.11852982 0.2960445 -0.50983864 0.40560535 -0.054283734
0.46562403 -0.030552492 -0.105821855 -0.021965977 0.76969445 -0.21193846 0.2082767 -0.2783527
0.24445081 0.11146837 0.113442615 0.024035573 0.14943498 -0.09581218 -0.30413458 0.034549616
-0.48865837 0.0068421788 0.11074275 0.035545856 0.38743767 0.08843586 0.3870135 -0.4986263
-0.5374658 -0.15400682 -0.4295101 0.07599775 0.27397475 0.35432196 -0.36014017 -0.2230408
-0.20774575 -0.34637567 0.3410479 -0.06231097 0.68621427 -0.15303981 -0.08637338 -0.13440508
-0.052600674 -0.20806423 0.5630213 0.43243048 -0.0750529 0.064139575 0.030512242 0.19096114
0.3849808 -0.077753715 0.029905288 0.025135279 -0.51033443 -0.058246743 0.13993855 -0.16773303
-0.25637352 0.26307863 0.20411952 0.07903331 0.32251212 0.30062526 -0.09909902 -0.0979642
0.034703046 -0.56480545 -0.27349013 0.040331725 -0.22186176 0.33384705 -0.29227027 0.05611677
-0.38562906 0.34078103 0.03204238 0.07339754 0.3394248 0.07897909 0.16063705 0.29536906
0.014162523 -0.1923367 -0.019647446 0.0037887054 -0.4731296 0.14364785 -0.13889426 -0.0030152448
-0.12791263 -0.044241995 -0.055978697 0.01129407 -0.03728807 0.047312904 -0.0041789482 -0.016961424
0.01513072 -0.014747049 -0.0031432703 -0.10334231 -0.024006298 -0.016972603 0.007939254 0.02273197
0.0057042083 -0.0035390314 0.014077301 -0.00012214779 0.006723798 0.008803124 0.10904539 0.040770724
-0.014147931 -0.0074199 0.0012121125 0.049117133 0.10745092 0.009081839 -0.0023751669 -0.0026950324
-0.0069584143 -0.03097389 0.002281315 -0.11067948 -0.010711905 -0.0020267784 -0.010381423 0.0009996543
-0.8994547 -2.3005764 -0.9458187 -0.76426786 -0.063950405 -0.33624485 0.36226004 0.03257504
-1.1704478 -0.53589123 0.3322986 -0.41493055 0.36328903 1.0093845 -1.266015 0.47945225
0.14093855 -1.34143 -0.094571546 0.6855633 -0.44521752 -0.6711761 -2.155331 0.45907894
-1.4507209 -1.8336539 -1.2227734 -0.029934138 -0.5800892 -0.50744194 1.3450894 -1.4321817
-0.32743177 -0.214041 -0.015795942 -1.7129573 1.4971555 -0.08951811 -1.0114487 1.56703
-1.1415938 -0.97354525 0.11964841 0.6697711 -0.24063689 0.23788138 -1.182792 0.7370607
-0.76876795 -1.1335225 -0.20328577 -0.9065751 -0.6587336 0.20174715 0.620183 1.0011005
0.2940212 -0.37630638 0.29398048 -0.11083386 -0.45295724 1.0599551 0.14268133 -0.46010536
-1.088139 0.8218519 -1.2271719 -0.4326106 1.9314679 -1.0234178 -0.15317985 0.4612983
-0.93885154 -1.0751572 1.2462422 -0.4539877 -0.073422484 0.95639724 0.11382069 0.11277312
0.49482068 -0.89586586 0.8457758 0.23455727 -0.53143424 0.4585383 0.30221412 -0.5226648
-0.07913882 0.9727951 0.29618323 0.5627788 1.0881047 -0.71278703 0.28333902 1.0957845
0.3678808 -0.6418367 0.48833168 -0.25936204 0.8191146 0.5372361 -0.07759545 0.44578794
1.2803869 0.16741584 -0.18249023 0.13943814 0.013456863 -0.018137407 0.015755286 0.009543823

bias f4 [400]
00000000: b79b 2c3c 37ca e73b d017 ec3a e37b df39
00000010: 3f1d 1fbe 39ce f33d 1deb 473e 0682 9237
00000020: 566e 0b3d 5d83 9db9 e0ef bb38 c4b4 97b9
00000030: c673 c7be 13c3 21ba 411b e1be 8fef 6e39
00000040: b3eb 9c3c 4d1d f43e 6ba0 6c3e 8761 6d38
00000050: bf39 46bb bcac b939 0fb2 03bb cb4a f7b9
00000060: d447 143d b637 203a 6b79 973b 44cf 363d
00000070: 357d bcb9 5494 673a 0c07 99b9 ffb7 7f3b
00000080: 7eba bc3c 3f29 abb9 4ae5 52bd 855a 4239
00000090: 1401 b83d 4d23 b6bc 66ee fabb 2fd0 093e
000000a0: 0508 3f3e a31b 12bb 6ae8 a2b8 5fa1 b439
000000b0: c0a1 5539 a20a 0139 59a7 ecbd 5409 50b9
000000c0: 44fd b1b9 9269 2f3a 138a bbb9 2459 06bb
000000d0: 5a1a 9bb9 36c2 c739 23e8 edb9 ff61 a53c
000000e0: 1687 abb8 64b7 c138 2af7 abb9 640f ba39
000000f0: e002 d3b9 0ce2 f339 6c4c 17b9 25de f638
00000100: 6de5 2ebc d5d1 30bd a8a8 e139 bc18 a4bb
00000110: d501 bb38 9d99 9638 38bc 37b9 12c8 213a
00000120: a717 273b 6c2b b0b9 c7ce 77bc ae84 8ebc
00000130: fc47 02ba fc9a bfb9 f4e5 5439 e8f1 18ba
00000140: 4bc8 943d 9509 483c 2194 b0b9 3079 debb
00000150: d6f7 e639 d770 153a 2b4f c7be af98 d7b9
00000160: 141a 5a38 84f3 9039 5733 313b d6ee c9bd
00000170: aed9 a7b9 26c6 16b9 86e4 4239 3477 a639
00000180: f4cc 053f d7fb fcb9 cae9 d539 602e 113a
00000190: 9835 64b7 ab9a d839 2930 b33c 41c0 2cb9
000001a0: 8631 9bbe 90b7 a43c c1f1 dabe 2c2f c239
000001b0: 13e8 8e3a c4ba 3fb9 20dd 9c39 6e62 a9b9
000001c0: f861 dbbe f6ff 7a3b 833d 9039 15b5 f6b9
000001d0: d49e 3eb9 4570 0f39 9914 743e cc50 3d39
000001e0: af3f d93a 8062 8abc d284 e2b9 284e 313c
000001f0: 1146 56bc b4ea deb9 7dca dcbe 0b6f 87b9
00000200: 0be1 083e 795c db39 ddbc e339 9d01 ffbd
00000210: 7bb7 b4b9 ac19 6c39 6d9b e839 e488 26b9
00000220: f0e0 4e3c ada5 ff39 bf8a eab9 4816 c4bd
00000230: c172 1bbb ea9b fe39 7889 72b9 f97d 563e
00000240: e830 f93e 5ecc 643c 10b5 5e3f 4fc4 ab38
00000250: f892 d139 1692 8d3d cf8a e8b9 a192 46bd
00000260: 2997 433e 6ac8 b3b8 48ba 0bbf 275a 6ebc
00000270: 86bf c13a 51c8 9d3c 80c2 1336 49aa c0ba
00000280: 1276 9bb8 6c41 cf3a df8e 37be a084 c43b
00000290: b7f2 50be cc8b 8839 d0cf 4ab9 3472 0b3a
000002a0: 52e1 ce39 1447 b0b9 d1af b139 aea2 9a3d
000002b0: ac3d beba 3eec c2ba c8bd 7bbd 7220 b23e
000002c0: 0f63 103a 44c4 38ba b562 9538 8b95 183d
000002d0: e622 d9b9 b4f0 7b39 bbe0 c9bc b370 e8b9
000002e0: e698 bb3c 3476 3939 40b8 77bb 4ae4 0abb
000002f0: 8bda 2eb9 e118 95bc 467d 29bd 8185 e239
00000300: 0c48 f3bc 058d 90bc 0a6b 8f39 451f abb8
00000310: e86a dbb8 3b30 af38 686d a93e 5a72 9db9
00000320: 00cd 1dbd 5f16 ea3b 7c29 dc39 39e4 3db8
00000330: 13fa e13c b996 1839 0869 ed38 4610 1bba
00000340: 433b bfbe 01af 4bba 72b1 a1b9 fb3b 993e
00000350: 770d 69bd 8fa7 30bb 3c1a 6fb8 4dbf deb9
00000360: e52a 0a3f eae8 deb9 b51e 25b9 32fd e239
00000370: 3fce 1d3a 8b2d 9bb8 2eee b739 b2ab 5138
00000380: 90bf 85bb ff9f 0fba e2c2 8a3b 12e4 f239
00000390: 59cb f43c 124a d9b9 d014 6a39 20a3 02bc
000003a0: 480d 08bd 7d28 19bb e049 5db9 f8f1 ba39
000003b0: 0b59 49be cebc a639 8e61 373a f72b 833e
000003c0: 044a 8bb9 512e 2d39 c4c4 95b9 1a78 b4be
000003d0: aa22 a33e 1c8f 223f 2ded 34b9 d275 94be
000003e0: 08d9 bbb9 fec2 f3ba 9189 57ba f881 3538
000003f0: 0420 46b9 0efc dbbe 8db2 a8b9 9287 43b9
0.010535172 0.0070736664 0.0018012468 0.00042626177 -0.155385 0.11904568 0.19523282 1.7465103e-05
0.03404077 -0.00030043247 8.961535e-05 -0.00028935645 -0.38955516 -0.0006170731 -0.43966106 0.00022786691
0.019155359 0.47678605 0.2310807 5.6596033e-05 -0.0030246822 0.00035414647 -0.0020095145 -0.00047167236
0.036201313 0.0006111817 0.0046226284 0.044631258 -0.0003595144 0.00088340533 -0.00029187684 0.0039019582
0.023038145 -0.00032646392 -0.0514882 0.00018535003 0.08984581 -0.02223363 -0.007657814 0.13458322
0.18655403 -0.0022294305 -7.7680525e-05 0.00034452506 0.0002037352 0.0001230636 -0.115553565 -0.00019839901
-0.00033948768 0.00066914514 -0.00035770293 -0.002049991 -0.00029583537 0.00038100936 -0.00045377118 0.02018833
-8.179077e-05 9.237116e-05 -0.00032799813 0.00035488151 -0.00040247198 0.0004651699 -0.00014428952 0.00011771572
-0.010674817 -0.04316886 0.00043041003 -0.0050078314 8.917196e-05 7.18117e-05 -0.00017522357 0.00061714754
0.0025496276 -0.00033601688 -0.015124983 -0.017397251 -0.0004969833 -0.0003654583 0.0002030356 -0.00058343867
0.07264765 0.012209316 -0.000336797 -0.006789349 0.0004405367 0.00057007134 -0.38927588 -0.00041121754
5.1999537e-05 0.00027647254 0.0027038658 -0.098600075 -0.00032014906 -0.00014378931 0.00018586413 0.000317508
0.5226586 -0.0004825282 0.00040800712 0.00055382214 -1.3602337e-05 0.00041313967 0.02187355 -0.00016474818
-0.3031122 0.02010706 -0.4276257 0.0003703771 0.0010902904 -0.00018284755 0.0002991939 -0.00032307528
-0.42848182 0.0038299537 0.0002751165 -0.00047055693 -0.0001817898 0.00013679366 0.23835982 0.00018054544
0.0016574765 -0.016892672 -0.00043205038 0.010821857 -0.013078229 -0.00042518007 -0.43123236 -0.0002583194
0.13367097 0.00041839833 0.00043437528 -0.124514796 -0.0003446898 0.00022516277 0.0004436629 -0.0001588199
0.0126268715 0.00048760828 -0.00044735332 -0.09574562 -0.0023719522 0.0004856282 -0.0002313013 0.20946492
0.48670125 0.013964741 0.8699503 8.190481e-05 0.00039973087 0.06912629 -0.0004435391 -0.04847968
0.19100632 -8.572715e-05 -0.5458112 -0.014547861 0.001478181 0.019260557 2.201792e-06 -0.0014699186
-7.412968e-05 0.0015812344 -0.17925595 0.0059972554 -0.20405088 0.00026044098 -0.00019341637 0.0005319447
0.0003945926 -0.00033622293 0.00033891064 0.0755056 -0.0014514229 -0.0014871431 -0.061460286 0.3479038
0.0005507925 -0.0007048289 7.123259e-05 0.03725199 -0.00041415467 0.00024026894 -0.024643293 -0.00044334456
0.022900056 0.00017687009 -0.003779903 -0.00211932 -0.00016675347 -0.01820034 -0.041379236 0.00043205547
-0.02969744 -0.017645368 0.00027354836 -8.15974e-05 -0.000104626466 8.353634e-05 0.33091283 -0.00030030572
-0.03852558 0.00714378 0.00041992578 -4.527366e-05 0.027585065 0.00014551998 0.00011320604 -0.00059152057
-0.373499 -0.0007769913 -0.0003084052 0.29928574 -0.056897607 -0.0026955341 -5.7006473e-05 -0.0004248567
0.539717 -0.00042516674 -0.00015747065 0.00043294724 0.0006019808 -7.399459e-05 0.00035081938 4.9989387e-05
-0.004081674 -0.00054788584 0.0042346576 0.00046327763 0.02988212 -0.00041444652 0.00022323732 -0.007973462
-0.03321579 -0.002337008 -0.00021103723 0.00035656965 -0.19662873 0.00031802658 0.0006995433 0.2561948
-0.00026567292 0.0001651582 -0.00028566096 -0.3524788 0.31862384 0.6349962 -0.00017254493 -0.2899614
-0.0003582912 -0.0018597541 -0.0008222098 4.3274806e-05 -0.00018894678 -0.4296574 -0.00032176488 -0.00018647153

weight f4 [10, 400]
00000000: 3100 a53d 1552 803d eca8 f53b 6550 d539
00000010: c93b 36bf fbec 7abe 8297 b5bc 4549 9fb9
00000020: c5d4 473c 7a87 293a db4d eeb9 ff7b e6b9
00000030: 9328 d8bc 2e01 1aba ec7b 0cbf b13e 40bb
00000040: 30f6 d8bd 51cb 6c3e bf9e 143f fa3f 8a39
00000050: dd28 e0bd f79b c839 5c66 8f3c 7f16 6339
00000060: a9de 843e 7c17 2bb9 d589 96bb 8e4e c93d
00000070: e8d8 77b9 faa3 25ba 20d9 2a3a 3fc5 ccbc
00000080: 132b 23bd e1ba 17b9 a2d0 993e 4f68 cab9
00000090: 6ba9 cc3e ffd4 0a3e 836c 9a3b a8ba 733e
000000a0: 6b63 debe 7f4a 36ba f290 393c f762 b3b9
000000b0: 78c3 5439 c411 bdb9 80be a73d 7a3f 363a
000000c0: 64f3 9237 931b 2a38 3039 ab38 78d4 23ba
000000d0: ea8d 5739 4dd9 8239 7fb7 c8b9 0d00 603e
000000e0: 4b76 b6b9 ec3a 1bba fcaf f4b9 eec2 cab9
000000f0: e951 9539 00ff 9038 6701 a8b9 cbf6 c4ba
00000100: c929 cebc 607c 013c f1fb a8b9 fd13 b43c
00000110: 2ca2 4ab9 a832 263a 7a5e 193a d4f3 08b9
00000120: c035 12be 686a d1b9 5a21 b5be 464e 3bbe
00000130: 979d 60bd 190f aa3a 027c 14ba 591f 3539
00000140: 9f21 0cbc 9d60 05be 2083 86b5 3a94 04be
00000150: bcbd 2db9 6bab a0b9 3709 01be 94ca 113a
00000160: c0c4 d1b5 8b1b 81ba 8069 dabd ea05 23bf
00000170: 3f48 e1b9 ad28 0cba 244c af39 08ee 2bba
00000180: eee7 a23d 7ce9 b836 0644 c0b9 1e31 a4b9
00000190: fe5e daba 375b 8fb9 bc7c b9be d429 09ba
000001a0: cd90 a5bd ac6a ba3e bbd5 0abd c000 cd39
000001b0: 9fdb 95ba f7d1 f439 f92e d6b7 1c4f fd39
000001c0: 743c 06be 4208 7dbd d442 f1b9 e2c0 a638
000001d0: a897 4e3a 3a89 5539 fafc fabd aad1 9439
000001e0: 541e 1dbd fb12 10be 2d26 653a bf99 993e
000001f0: aeda dfbc 186b a937 1217 2fbf f002 53b9
00000200: 553f a13c 3e98 a1b9 64ba a3b9 4087 eebe
00000210: 760d fd39 e653 043a a4a6 0939 13dd 18ba
00000220: 6397 49bc 3052 133b 3315 6939 f0f6 ed3e
00000230: 9e06 0fbe 3a20 96b9 1980 b6b8 b327 0e3f
00000240: 69a2 5bbe d4a5 ce3d 84c9 53bd 1c61 cf39
00000250: 0ae9 f3b9 4096 af3e ebcf cc38 adf5 303e
00000260: ae13 f83e 3a5b e539 a733 ae3e 611e 153d
00000270: 82fd 0a3d b1dc cebd d826 663a 583e eaba
00000280: 7fea bfb9 2154 94bc a96c 773d 94f6 de3d
00000290: b17e bebd 55ad 1239 98e6 083a f4a3 04ba
000002a0: decd ecb8 92e9 95b9 d456 b8b9 a9d0 5a3f
000002b0: 25be 733a e8a8 52b7 eade 7abd 03cf 52be
000002c0: 3511 24ba 627f c239 2e3e ee39 5c6f 693e
000002d0: 35d5 183a a08c 0bba 8b55 053e dcc4 1439
000002e0: a1aa b0be 0c86 b939 115a 76bc 93d5 b13d
000002f0: 2a31 3739 55cd dd3d 8ad5 9cbe 0bdb a0b9
00000300: f0b0 d73d 0a0f f0bd 4fc5 8db9 9006 0839
00000310: f46c 6a39 8118 f639 0bcf 53bc 940d 4c3a
00000320: 1e7c cabe d1e3 623e 8fee 4dba b84a 0cba
00000330: c9e2 84bd 7bdf 8fba 980b 4c38 627e 9539
00000340: a339 be3c 86c0 85b9 7a69 093a 1a6d 92be
00000350: fd0d 0bbc cf13 3cbc be89 3f3d cb68 3639
00000360: 244c d73e c29e a2b9 da75 b0b9 163c 793a
00000370: a256 31ba 468e 423a 3c6c 0cba 7837 1dba
00000380: 6400 fabb ec2e 4839 5daf 5abd 0dab 26ba
00000390: a912 b93e 6bc9 4d3a 8331 10ba bf02 893c
000003a0: dd3a 98bd 7b7e 4f3d b10c 56bc e420 adb9
000003b0: a1d7 f53e 6308 14ba ea68 aeba da77 1dbe
000003c0: 17b3 03ba cf87 53ba 6a8a cfb9 e035 9b3e
000003d0: b342 683d 484e 58be 2e65 cfb8 d286 573e
000003e0: a7b1 0a3a f18c 093c 6790 053b d529 113a
000003f0: be72 85b9 a047 cabe 97b8 dab9 65b3 db39
0.08056677 0.06265656 0.0074969437 0.00040686424 -0.71184975 -0.24504463 -0.022166971 -0.00030381433
0.012196724 0.0006467026 -0.00045452904 -0.00043961403 -0.026386535 -0.00058748096 -0.5487659 -0.0029334242
-0.105938315 0.23124434 0.5805473 0.00026369077 -0.10945294 0.00038263176 0.017504863 0.00021656787
0.25951126 -0.0001631658 -0.0045940676 0.09829436 -0.0002363656 -0.0006318685 0.00065173395 -0.024996398
-0.039836 -0.000144701 0.30041987 -0.00038606158 0.39973006 0.13557814 0.0047126426 0.23801672
-0.43435225 -0.000695385 0.011326062 -0.00034215275 0.00020290713 -0.00036062126 0.08190632 0.0006952208
1.7517894e-05 4.055684e-05 8.1645674e-05 -0.0006249617 0.00020556865 0.00024957434 -0.00038283688 0.2187502
-0.0003480188 -0.0005921561 -0.00046670425 -0.00038673676 0.00028480522 6.9139525e-05 -0.00032044502 -0.0015027163
-0.02516641 0.0079031885 -0.00032231168 0.021982187 -0.00019324635 0.0006339946 0.0005850565 -0.00013060804
-0.14278316 -0.00039942865 -0.35377008 -0.18291578 -0.05483779 0.001297447 -0.00056642306 0.00017273183
-0.008552938 -0.13025136 -1.002194e-06 -0.12947169 -0.00016569247 -0.00030645294 -0.12601171 0.00055614975
-1.5628975e-06 -0.0009850127 -0.10664654 -0.636809 -0.00042969172 -0.00053466373 0.0003343533 -0.0006558602
0.07954393 5.5108085e-06 -0.00036671775 -0.00031317113 -0.001666039 -0.00027343046 -0.36227977 -0.0005232368
-0.08084259 0.3640951 -0.033895236 0.00039101206 -0.001143325 0.00046695743 -2.5532661e-05 0.00048314861
-0.13108999 -0.061775453 -0.00046016893 7.951424e-05 0.0007880875 0.00020364384 -0.12255283 0.00028384972
-0.038359 -0.1406974 0.00087413454 0.3000011 -0.027325954 2.019624e-05 -0.6839458 -0.00020123622
0.01968352 -0.00030821742 -0.00031228655 -0.46587563 0.0004826595 0.0005047902 0.00013127417 -0.00058312825
-0.01230416 0.0022479407 0.00022228509 0.4647746 -0.13967368 -0.0002863424 -8.702296e-05 0.55529326
-0.21448673 0.10090223 -0.051705852 0.0003955447 -0.000465222 0.3429432 9.766206e-05 0.17281218
0.48452514 0.00043746253 0.34023783 0.036405925 0.03393317 -0.10100687 0.0008779592 -0.0017871363
-0.00036605072 -0.018106522 0.06040636 0.10886875 -0.09301508 0.00013988216 0.00052223494 -0.00050598313
-0.00011291703 -0.00028593518 -0.00035159907 0.8547464 0.0009298048 -1.2556302e-05 -0.061247744 -0.20586781
-0.00062586676 0.0003709747 0.00045441225 0.22796386 0.000583011 -0.0005323384 0.13020913 0.00014187716
-0.3450518 0.00035385822 -0.015036122 0.08683314 0.00017470555 0.108301796 -0.30631667 -0.00030680778
0.10531795 -0.117216185 -0.00027040622 0.00012972415 0.00022356567 0.00046939033 -0.012927781 0.0007784006
-0.3954782 0.22157218 -0.00078556774 -0.000535171 -0.06488568 -0.0010976637 4.8648188e-05 0.00028513657
0.023220843 -0.00025511178 0.00052418525 -0.28598863 -0.008487222 -0.011479332 0.04676222 0.00017395911
0.42050278 -0.00031017332 -0.00033657142 0.00095075497 -0.00067649235 0.0007421713 -0.00053567044 -0.000599734
-0.007629441 0.00019090966 -0.053389896 -0.0006357886 0.3614705 0.0007850143 -0.0005500542 0.016724942
-0.07433102 0.05065773 -0.013064549 -0.00033021637 0.48016074 -0.00056470017 -0.0013306413 -0.15377751
-0.000502394 -0.0008069248 -0.00039585243 0.3031454 0.056704234 -0.21123612 -9.889375e-05 0.21047524
0.00052907545 0.008395419 0.002038026 0.00055375445 -0.00025453226 -0.3950777 -0.0004171773 0.00041904594

bias f4 [10]
00000000: 62b2 eb3d 972c 2abd 4717 e5bd f648 a5bd
00000010: 8666 8a3d 6b61 fabd cb2d 223d 51b6 8f3d
00000020: 5901 db3c 5511 823d
0.11508633 -0.04154643 -0.111860804 -0.08070557 0.06757836 -0.12225612 0.039594453 0.07017196
0.026734041 0.06350962

weight f4 [400, 10]
00000000: ee0f e13e e127 a73e af49 ab3d 2687 06bf
00000010: 991b a3be db0e 3bbf d171 89be 6870 5a3f
00000020: bb20 16be dd7f d9bd 8572 613c 3607 373f
00000030: 1223 88b9 0fb1 673d 9252 9fbe cd3f bfbd
00000040: f9c4 12bf 9de7 7abd 85a8 31bf 2d9e 1bbf
00000050: 1641 4b3e 3964 47be d847 69bf 000e 443f
00000060: 200f 0fbd 8433 a73e 8e50 5cbe 4369 a53e
00000070: b1ea 63bf b638 41bf 89b3 51b8 e6b0 93b9
00000080: 6700 bfb8 dd18 2eb8 3fd2 40b9 a7ba 6b39
00000090: 9bf1 1fb9 7001 f2b8 0924 62b9 a296 83b7
000000a0: 529f 4abf 054a 623f 19e4 8cbe 63ea cf3e
000000b0: 5f2c ae3f bb9f abbd 58ae 40be 106b 24bf
000000c0: 8a4a 74be ef6a 4dbe b998 473d cd65 b43e
000000d0: 590c 6abf 9348 8dbe 6664 b73d ee48 d63d
000000e0: 8603 aebe 0b8a 6dbe ee5f b9be 5603 95be
000000f0: 1762 4f3e bf4a b8be fb37 d1be e3d9 323d
00000100: aae1 4ebe b45a a83e 6ecc 89be 889f b6bf
00000110: fec6 923e 8303 973e b51e a43d 0ac1 523e
00000120: ca55 053e 45c2 ecbe c7c2 09be f4fd 0ebf
00000130: 620b f43d fd27 363e b171 253e f07b 9bbf
00000140: c251 f53e ac55 f5be 4b35 d5be 2299 9dbe
00000150: 70b8 5cbf 2b1e 193f 3c5c 31be 3819 043f
00000160: 0db6 16bf 0e95 47bb 5f4b 8f3d fa7b 35be
00000170: 2eeb f63d 735f 08be a87a 77bf 6830 a1be
00000180: f587 4d3f e999 2bbf 8133 bebb 2216 7bbc
00000190: 9ea5 89bf 5dbb 643f 524a f63d 2712 5e3e
000001a0: 6ed8 3ebe 19d2 113f f5d3 a0be 6f12 2dbf
000001b0: 70b9 b03e 1dc1 c43e 4736 f7bd 2496 dcbe
000001c0: 78f7 80be fb5e 053e 80df b6be fa7e 0c3f
000001d0: 1fe0 ae39 dc21 7bbe 0098 883e fc1c 823d
000001e0: 04f5 323f 10b7 2f3f 3d92 3e3f 8d8e ef3e
000001f0: 96e2 21bd a5ee bcbe 4846 1d3f a743 18bf
00000200: 615f 543e b2e1 313f 7e0a a139 c2e9 af3a
00000210: 28f5 8539 a05f f5b6 c216 5d3a f58c 8eba
00000220: f01b 723a 7a2b 613a 642d 593a 0ec9 a038
00000230: a400 33bf a2b8 88bf 2077 eabd b3a9 e5be
00000240: f326 08bd 298f 19bf 6bd8 473e d9fb 35bf
00000250: da3b 50bf 4a76 d13e 1727 723d 39bc 413d
00000260: fabb 343d a4ed c33d efde 54bc c897 1cbe
00000270: 8332 7fbc aec1 af3d d35e 7f3d b8e2 8cbc
00000280: ad4d 5738 21af 8d38 90a4 4a36 70c3 90b5
00000290: d68b ad38 7800 abb8 8a39 a538 f796 7438
000002a0: daf8 9038 4645 40b7 f21a 2c3e affa 913d
000002b0: 9422 4a3f 0b3d a03e 48f7 ea3d 0dcd dabb
000002c0: 9d04 af3e fc4f ab3e ae4d 18be e193 053e
000002d0: 5016 7dbd 9fa6 d5bd 8133 56bc 22c0 963d
000002e0: f43f 753d 3af7 8f3d bfdf 6dbd 4457 1d3e
000002f0: c3af 81bd e613 89bd 5753 1abf 9b5c 293d
00000300: 2412 19be e89c 20be 0758 e1bd bd29 e7be
00000310: 54fe 853f a2f1 953e 9da3 c33e f76e c73d
00000320: 85c1 893e 652b f8be d263 43be 2b97 373e
00000330: a9da a93e 15aa 373e 7fc2 c83e 269b b8ba
00000340: 70b2 c2be fdad 07bd 10ce 19b8 08b7 f3b5
00000350: b0c7 b435 4265 6ab6 8bec 05b8 f650 f437
00000360: 57ca b9b7 52b5 66b7 de12 d4b7 3c59 0c37
00000370: 1c06 013f 04fa 0abf 985b c0bf 3952 9b3e
00000380: 5f07 6bbf e909 e53e 942a 09be 188e 7d3d
00000390: 95d7 a4be ed26 9bbd 83fe 6cbf 1022 09bd
000003a0: ea90 763f 665c 1a3e f6cb 98bd b0d6 c6bd
000003b0: 9c08 263e bfa5 053f 2d8f 16be 70c7 893e
000003c0: c873 683e 4b9a 283f 0e9e 2d3e fc2c 363e
000003d0: 1824 7ebe 4950 e03e baa2 fa3e b948 4c3f
000003e0: ade1 963d bcda 893e b469 93be 4efc 86bf
000003f0: d3fa 7b3e 41cc a13c ba8e 3dbe 03a7 f83d
0.43957466 0.32647613 0.083636634 -0.5254997 -0.31856993 -0.7306954 -0.26844648 0.8532777
-0.14660923 -0.10620091 0.013760214 0.7149538 -0.0002596607 0.05656534 -0.31117684 -0.09338341
-0.57331806 -0.06125604 -0.69397765 -0.6078823 0.19849047 -0.19471826 -0.9112525 0.7658386
-0.034926534 0.3265649 -0.21515104 0.3230687 -0.89029986 -0.7547716 -4.9996688e-05 -0.00028169825
-9.107665e-05 -4.150799e-05 -0.0001838887 0.0002248088 -0.00015253427 -0.00011539727 -0.00021566464 -1.568656e-05
-0.79149354 0.88394195 -0.27517775 0.4060851 1.3607291 -0.083800755 -0.18816507 -0.64225864
-0.2385656 -0.20060323 0.048729632 0.35233918 -0.9142509 -0.27594432 0.08954696 0.10463129
-0.33987063 -0.2319719 -0.36206 -0.29104108 0.20252262 -0.35994527 -0.40863022 0.043664824
-0.20203272 0.328817 -0.2691378 -1.4267435 0.28667444 0.29494867 0.080136694 0.20581451
0.13021007 -0.46241966 -0.13453208 -0.5585625 0.119162336 0.17788692 0.16156651 -1.2147198
0.4791394 -0.47916925 -0.41642222 -0.30780894 -0.8621893 0.5981166 -0.17320341 0.5160098
-0.5887154 -0.0030453834 0.06996798 -0.17723075 0.12056576 -0.13317661 -0.96671534 -0.31482244
0.8028558 -0.67031723 -0.0058044796 -0.015325101 -1.0753667 0.89348394 0.12025894 0.21686612
-0.18637249 0.5696121 -0.3141171 -0.6760625 0.34516478 0.38428584 -0.120708995 -0.43083298
-0.25188804 0.13024513 -0.35717392 0.5488125 0.0003335485 -0.24524635 0.26678467 0.063531846
0.69905114 0.68638706 0.7444189 0.46788445 -0.03952273 -0.3690082 0.61435366 -0.5947823
0.20739509 0.6948501 0.0003071613 0.0013421106 0.00025550392 -7.312701e-06 0.0008433872 -0.0010875749
0.00092357304 0.00085895474 0.0008284657 7.666844e-05 -0.6992285 -1.0681345 -0.114485025 -0.44856033
-0.03324027 -0.5998407 0.1951615 -0.71087414 -0.81341326 0.4091056 0.05911931 0.047298644
0.04412458 0.09566811 -0.012992605 -0.15292275 -0.015576008 0.08581863 0.06234629 -0.017197952
5.1332336e-05 6.756024e-05 3.0196134e-06 -1.0785716e-06 8.275329e-05 -8.154003e-05 7.8785306e-05 5.831473e-05
6.912807e-05 -1.1460221e-05 0.16807154 0.07127892 0.7895901 0.31296572 0.114729464 -0.006677276
0.34183207 0.3345946 -0.14873382 0.13044693 -0.061788857 -0.10432171 -0.013073803 0.07360865
0.059875444 0.070295766 -0.05807471 0.1536532 -0.06332352 -0.066932485 -0.60283417 0.04134808
-0.14948326 -0.15684855 -0.11003118 -0.4514903 1.046824 0.29285914 0.38210765 0.09737962
0.26905456 -0.48470607 -0.19081047 0.1792876 0.33174637 0.17935975 0.3921089 -0.0014084324
-0.38026762 -0.033124913 -3.6669953e-05 -1.815818e-06 1.3469162e-06 -3.4927657e-06 -3.192997e-05 2.9124767e-05
-2.214794e-05 -1.3751285e-05 -2.5281155e-05 8.365427e-06 0.5039995 -0.54287744 -1.5027952 0.30336168
-0.9180812 0.44734123 -0.13395149 0.06190309 -0.32195726 -0.07575784 -0.92575854 -0.03347975
0.9631487 0.1507431 -0.074607775 -0.09708917 0.16214222 0.52206033 -0.14703055 0.2690997
0.22700417 0.6586043 0.16954824 0.17790598 -0.24818456 0.43811253 0.48952276 0.79798466
0.07367263 0.26924694 -0.28791583 -1.0545747 0.246074 0.019750716 -0.18511477 0.1214123

bias f4 [400]
00000000: 7d07 8f3d c0b4 df3d 2ebc 0e3e 320c 3939
00000010: 3fc5 8a3e 156c 82bd f3bf 28be 8195 ad3d
00000020: 94e8 483e 4ea3 29be 0313 243e 27d3 25be
00000030: 8f26 5dbe 8b11 55ba 4d36 123e 7f22 543b
00000040: 86ed 49b8 637d 02ba 5548 243b 5f52 bdbd
00000050: 7fa4 85bd 65c1 8737 decb 91be a871 a3bd
00000060: 6be6 383a 04de 003e 40b0 b6bc a149 e1bd
00000070: 305f 73be 0406 b63c 4d1a ae3d 6edf 80b9
00000080: ef02 57bd 1bd4 083d 061f 97ba dad2 c93d
00000090: 9c3f ad3c d080 58ba b9dd 383d 717b 463d
000000a0: 4bb2 593e 7b11 98bd e570 a93e 48f6 55bd
000000b0: 571c b93e 6cf4 b336 dcf5 a43d 3668 303a
000000c0: 6dc4 80bd 62d7 9cbd c121 0e3d 246a 763e
000000d0: 5834 9cb9 6965 fdb6 b032 19b8 9810 9036
000000e0: b81e 3db7 28b6 1e3d 423c 213d 39e9 0f39
000000f0: 617f 5dbd 3950 d9b6 ad27 2c3e 429f 823b
00000100: 1f2e cabc d857 a23d e1d4 e1b9 5b8e 1cbe
00000110: ef05 28be ed2b fb36 a477 4339 72e6 393e
00000120: 707d 82be 08bd 47be bfad 49be 3abd 31be
00000130: 5df3 1ebe 7367 a837 e4fa d6b7 98fb 09b7
00000140: aeab 52bd e8fd 9fb7 fa17 98b8 dcf4 7fb7
00000150: 1776 923a 0e37 31be dede d3be 79ac 57bb
00000160: 35f7 823e 756f 933d a82f 3fbd 6652 8aba
00000170: 6082 40be 4485 7b3e 01f1 30b7 d108 19be
00000180: 97f9 f73c 1016 04b8 54db 973c da23 063e
00000190: a0ac a0b5 5ae3 ba3d e3f4 913e e2a2 06be
000001a0: eff8 0038 13bb d4bd 2d44 cdbd ab01 0a3e
000001b0: 2761 973c 4481 463e 0151 db3d 01ab 90bd
000001c0: 6cbb e03d 08e6 a03e c778 10be c3ca 1c3e
000001d0: 348a 6e38 47eb 6fbe 7705 3c3d f3b1 f5bb
000001e0: cf1a 6a3e 94b4 80ba c9f9 a6bd b781 feb6
000001f0: 6dbc c737 1ed4 8d37 9002 a93d 0a09 d8b9
00000200: 0a3b 143e 85e9 813d 5842 833c 236c 81bd
00000210: 63aa c03c 118f 66bd aa76 9cba 30b3 2e39
00000220: 1e1f fd38 b79d 91bc 666d 96bd acad e03d
00000230: a58c 1e3e b67c 753e 97d0 0f3a f208 2f3e
00000240: 92de ebbd 223e 9d3d 1404 17b8 134f 76be
00000250: e116 633e cb0c 27be 1407 85b6 ace1 ea39
00000260: 97cb 67be 8510 e5bd 7d50 bfbc 0d3a 5a3e
00000270: 5b4d 423e dd55 16be 4c73 563e c211 f137
00000280: 7c8e 60be 1609 fe3d fc87 86be 0c7b 6b37
00000290: 08f0 debd f13a 04bd 09cc 51b7 40f1 8abe
000002a0: 056a f03d 013e dfbd 13bd 0dbd 8fc5 9ebd
000002b0: bdc5 cc3c 57d1 87be 401e a233 b817 17be
000002c0: f1e3 8db7 ab75 06be 9485 393e 3ab7 603e
000002d0: e3f2 823e 1cdd 86b9 0090 5bbe b538 43bd
000002e0: adb4 613c c0c5 5ebd 4dc0 833e 27d5 39b7
000002f0: a172 8b3d 391f 623e ed0d 0abe c770 bbbd
00000300: bb2a 9dbe fa68 25be ce5b 4a37 b057 c537
00000310: d455 343e b4da 113e d30f 41bc 17ef 1ebe
00000320: 45fa c4bb c45d 7b38 6500 4abe 7403 733e
00000330: 32b6 3bb8 1571 cdbd f7fc 81bd 6cde 81b7
00000340: 7f2b 2abe ffa3 4b3e 6925 183d ae90 23be
00000350: e24e babb 94d7 153e d057 7bbe 2b58 083e
00000360: 447d 40be 871e 0ebe 2693 97bc 7d4b 233e
00000370: ea12 b43d 9553 b03d 20b2 0a3e c6dc 1a3e
00000380: d857 cf3d a291 ba3d 5130 513e ef93 fbbd
00000390: 2eaf 2c3c b609 8e37 179e a5bc 3e33 603d
000003a0: ea5f 2dbe 08e7 25be 6b51 1bbc 6ed0 293c
000003b0: 6e23 70be 812e 5ebc 2fbf a43d 74da f33b
000003c0: c6ff c5bd 37de 0dbe 201c ad3e 6daf db3d
000003d0: bd39 eabd 885d 463a a465 1dbc 4a10 303e
000003e0: fc6f 80be ddb2 95b9 483d 9cbe cae9 3238
000003f0: b79b 2fbd eaf6 823d c370 5cbd 4c2d 093d
0.0698385 0.10923147 0.13938972 0.00017647518 0.27103612 -0.06368271 -0.16479473 0.08475781
0.19619972 -0.16566202 0.16022877 -0.1619383 -0.2159674 -0.0008127919 0.14278527 0.0032369194
-4.8143345e-05 -0.00049777905 0.0025067527 -0.09244227 -0.06525516 1.618331e-05 -0.2847585 -0.079806626
0.0007053378 0.12584692 -0.02230084 -0.11000372 -0.2376678 0.022219665 0.0850111 -0.0002458053
-0.052493032 0.033405405 -0.0011529631 0.0985467 0.021148495 -0.00082589407 0.045133326 0.048457567
0.2125942 -0.07425209 0.33093944 -0.052236825 0.36154434 5.36307e-06 0.080547065 0.0006729396
-0.06287465 -0.076582685 0.03470016 0.24063927 -0.00029793638 -7.5517933e-06 -3.652525e-05 4.293466e-06
-1.127243e-05 0.038747936 0.039364107 0.00013724425 -0.054076556 -6.476443e-06 0.1681201 0.00398627
-0.024680195 0.07926911 -0.0004307395 -0.1528868 -0.16408513 7.4854966e-06 0.00018641219 0.18154314
-0.25486326 -0.19505703 -0.19695185 -0.1735734 -0.15522523 2.0075333e-05 -2.5627618e-05 -8.224415e-06
-0.051433258 -1.9072511e-05 -7.252391e-05 -1.5256195e-05 0.001117411 -0.17306158 -0.41380972 -0.0032909198
0.2557923 0.07198993 -0.046676308 -0.0010553121 -0.18799734 0.24562556 -1.0546531e-05 -0.1494477
0.03027038 -3.14918e-05 0.018537201 0.13099614 -1.197117e-06 0.09125395 0.28507146 -0.13148072
3.0749416e-05 -0.10387244 -0.10022769 0.13477199 0.018478943 0.19385248 0.1070881 -0.070638664
0.10973248 0.314255 -0.14108573 0.15311722 5.6872334e-05 -0.23429595 0.04590365 -0.00749802
0.22861789 -0.0009819441 -0.081531115 -7.5848907e-06 2.3810391e-05 1.6907285e-05 0.08252442 -0.00041205465
0.14475647 0.063433684 0.016022846 -0.063194536 0.023518747 -0.056288783 -0.001193722 0.00016660686
0.00012069776 -0.0177754 -0.07345085 0.10970625 0.15483339 0.23973355 0.00054860994 0.17093256
-0.11517061 0.076778665 -3.6005003e-05 -0.24053602 0.22176696 -0.16313474 -3.964533e-06 0.00044800097
-0.22636257 -0.111847915 -0.02335381 0.21311207 0.18974821 -0.14681192 0.2094242 2.8737708e-05
-0.21929353 0.12404077 -0.26275623 1.4035741e-05 -0.10885626 -0.032282773 -1.2504876e-05 -0.27137184
0.117389716 -0.10900498 -0.034604143 -0.07752525 0.024996633 -0.265269 7.549215e-08 -0.14755142
-1.6914653e-05 -0.13130824 0.18117362 0.21944895 0.25575933 -0.0002572321 -0.2144165 -0.047661502
0.013775987 -0.054387808 0.2573265 -1.1076488e-05 0.06808973 0.22082223 -0.13481875 -0.0915237
-0.30696663 -0.16153327 1.2061513e-05 2.3525063e-05 0.17610866 0.14243585 -0.011783558 -0.15520893
-0.0060112798 5.993039e-05 -0.19726713 0.23731786 -4.4753957e-05 -0.10031334 -0.06347077 -1.5481572e-05
-0.16618155 0.19886778 0.037145052 -0.1597316 -0.005685673 0.14633018 -0.24545217 0.13314883
-0.18797785 -0.13878833 -0.018502783 0.15946765 0.0879267 0.08609692 0.13544512 0.15123281
0.10124177 0.091098085 0.20428587 -0.122840755 0.010539813 1.6932241e-05 -0.020216985 0.05473637
-0.1693112 -0.16201413 -0.009479861 0.010364635 -0.23451015 -0.013560892 0.08044278 0.007441813
-0.096679255 -0.138543 0.3381052 0.10726819 -0.11436794 0.0007567038 -0.009606753 0.17193714
-0.25085437 -0.00028552758 -0.30515504 4.265624e-05 -0.04287311 0.06394751 -0.053818475 0.033490464

weight f4 [36, 400]
00000000: 8f3a 183d 475e 2abe 1e7f ebbb 6260 efb7
00000010: 900a 013d a74b 00bb a5f7 17bc 3bd2 62bc
00000020: 7eb8 623c 85b7 2d39 1eac ba3c 0c8d 723c
00000030: 886f cb3c 3642 fc39 5af3 acbd 3b31 d5bd
00000040: eec6 76b7 9869 5abd b366 febd eafa a33a
00000050: a95d fa3d 7e2e de37 9282 30bb fcf5 973b
00000060: dbfa 643c 8d3b 8fbb 321c 83bc b4ba 1b3e
00000070: 6dfc 3d3a e69a e237 f7fc 35bd f0d7 2a37
00000080: 371f 67bd ea86 8b3c 69c2 acbc 516c 8fbd
00000090: 44ee 83bd 62f7 0fba 4705 a8bc f996 b43d
000000a0: fcd7 0b3d fa3a cabc 86bf e1bb 7e5a bdbc
000000b0: 3f80 cf3c 292b 15b8 eb2c 8bbb b8ba a33d
000000c0: 5d16 0d3e 2bf1 423d 940a 1ebe 0616 32bd
000000d0: 9f83 d639 4d4f 34b9 bc90 d035 c207 fc38
000000e0: 98ab 1db9 ad74 0dbe 45eb 6f3d 5d5d 9eb8
000000f0: 727c 0fbd aa11 90b8 b511 3abd 5085 af3d
00000100: 521e 103d c99e 31bd e0e3 6139 2a8d 18bd
00000110: 4209 c3bc f4ed 4138 66cb 6b38 8cc5 bc3d
00000120: 3b5c 803d 2e71 de3c 6fda f1bb aff4 a1bd
00000130: f552 c43d 1950 f138 2e46 cdb8 2ea5 e9b8
00000140: cbf0 3e3b 149c 3239 bce6 4639 c0ad 2639
00000150: a87e 1bba 373c a4bd f6c9 083e 01c8 37bd
00000160: 97ea 3fbc 609b bc3c 15fa 2ebd d62c 73bd
00000170: 4076 08bd 4750 003b c08d 3239 b25f c4bd
00000180: 4425 6bbd a178 3137 b44a 923d 4fbe 153c
00000190: 8d93 0f39 3739 e03c 2b0d 4ebd f0ab 85bb
000001a0: 06af 1037 aa86 c6bc c492 1ebd 2b07 ae3c
000001b0: f576 013d b345 ddbc b383 53bd f680 11bd
000001c0: 0230 14bd d61b 00bd b628 86bd 1fe1 edbc
000001d0: 6c70 97b9 e3ac d13c f7cd 35bd 845e 55bc
000001e0: 16c3 21be 5a4f a33d 6f29 8bbc 3084 8e38
000001f0: 4131 bbb8 77ea fe38 9fa0 da3c 204f 9d39
00000200: aa08 6dbd bd92 b93d 78df 34bc 2392 1f3b
00000210: d9ca be3c 6406 073e 8fe9 62bd 7660 2038
00000220: 15cc 93b9 8acc 9cbd c4e7 013e a09b f1bb
00000230: 6c64 1dbd 8a91 893a f364 ba3c 44f0 823d
00000240: 483d e23d 6b3b 003d 33d7 5d39 5e51 26bd
00000250: c2a4 5e3c 9ea1 483d aac8 3ab9 d8a8 e0b9
00000260: 2871 b9bc 5eb6 883c b0ee 28bd c33c 323c
00000270: 5ec2 c4bd 42e3 89be 4b32 463d b503 91b8
00000280: a9e1 19bd 29ed ff3b 784c 4ebb b7e4 9ab7
00000290: 8c1c c73b 1346 7dbd 4d05 c7b7 635f 283c
000002a0: 6cc3 4b3d 0621 5ebd fb7f 6abe 90e0 74be
000002b0: e138 083d 4f15 ab3d 8c49 14b9 f956 2b3b
000002c0: 3ca4 2cb9 1ff8 013e a0f0 d53c c83c 14bb
000002d0: 9d95 8c3c a6a8 2539 7feb 493c 559c a7bc
000002e0: aadd 60bd 82d7 2fbd 481f 8f3d e0d9 6439
000002f0: 0d5c 4ebd 0367 8e3d b200 8f3d 0315 b63c
00000300: aca8 34bd a2f6 a039 6047 7a38 b189 ac38
00000310: d88e 603c d0a4 a23d a909 f7bc 5c66 36bd
00000320: d973 23bc 3d25 35b9 dedd 4bbc 856c b83d
00000330: 2067 7d38 3dd7 623d b620 893d af45 f437
00000340: 63b6 91bb 8f28 c0bc 7347 d2bb 845b 91bc
00000350: 778d 053d 2b12 81bc cf1b 2f3c a590 92bd
00000360: e31f cdbb 372e a0bc 9882 7ebd 0497 8fbd
00000370: e31a 503d 9aed 053d 2d1e 10bd 7502 ffbb
00000380: 5446 89bc 1bfc 04bc 7789 2f3d 63c5 ff3b
00000390: 5262 cb3d 7c15 27b9 7fb2 563e db62 133d
000003a0: a692 8dbd 1552 743d 2249 afbd 56ea 0b3e
000003b0: 186b 8d3d ef81 dbbd ca00 fe3d 54eb 943d
000003c0: 1b7c b53d 130e 2b3d a00d 0ebd d74a e93d
000003d0: 97ce cb3d 9669 06bd 23b7 d4bd d0a6 333d
000003e0: eeee a5bc 9bcd 8739 6f7d 20bd e6f2 1ab9
000003f0: ebc1 1a3c 5ea6 8a3c 73ca 34bd 73e2 853d
0.03716522 -0.16637526 -0.0071867844 -2.8535902e-05 0.031504214 -0.0019576342 -0.009275352 -0.013844068
0.013837932 0.00016566932 0.02278715 0.014804136 0.024833456 0.00048114517 -0.08444853 -0.104097806
-1.47090595e-05 -0.05332336 -0.12421932 0.0012510691 0.122248955 2.6486112e-05 -0.0026933295 0.004637478
0.013975824 -0.0043711127 -0.016004656 0.1520794 0.0007247392 2.701343e-05 -0.0444307 1.01830665e-05
-0.056426253 0.017032105 -0.021088796 -0.070030816 -0.0644193 -0.000549188 -0.020510329 0.08817858
0.034141526 -0.024686325 -0.0068892865 -0.02311444 0.025329707 -3.5564564e-05 -0.004247298 0.07994598
0.13778062 0.047593277 -0.15433723 -0.043478034 0.00040915326 -0.0001719568 1.5539331e-06 0.000120177414
-0.0001503661 -0.1381404 0.05857398 -7.5514174e-05 -0.03503079 -6.869745e-05 -0.045427043 0.08570349
0.035185166 -0.04336432 0.00021542562 -0.037244 -0.023808125 4.6236397e-05 5.6217796e-05 0.092173666
0.062675916 0.027153578 -0.0073807756 -0.07907998 0.09586135 0.00011506695 -9.788234e-05 -0.00011141073
0.0029135223 0.00017033546 0.00018968707 0.0001589572 -0.0005931654 -0.080192976 0.13358292 -0.044868473
-0.011713645 0.023023307 -0.042718966 -0.05936893 -0.033315897 0.00195791 0.00017028209 -0.09588565
-0.057408586 1.0578108e-05 0.07143155 0.009139611 0.0001369251 0.027371032 -0.050305527 -0.0040793344
8.62382e-06 -0.024234135 -0.038714185 0.021243652 0.031607587 -0.027010774 -0.05163927 -0.035523377
-0.036178596 -0.031276546 -0.06550734 -0.02903801 -0.00028884725 0.025595134 -0.044385877 -0.013023023
-0.15797076 0.079741195 -0.01698753 6.7957095e-05 -8.926029e-05 0.00012155336 0.026687918 0.00030004326
-0.05786959 0.09061191 -0.011039607 0.002434858 0.023290085 0.13186032 -0.05539852 3.823681e-05
-0.00028190078 -0.076562 0.12686068 -0.0073732883 -0.038425848 0.0010495645 0.022753214 0.06393483
0.11046845 0.031306665 0.0002115637 -0.04060494 0.013589086 0.048982255 -0.00017813095 -0.00042850408
-0.022636965 0.016688522 -0.041243255 0.010878745 -0.09607385 -0.26931196 0.048387807 -6.914829e-05
-0.037568722 0.007810254 -0.0031478684 -1.8464734e-05 0.006076401 -0.061834406 -2.3725117e-05 0.010276648
0.049746916 -0.054230712 -0.22900383 -0.23913789 0.03325737 0.08353674 -0.00014141778 0.002614437
-0.0001646438 0.12692307 0.026115716 -0.0022619236 0.017161185 0.00015798453 0.012324213 -0.020460287
-0.054898895 -0.042930134 0.06988388 0.00021824939 -0.050380755 0.06953242 0.069825545 0.022226816
-0.04410617 0.00030701334 5.9671118e-05 8.227246e-05 0.013705932 0.07941592 -0.030155974 -0.04453121
-0.009976351 -0.00017275377 -0.012443034 0.090050735 6.0415943e-05 0.05538105 0.06695692 2.9119516e-05
-0.004446791 -0.02345684 -0.006417209 -0.017743833 0.032605615 -0.015755733 0.010687782 -0.07156495
-0.0062599047 -0.019553287 -0.062136263 -0.07011226 0.05080689 0.032697298 -0.035185028 -0.0077822753
-0.016757168 -0.008116747 0.042855706 0.0078055128 0.099308625 -0.00015934365 0.20966528 0.035982948
-0.069127366 0.059648592 -0.08558871 0.13663611 0.06905192 -0.10718142 0.12402494 0.07271448
0.08861562 0.04176147 -0.034680963 0.11391228 0.09951513 -0.03281554 -0.10386493 0.043860257
-0.020255532 0.00025902395 -0.039182123 -0.00014777071 0.009445648 0.016925033 -0.044138383 0.065373324

bias f4 [36]
00000000: 8735 0f3d 7a1a 1f3d bad4 193d e2b1 8fbd
00000010: 0805 c6bc cec2 02bd 55e5 273d 56b8 a73c
00000020: 6a67 12be f54a 513d 58bc 0ebd 9812 513c
00000030: 79e3 a03c 811e c6bc 4cf2 afbd 7232 5abd
00000040: 233a 8d3d 8ba5 aabc d0e1 a83c f770 6e3d
00000050: 082d 10be 4e58 b33d 5327 373d 8375 93bd
00000060: c8ec 64bc 3b0a 0a3e d2cd 333d 88fe 1b3c
00000070: 638f 123e 5914 5a3c 3707 cebd 1780 63bc
00000080: ead0 643d 0053 093e 843d df3d c59e aa3c
0.034963157 0.03884361 0.037556387 -0.0701635 -0.024172321 -0.03192406 0.040990192 0.02047364
-0.14297262 0.051096875 -0.034847587 0.012760781 0.019639717 -0.024184467 -0.08591136 -0.053270765
0.06895854 -0.02083089 0.020615488 0.0582132 -0.14079678 0.08757077 0.044715237 -0.07200148
-0.013972469 0.13480465 0.043897457 0.009521134 0.1431251 0.013310515 -0.1005997 -0.0138855195
0.0558633 0.13410568 0.10900405 0.02082766
