data/results/random_unitary/L=20/obs_t=2.0/latent-3_epochs-50000.dat_final.net.pkl (torch_old, 138196 bytes, 8 tensors)

weight f4 [400, 36]
-0.018093154 0.0047261836 -0.00133756 0.00038439556 -0.0005217002 -0.009690172 -0.0033864377 0.10324008
-0.001604352 -0.00520867 -0.008353907 -0.014363412 0.0027440481 -0.0022359143 -0.0030440935 0.00017786853
0.0031192608 -0.00087620656 -0.10337252 0.0068630315 -0.0003760369 0.002941237 0.00195482 0.009228576
0.10861413 -0.0007886738 0.0009026977 0.00077205984 -0.003351181 0.008354819 -0.0038124179 -0.10129106
0.00084475894 -0.001972177 0.0020127506 0.0008217645 0.0095641995 -0.002973254 0.0032121865 -0.00024187594
0.0013548846 0.013262215 0.00507243 0.081232965 -0.0036452322 -0.0025486064 0.0058735255 -0.07127451
-0.004806954 0.0075844885 -0.0031876573 -0.00017790997 -0.0025182401 0.003511157 -0.08113003 -0.0014104627
0.008333627 -0.0028190585 -0.0016242374 -0.000822101 -0.05111291 -0.0032778438 0.00029406822 -0.00017478476
0.0023645607 0.07401781 0.00079859304 0.049074437 0.00049390405 0.00041663897 -0.0003767196 0.0011250189
1.4312474 -0.60567373 -1.1105082 0.0052619157 -1.1164775 1.4562708 -0.9891519 -0.57305956
-0.5150604 -1.2708595 0.5592963 -0.49239424 -0.70383465 0.062915206 -0.7437803 0.24338843
0.21426335 -0.055197146 -0.44303977 0.7219637 0.24088782 -0.41446495 0.8527943 0.88162893
-0.12098094 -0.1944645 0.5099864 0.09839579 -0.4001057 -0.3890747 0.9064531 -0.13815258
0.45046288 -0.45677343 0.874009 -0.6430669 -0.7225495 2.287534 -0.4847856 -0.6485367
1.6447046 -1.1996936 2.5074916 -0.495225 -0.61393356 -1.0583328 0.43407914 0.34758916
-1.5305974 0.44566888 -0.9044953 -1.0390685 0.3082025 -0.87019706 -0.28284377 1.2610356
-3.930981 0.18527327 -2.8790135 -1.596731 -0.94938993 0.7734751 -1.274991 0.54292107
-0.5087081 0.29387715 -4.0913424 -1.1675643 -3.5990417 -1.2496824 0.36911082 -0.4779833
0.0029373297 -0.008864395 -0.035970233 -0.10048568 -0.9677976 -0.595144 1.8641917 0.15595844
-0.80374485 -0.4915409 0.9693031 0.13420014 -0.6888153 0.8398976 0.49552163 0.4868385
-0.46029598 0.43256968 0.028812757 0.44535425 0.28093535 0.009229015 -1.5044556 0.54655427
1.6548878 0.36632535 1.0116162 -0.50355387 0.26922876 0.041676674 -1.8734363 1.6734265
-3.0936985 0.032659594 0.35066214 0.108990386 -0.0030785105 -0.0039640926 -0.009029174 -0.001973725
-0.0005103205 -0.00099595 -0.00062274525 0.024988422 -0.005129383 0.00028139062 -7.871585e-05 -0.041625395
-0.005776256 -0.0013734372 -0.003178835 0.00012686514 0.0046446444 0.0045318124 -0.02460382 0.004568178
-0.003684931 -0.00056101504 0.004840695 -0.0062850975 -0.008643789 0.0016853627 0.0009887138 0.00030749192
-0.006512146 0.043163087 0.001498528 0.011700036 0.006323026 -0.0015150756 -0.0040191277 -8.609907e-05
1.0749004 -1.3614696 2.6206717 3.2271183 -0.168408 -0.16811803 -0.7363579 0.6142081
1.3370496 1.3021139 -0.3178136 -0.63973933 2.3801816 -0.5301764 -0.039156575 0.03083876
-0.28065154 0.7442314 0.79763544 0.043032985 -2.3149729 -1.0524255 0.1416588 -1.0399253
0.5620225 -0.78028333 -1.5062618 0.3795856 1.9578428 -0.33705595 1.352718 0.63993067
-0.70742935 -1.2697899 0.46648866 0.6597026 -0.9297326 0.4712802 0.016075619 -0.03268234
00000000: 1838 94bc 1ade 9a3b 1151 afba b388 c939
00000010: b5c2 08ba 87c3 1ebc ffee 5dbb 896f d33d
00000020: 1f49 d2ba 7ead aabb d3de 08bc 8454 6bbc
00000030: 7dd5 333b 6b88 12bb 6a7f 47bb 3882 3a39
00000040: 836c 4c3b 3ab1 65ba f9b4 d3bd 48e3 e03b
00000050: d226 c5b9 c5c1 403b 701c 003b 7433 173c
00000060: 1671 de3d 01bf 4eba 04a3 6c3a 0f64 4a3a
00000070: 7d9f 5bbb a7e2 083c c2d9 79bb b071 cfbd
00000080: d072 5d3a a43f 01bb 5ae8 033b af6b 573a
00000090: 29b3 1c3c edda 42bb 8c83 523b 14a0 7db9
000000a0: 6296 b13a c349 593c a036 a63b 785d a63d
000000b0: d9e4 6ebb 8506 27bb b476 c03b 5ff8 91bd
000000c0: a783 9dbb 4d87 f83b 04e8 50bb 588d 3ab9
000000d0: 0f09 25bb 701b 663b 8027 a6bd 46df b8ba
000000e0: c489 083c f4bf 38bb 5de4 d4ba 4482 57ba
000000f0: c55b 51bd 18d1 56bb 2b2d 9a39 6d46 37b9
00000100: bff6 1a3b a696 973d ac58 513a 4702 493d
00000110: 5779 013a 5670 da39 7382 c5b9 5f75 933a
00000120: 1d33 b73f 6f0d 1bbf 2225 8ebf 266c ac3b
00000130: bce8 8ebf 1567 ba3f 0f39 7dbf 08b4 12bf
00000140: 00db 03bf 86ab a2bf 0b2e 0f3f 191b fcbe
00000150: 822e 34bf b0d9 803d 6368 3ebf d13a 793e
00000160: da67 5b3e 6716 62bd 1cd6 e2be 9dd2 383f
00000170: 4cab 763e c034 d4be ba50 5a3f 6fb2 613f
00000180: dbc4 f7bd b421 47be 788e 023f bb83 c93d
00000190: a8da ccbe cd34 c7be 4f0d 683f df77 0dbe
000001a0: 12a3 e63e 35de e9be 0ebf 5f3f 08a0 24bf
000001b0: 01f9 38bf f566 1240 d135 f8be 8006 26bf
000001c0: ae85 d23f 8f8f 99bf be7a 2040 228e fdbe
000001d0: c02a 1dbf 7377 87bf 9f3f de3e 35f7 b13e
000001e0: 9eea c3bf b62e e43e 018d 67bf 3200 85bf
000001f0: b8cc 9d3e 3cc5 5ebf e6d0 90be 9d69 a13f
00000200: 3195 7bc0 47b8 3d3e c241 38c0 ae61 ccbf
00000210: 380b 73bf 7702 463f e832 a3bf e0fc 0a3f
00000220: b23a 02bf 1177 963e 47ec 82c0 bf72 95bf
00000230: b356 66c0 98f5 9fbf 18fc bc3e 3aba f4be
00000240: 3780 403b f83b 11bc 8655 13bd 70cb cdbd
00000250: 95c1 77bf 5b5b 18bf d59d ee3f 92b3 1f3e
00000260: 39c2 4dbf 40ab fbbe 3f24 783f c36b 093e
00000270: 3356 30bf 8703 573f 03b5 fd3e e542 f93e
00000280: eaab ebbe c679 dd3e bb08 ec3c 7905 e43e
00000290: c2d6 8f3e 4b35 173c 0092 c0bf fbea 0b3f
000002a0: 5dd3 d33f ff8e bb3e a47c 813f e8e8 00bf
000002b0: 5ad8 893e 29b5 2a3d c3cc efbf d732 d63f
000002c0: 28ff 45c0 11c6 053d fd89 b33e 5a36 df3d
000002d0: d6c0 49bb 38e5 81bb 1aef 13bc 9c59 01bb
000002e0: 07c7 05ba 898a 82ba ba3f 23ba 85b4 cc3c
000002f0: 6214 a8bb 9c87 9339 4014 a5b8 647f 2abd
00000300: bf46 bdbb e804 b4ba 0054 50bb 1a07 0539
00000310: 1a32 983b 997f 943b f38d c9bc a8b0 953b
00000320: e27e 71bb 1511 13ba b19e 9e3b 38f3 cdbb
00000330: ae9e 0dbc 63e7 dc3a bb97 813a de36 a139
00000340: d763 d5bb c7cb 303d 426a c43a 82b1 3f3c
00000350: 6331 cf3b 8095 c6ba e3b2 83bb 1690 b4b8
00000360: 5696 893f a344 aebf 16b9 2740 1b89 4e40
00000370: 2673 2cbe 2227 2cbe f481 3cbf be3c 1d3f
00000380: 7124 ab3f abab a63f 77b8 a2be f5c5 23bf
00000390: e554 1840 a4b9 07bf a562 20bd 91a1 fc3c
000003a0: 8fb1 8fbe f385 3e3f d631 4c3f 5b43 303d
000003b0: 8428 14c0 e1b5 86bf 010f 113e 461c 85bf
000003c0: b5e0 0f3f a6c0 47bf 30cd c0bf 0b59 c23e
000003d0: 989a fa3f 9992 acbe dd25 ad3f 7fd2 233f
000003e0: 171a 35bf 7a88 a2bf 9ad7 ee3e 45e2 283f
000003f0: f502 6ebf a34b f13e 04b1 833c ebdd 05bd

bias f4 [400]
-7.298884e-05 9.332599e-05 0.2816641 0.30524766 -0.02653392 0.00011744294 0.18442516 -0.005983912
0.04803101 0.00027144668 0.00049733475 1.6185615e-05 -0.27020076 7.134326e-05 -3.562425e-05 -8.072109e-06
-0.0001660316 -0.022316052 3.6229656e-05 0.0001924721 0.26698738 -0.15229839 -6.1851235e-05 6.4291826e-06
-5.1569812e-05 0.08074445 0.32266805 0.059569467 -7.313008e-06 -0.00010598587 -6.7231767e-06 -0.00013715326
4.469983e-05 -7.359622e-05 -0.07127454 -1.0809825e-05 4.5752015e-05 0.05132419 0.16823433 0.09787588
-0.0003369042 8.078472e-06 0.00021104637 -8.9198686e-05 -3.8931918e-05 0.00011287977 4.1852938e-05 -0.0010247161
-0.115031675 -9.3650655e-05 3.4632692e-05 0.3380791 -3.634083e-05 -0.02370959 0.00019808242 0.00013582747
-0.018858518 -0.31053132 -0.00014755929 -0.00010452105 0.032700393 -0.38148656 2.1225896e-05 0.00015169912
-0.03750591 -0.16942625 -0.12723266 -0.0016247464 0.16125502 0.041366212 -6.4134874e-05 -5.419069e-05
0.42200968 -2.4026382e-05 0.00013575859 0.00011538386 0.0021791514 6.963539e-05 0.0022857655 0.00016468436
2.3432425e-05 0.02931245 -9.49714e-05 9.96276e-05 0.000110152585 -0.00017512763 9.9741126e-05 -0.30004448
5.2347797e-05 0.00018774888 -2.8083035e-05 3.353773e-05 -9.4339186e-05 -3.5459436e-06 0.00010417516 0.00012755253
0.3850405 -0.0002565242 -0.0001312659 6.156618e-05 0.00012075395 0.000110706154 4.500722e-05 8.1839e-05
0.059243426 0.0047254437 0.000113764574 0.00021669807 0.00011921095 -0.15142795 1.8676034e-05 -0.109812215
7.709923e-05 0.00021202395 -8.304271e-05 -4.75845e-05 0.00014773056 -0.00017033817 7.785574e-05 7.043193e-05
4.3804856e-05 -0.26576635 0.29367942 -8.409822e-05 0.00017313349 0.019205831 0.0026526381 -0.014373244
9.6954456e-05 0.0001371585 9.225933e-05 0.0032048011 -0.080408305 8.034648e-05 0.00019901452 -4.7405565e-06
0.116205804 0.106876604 -5.8280708e-05 3.353376e-05 0.16512305 0.00010052783 0.025213946 0.000105064806
-7.994467e-05 -0.00048834714 -5.3769938e-05 9.9770594e-05 0.00014653637 3.387646e-05 -8.8589195e-06 -0.6087657
-6.234605e-05 0.00012878593 -0.7440245 -0.015973868 -0.00013715724 4.6448087e-05 -0.00015894049 0.00013084301
-0.041701 -0.00011243236 -0.00013821755 0.5070111 -0.017606327 -0.006545933 4.1962514e-05 8.437345e-05
-0.000832945 -7.1749244e-05 -7.195685e-05 0.09637733 0.00012467058 4.7514208e-05 -0.000116088435 0.57344115
-0.0020637691 -0.00013762481 0.00012370039 0.10185021 -0.00013886389 -6.5936065e-06 -9.815397e-05 6.054614e-05
0.06727177 0.0010046903 -0.009693789 0.00012164917 -8.966479e-05 0.005557174 -0.014363205 -5.4690867e-05
-0.0005243955 2.970577e-05 -0.011956018 0.10640643 0.000102580256 -0.097785264 0.00014174853 -1.1281024e-05
-0.012950022 8.468849e-05 6.52371e-05 -8.9156456e-05 -0.00031925502 -0.0004815042 0.91489756 0.0038947533
2.6858814e-05 -1.3854675e-05 4.7335576e-05 0.16758218 2.7569664e-05 -6.466789e-05 0.018818852 0.00019970424
0.56868833 0.0025951816 6.400564e-05 0.013617146 -0.30662405 0.00013678583 0.003206639 0.30601963
-0.00010435057 -0.008784777 0.024691498 -6.1824125e-05 -0.00064633036 -7.2200826e-05 -5.788768e-05 0.00012872477
-0.0028781954 0.0001245208 -0.012388736 -0.34584284 2.0709962e-05 -0.00013952715 -0.00013496002 -7.877606e-05
5.3341835e-05 0.00017964156 -7.961249e-05 -0.00010112536 0.36770985 0.42851874 -4.422025e-05 4.2785745e-05
0.0004676748 0.00010990863 2.7750824e-05 0.17869034 -0.00011665088 -2.0137657e-05 0.018834205 8.995301e-05
00000000: 9611 99b8 02b8 c338 4736 903e 6c49 9c3e
00000010: aa5d d9bc b34b f638 f3d9 3c3e b114 c4bb
00000020: 2abc 443d f550 8e39 925f 023a 58c6 8737
00000030: c157 8abe 1f9e 9538 3f6b 15b8 726d 07b7
00000040: c518 2eb9 27d0 b6bc 4cf5 1738 56d2 4939
00000050: 92b2 883e 1cf4 1bbe 21b6 81b8 42ba d736
00000060: aa4c 58b8 595d a53d bf34 a53e 1dff 733d
00000070: 4362 f5b6 bb44 deb8 a697 e1b6 ccd0 0fb9
00000080: 147c 3b38 ab57 9ab8 63f8 91bd d85b 35b7
00000090: dae5 3f38 5039 523d 9f45 2c3e 2673 c83d
000000a0: 84a2 b0b9 c688 0737 544c 5d39 2e10 bbb8
000000b0: d44a 23b8 ddb9 ec38 408b 2f38 c44f 86ba
000000c0: ba95 ebbd 5066 c4b8 9242 1138 b418 ad3e
000000d0: ab6c 18b8 9d3a c2bc 58b4 4f39 e96c 0e39
000000e0: 2e7d 9abc f6fd 9ebe 25ba 1ab9 5032 dbb8
000000f0: d9f0 053d 3552 c3be 440e b237 6c11 1f39
00000100: cc9f 19bd 137e 2dbe 4749 02be 71f5 d4ba
00000110: 0920 253e 9e6f 293d 2680 86b8 cf4a 63b8
00000120: a711 d83e 438c c9b7 6b5a 0e39 3dfa f138
00000130: 18d0 0e3b 3709 9238 c8cc 153b 1faf 2c39
00000140: c090 c437 aa20 f03c 622b c7b8 29ef d038
00000150: b801 e738 77a2 37b9 1c2c d138 6e9f 99be
00000160: 0590 5b38 75de 4439 dc93 ebb7 ddaa 0c38
00000170: f7d7 c5b8 d9f6 6db6 9d78 da38 9fbf 0539
00000180: 0724 c53e 187e 86b9 6ca4 09b9 171d 8138
00000190: 493d fd38 ea2a e838 22c6 3c38 fba0 ab38
000001a0: 3ca9 723d e5d7 9a3b e494 ee38 7239 6339
000001b0: e400 fa38 ee0f 1bbe 7aaa 9c37 3ae5 e0bd
000001c0: 55b0 a138 bf52 5e39 3727 aeb8 7895 47b8
000001d0: 1fe8 1a39 ce9c 32b9 7b46 a338 dbb4 9338
000001e0: 1bbb 3738 8712 88be 265d 963e e35d b0b8
000001f0: 2b8b 3539 8c55 9d3c e2d7 2d3b c17d 6bbc
00000200: 0754 cb38 34d2 0f39 5a7b c138 a407 523b
00000210: 1cad a4bd b07f a838 8eae 5039 1211 9fb6
00000220: 4ffd ed3d 1fe2 da3d 6f72 74b8 9aa6 0c38
00000230: 0416 293e 78d2 d238 7a8d ce3c 3d56 dc38
00000240: f8a7 a7b8 6c04 00ba 0887 61b8 ee3b d138
00000250: 8fa7 1939 9216 0e38 c5a0 14b7 12d8 1bbf
00000260: c8bf 82b8 b60a 0739 6478 3ebf a1db 82bc
00000270: ded1 0fb9 41d1 4238 43a9 26b9 e732 0939
00000280: abce 2abd aac9 ebb8 7eee 10b9 7bcb 013f
00000290: 253b 90bc 447f d6bb e800 3038 a7f1 b038
000002a0: fe59 5aba 1578 96b8 8ae7 96b8 7a61 c53d
000002b0: 01ba 0239 fe49 4738 8174 f3b8 0acd 123f
000002c0: 4d40 07bb 614f 10b9 92b5 0139 d896 d03d
000002d0: fe9b 11b9 a63e ddb6 03d8 cdb8 ecf2 7d38
000002e0: c8c5 893d d0af 833a b3d2 1ebc e71d ff38
000002f0: 6b0a bcb8 f418 b63b a653 6bbc df63 65b8
00000300: 9677 09ba a830 f937 2de3 43bc 9deb d93d
00000310: 5b20 d738 a443 c8bd 55a2 1439 a143 3db7
00000320: 542c 54bc c99a b138 e7cf 8838 82f9 bab8
00000330: af61 a7b9 6672 fcb9 ba36 6a3f 1e3f 7f3b
00000340: dd4e e137 6071 68b7 308a 4638 aa9a 2b3e
00000350: 6745 e737 4f9e 87b8 fe29 9a3c b367 5139
00000360: 8f95 113f ec13 2a3b c43a 8638 731a 5f3c
00000370: d4fd 9cbe 2b6e 0f39 7a26 523b 9bae 9c3e
00000380: c9d6 dab8 06ee 0fbc d345 ca3c 93a7 81b8
00000390: 7f6e 29ba 866a 97b8 6ccc 72b8 4bfa 0639
000003a0: 1ba0 3cbb cc91 0239 20fa 4abc 5012 b1be
000003b0: 4eba ad37 094e 12b9 0e84 0db9 9334 a5b8
000003c0: 5cbb 5f38 2a5e 3c39 a1f5 a6b8 4413 d4b8
000003d0: 7744 bc3e cf66 db3e 2279 39b8 d874 3338
000003e0: 4032 f539 bf7e e638 71ca e837 9afa 363e
000003f0: 77a2 f4b8 4aed a8b7 314a 9a3c 28a5 bc38

weight f4 [3, 400]
0.00016063421 -0.00015279186 -0.24606681 -0.42544115 -0.7027938 0.00014613244 0.202417 0.049310897
0.16576095 -0.00019247847 -0.00028994624 -7.8240795e-05 -0.4442484 -4.2530555e-06 -9.5369345e-05 0.00022354009
5.3387474e-05 0.12445246 0.00011602405 -7.333707e-05 0.24076712 0.12798722 -0.00018193922 0.00024236956
0.00019288794 -0.0006547612 -0.09745233 -0.08597276 0.00025889644 5.4684995e-05 7.546281e-05 0.00025178504
-7.141121e-05 0.00012581266 0.16333978 9.158236e-05 8.8842215e-05 0.57734036 0.18898542 -0.3018187
0.00044806427 0.00021680951 -0.000105282576 -0.00021101696 0.00018330118 -0.00012882557 6.8472356e-05 -0.00040825413
0.06514181 -1.0778566e-05 -0.00031819628 -0.4077153 -0.00012680911 -0.37503487 -2.8123566e-05 0.00019843857
-0.05506312 -0.6690533 -0.00013137137 9.8334465e-05 -0.118915424 -0.6382272 -0.00028607846 4.065919e-06
0.12609807 -0.536153 -0.51806754 -0.000572327 -0.50024533 0.035158098 7.978802e-06 0.0001481331
-0.4774571 -0.00016329277 -0.00019604075 -0.000180904 -0.004728112 -2.7631435e-05 0.00044622598 -2.3013929e-05
-4.6837184e-05 0.47204652 -3.1428717e-05 -0.00016590294 -6.552816e-05 0.00027670257 0.00021050418 0.8697658
-1.5818796e-05 -0.00022245405 0.00029979847 0.00010415615 0.00013348876 -9.081438e-05 7.047973e-05 0.00012349065
-0.02139617 0.00033191527 4.8030623e-05 -0.0002064581 -0.00022458003 -9.559801e-05 -6.329201e-05 -0.00013159795
-0.18696968 0.068864696 -5.7333935e-05 0.00025604674 -0.00013790846 -0.8206041 0.00033704413 0.19549458
-0.00018228627 -7.0995346e-05 0.00010837605 -0.0002648658 0.0005369574 -9.389838e-05 -0.00015104286 0.0003321666
-0.00022318185 -0.6247545 -0.47305155 0.00023106205 0.0002406898 0.039345276 0.0015021318 -0.045218274
0.00013160182 5.9952894e-05 -0.00023750575 0.0026049074 0.5370139 0.00021931886 6.80947e-05 5.606927e-05
-0.039817095 0.85994256 0.00013467288 0.00029966937 0.39910826 0.0002317596 -0.019041322 -0.00011299462
-0.00022316223 -0.00016176529 0.00013441825 -0.00016019082 0.00021740886 5.5173507e-05 0.000181952 0.09508287
9.2015376e-05 0.00017310322 -0.36110112 0.03249264 0.00015918406 -0.000235997 -3.884929e-05 -0.00022583276
-0.6669549 -0.00013517516 8.104881e-05 0.4113837 0.12862456 0.5523017 -0.00020938988 -0.0002697716
0.0005834236 0.00015280576 -3.0351377e-05 0.6386872 0.00020438006 0.00049660413 -2.0115547e-05 -0.37139526
-0.00026119658 7.344312e-05 0.00018525177 0.62996006 1.7181665e-05 0.00015237315 0.00018304006 -7.5636824e-05
-0.32886243 0.0003627515 -0.09358619 -4.206755e-05 -0.00026349828 0.059083942 -0.11783602 -0.0001858598
0.00015801596 0.0001703057 -0.52328604 0.15634558 0.0001777793 1.0773159 -9.100452e-05 -0.00013355433
-0.0019340105 -0.00020729282 -0.00011786436 -1.0442356e-05 0.00014593636 6.34837e-05 0.6213572 0.07588857
9.376976e-05 0.00013041974 -4.559583e-05 -0.38050157 9.963141e-05 -0.00019440535 0.011864136 -1.9617932e-05
-0.5391745 -0.00018356656 -8.1554004e-05 -0.0378035 0.43939537 -4.94931e-05 0.00060725206 -0.87754536
4.5660898e-05 0.046463657 -0.051169958 0.000225707 0.00024245711 0.0002939496 7.851513e-05 -0.00034780425
0.022854192 8.887161e-05 0.05574338 0.49691886 0.00015403578 -0.0001047408 -4.505702e-05 1.9466892e-05
-7.756993e-05 -0.0001149276 -0.00018617952 0.0003195697 -0.5479536 -0.452777 0.00032027654 -0.00014659596
-0.00033574563 0.00019383259 -0.00018471613 0.8495299 -2.3078012e-06 -0.0001846648 0.031853855 0.0001592988
00000000: eb6f 2839 c136 20b9 f0f8 7bbe 6cd3 d9be
00000010: 4bea 33bf 213b 1939 6746 4f3e 39fa 493d
00000020: 3dbd 293e 0cd4 49b9 ed03 98b9 3515 a4b8
00000030: 8774 e3be 78b5 8eb6 0701 c8b8 1666 6a39
00000040: 5dec 5f38 eee0 fe3d f051 f338 8acc 99b8
00000050: a88b 763e 150f 033e f0c6 3eb9 9524 7e39
00000060: f641 4a39 48a4 2bba 1695 c7bd 7d12 b0bd
00000070: 7ebc 8739 915d 6538 ca41 9e38 0402 8439
00000080: 9ac2 95b8 94ec 0339 8b42 273e e80f c038
00000090: cd50 ba38 94cc 133f 6585 413e fb87 9abe
000000a0: 2bea ea39 5c57 6339 27cb dcb8 6f44 5db9
000000b0: 8934 4039 5a15 07b9 d198 8f38 f10a d6b9
000000c0: 1269 853d 97d5 34b7 95d3 a6b9 0fc0 d0be
000000d0: 10f8 04b9 9204 c0be e6ea ebb7 f313 5039
000000e0: de89 61bd 1447 2bbf bcc0 09b9 ea38 ce38
000000f0: ee89 f3bd dc62 23bf cdfc 95b9 fa6d 8836
00000100: da1f 013e 5341 09bf 13a0 04bf 3708 16ba
00000110: 1410 00bf f001 103d b2dc 0537 2d54 1b39
00000120: 4275 f4be 9239 2bb9 4a90 4db9 0cb1 3db9
00000130: 47ee 9abb 0eca e7b7 70f3 e939 090e c1b7
00000140: 0b73 44b8 15b0 f13e 54d2 03b8 3bf6 2db9
00000150: 2a6c 89b8 6412 9139 c9ba 5c39 f9a8 5e3f
00000160: 9bb2 84b7 8e42 69b9 452e 9d39 686e da38
00000170: 1ef9 0b39 9973 beb8 84ce 9338 457d 0139
00000180: 0547 afbc ea04 ae39 7d74 4938 ad7c 58b9
00000190: 3e7d 6bb9 ca7b c8b8 a4bb 84b8 8efd 09b9
000001a0: fb74 3fbe ef08 8d3d d879 70b8 033e 8639
000001b0: 859b 10b9 1c13 52bf 4cb5 b039 bb2f 483e
000001c0: 1924 3fb9 56e3 94b8 f347 e338 b0dd 8ab9
000001d0: 9ac2 0c3a 4feb c4b8 4261 1eb9 a526 ae39
000001e0: ec05 6ab9 e9ef 1fbf d033 f2be 3f49 7239
000001f0: ad61 7c39 8328 213d 2ee3 c43a cc36 39bd
00000200: 98fe 0939 ee75 7b38 f70a 79b9 18b7 2a3b
00000210: be79 093f f5f8 6539 10ce 8e38 ec2b 6b38
00000220: 4017 23bd 3225 5c3f fa36 0d39 f11c 9d39
00000230: eb57 cc3e 7e04 7339 8cfc 9bbc 86f7 ecb8
00000240: a800 6ab9 8a9f 29b9 a0f2 0c39 e5f8 27b9
00000250: 3ff8 6339 1a6a 6738 5eca 3e39 cfba c23d
00000260: 61f8 c038 0b83 3539 3fe2 b8be 0117 053d
00000270: a5ea 2639 f675 77b9 1cf2 22b8 85cd 6cb9
00000280: 8ebd 2abf cebd 0db9 c0f8 a938 e2a0 d23e
00000290: 28b6 033e a563 0d3f ab8f 5bb9 2270 8db9
000002a0: e5f0 183a 7c3a 2039 169b feb7 0181 233f
000002b0: db4e 5639 8a2e 023a cfbd a8b7 8527 bebe
000002c0: 36f1 88b9 7a05 9a38 2540 4239 1045 213f
000002d0: 5821 9037 5bc6 1f39 71ee 3f39 369f 9eb8
000002e0: a860 a8be af2f be39 1eaa bfbd b071 30b8
000002f0: 2426 8ab9 0102 723d 0354 f1bd 5ce3 42b9
00000300: 16b1 2539 1794 3239 13f6 05bf 0e19 203e
00000310: 446a 3a39 7de5 893f aed9 beb8 b80a 0cb9
00000320: a07e fdba be5c 59b9 f22d f7b8 9431 2fb7
00000330: 7e06 1939 8d22 8538 4411 1f3f 776b 9b3d
00000340: 42a6 c438 48c1 0839 263e 3fb8 1ad1 c2be
00000350: 35f1 d038 4ad9 4bb9 cb61 423c 3091 a4b7
00000360: 5707 0abf c67b 40b9 f907 abb8 d8d7 1abd
00000370: 6ef8 e03e d096 4fb8 ff2f 1f3a d0a6 60bf
00000380: 0484 3f38 ad50 3e3d 9797 51bd c3ab 6c39
00000390: 163c 7e39 3f1d 9a39 7da8 a438 7f59 b6b9
000003a0: b738 bb3c 9560 ba38 2c53 643d 266c fe3e
000003b0: aa84 2139 4aa8 dbb8 9bfb 3cb8 d54c a337
000003c0: 0aad a2b8 4905 f1b8 2f39 43b9 eb8b a739
000003d0: b046 0cbf 63d2 e7be caea a739 8eb7 19b9
000003e0: 0407 b0b9 8a3f 4b39 5cb0 41b9 cb7a 593f
000003f0: b9df 1ab6 94a2 41b9 3079 023d 7209 2739

bias f4 [3]
-0.0033686107 -0.12768912 -0.12697744
00000000: e9c3 5cbb f0c0 02be 6006 02be

weight f4 [400, 3]
9.6016265e-05 5.29516e-05 -1.2733162e-06 -0.00036051543 -0.00029408775 0.0001289413 0.0021463835 0.0019245759
8.4332685e-05 -1.3826364 2.2620778 -1.6699965 0.5875534 -3.8326814 2.8835654 0.0018038916
0.0017899445 0.00028127604 -0.00020151441 -0.00015669146 -7.401867e-05 0.00027410832 0.00031143744 0.00015955992
6.348645e-05 2.7415594e-05 5.3303054e-05 0.00058192806 0.0005130853 7.841276e-05 -0.0002035964 -0.00019065489
-6.703601e-05 -0.12636682 0.15554607 -0.044622306 -0.00057857874 -0.0005522082 -0.00010577765 -0.00029009668
-0.00027852887 -3.732564e-05 -0.0002531676 -0.00022244747 2.500966e-05 -0.00059086346 -0.00062579254 -0.00022938271
-0.2773634 0.06900868 -0.14575915 0.0002244854 0.0002451819 5.7918085e-05 -7.197168e-05 -1.6932121e-05
-2.5004916e-05 2.8931374e-05 3.3560107e-05 -2.3845445e-05 0.014083756 -0.20760618 -0.043457117 -0.0006503376
-0.0006256517 -7.5077725e-05 0.0003135055 0.0003398237 9.640273e-05 0.0002044114 0.00020282096 7.581963e-05
0.0012731804 0.0012943107 0.0003013447 6.460128e-05 7.184721e-05 5.532769e-06 0.55292284 1.5379087
0.7378133 0.16339685 -0.17129588 -0.12497851 -0.6198367 0.90919703 -0.7800595 1.3292422
-0.121148475 -2.696703 -0.00010114136 -0.00012113176 -2.227558e-05 0.0009776298 0.00092069834 0.00017250446
0.00052915764 0.0005174484 -7.841958e-06 1.3317066 -0.09022687 1.6703802 -0.0001931909 -0.00018714179
1.22393085e-05 -7.51761e-05 -8.35689e-05 1.3434885e-05 0.0009137018 0.000819505 -0.00034901183 0.074954346
-0.04057456 -0.048455056 -0.0015786933 -0.0015985692 -0.0002035602 0.00012026548 0.00013092821 -8.969287e-06
-8.283624e-05 -5.8237947e-05 3.707703e-05 1.740268 4.010912 3.5033207 -0.00048049126 -0.00050391955
-0.00022301928 0.0005818913 0.000599165 0.00014364526 -1.9624168 0.32170722 0.58467543 0.1399372
-0.092608996 0.14494744 1.2732284e-05 2.4212586e-05 4.3103773e-05 0.002395329 0.0023505385 0.0003859491
-2.8947943e-06 -2.6945127e-05 1.6234135e-05 0.12229489 -0.11518414 -0.105414756 -0.0008099833 -0.0007025872
0.00032246578 -0.12936535 0.09565984 -0.0021751127 -1.2653594 0.5086054 -0.653338 0.00036434014
0.00038380607 1.5232741e-05 -0.0004208363 -0.00038740784 -6.7150984e-05 0.0005431118 0.0005451332 7.8928366e-05
0.0019447552 0.0018088269 0.00022786009 0.00046796195 0.00040192343 5.608079e-06 -0.00079406076 -0.0005910589
0.00017105685 1.7690188 -1.9885215 -1.4693313 0.5864022 0.6376415 1.8236402 -1.0124364e-05
-1.5230136e-05 -4.1092433e-05 0.0015080364 0.0014464243 9.033464e-05 -0.0005218752 -0.0004799388 -1.10790825e-05
-0.83772916 0.29706275 0.7078919 -0.0017372146 -0.0016669069 -0.00019245542 0.0012582354 0.0011509277
5.866176e-05 -0.00024188063 -0.00029681917 4.6277462e-05 0.0005597882 0.0004423787 -0.00039273122 0.0007508391
0.0007997226 0.0003512691 -8.2440856e-05 -6.295572e-05 -1.1838953e-05 -0.00014190466 -0.00015033552 -7.949111e-06
-0.00014123655 -0.00014472683 -5.4138047e-05 7.19846e-05 0.0001880221 0.00032682627 0.08961609 -0.022025174
-0.14514218 -0.0009352875 -0.0009323632 -0.00017751967 0.0010844342 0.0010019813 0.000101382946 2.0828738e-06
-6.40466e-05 -2.5785317e-05 -0.00019311173 -0.00019317084 -7.806005e-05 -0.00039521232 -0.00040006885 -0.00010008797
0.0004360567 0.00042283826 0.00015360017 -2.0378292 1.2744824 2.3626022 -0.00032593522 -0.00032411935
-1.0885738e-05 0.00013137795 0.000113394985 8.812558e-05 -0.00018589804 -0.00010001441 -4.8574904e-05 0.0020254715
00000000: 575c c938 5918 5e38 d0e6 aab5 9003 bdb9
00000010: ca2f 9ab9 6b34 0739 57aa 0c3b 0d42 fc3a
00000020: c4db b038 3bfa b0bf e2c5 1040 72c2 d5bf
00000030: e669 163f a74a 75c0 568c 3840 8f70 ec3a
00000040: 929c ea3a 3b78 9339 9d4d 53b9 8b4d 24b9
00000050: 793a 9bb8 32b6 8f39 6d48 a339 8a4f 2739
00000060: 0724 8538 8afa e537 b891 5f38 888c 183a
00000070: 9280 063a 8871 a438 7e7c 55b9 88ea 47b9
00000080: af95 8cb8 4e66 01be 7847 1f3e e1c5 36bd
00000090: c3ab 17ba 11c2 10ba f2d4 ddb8 1e18 98b9
000000a0: 8307 92b9 1a8e 1cb8 94bb 84b9 ca40 69b9
000000b0: d6cb d137 2de4 1aba 3a0c 24ba 7486 70b9
000000c0: 9302 8ebe 6c54 8d3d e341 15be d763 6b39
000000d0: c28b 8039 12ed 7238 80ef 96b8 7409 8eb7
000000e0: a6c1 d1b7 a7b1 f237 e4c2 0c38 b407 c8b7
000000f0: 8ebf 663c b796 54be 1700 32bd 6b7b 2aba
00000100: c602 24ba 0c73 9db8 ff5d a439 5d2a b239
00000110: d22b ca38 4457 5639 56ac 5439 5b01 9f38
00000120: d8e0 a63a dca5 a93a cdfd 9d39 8c7a 8738
00000130: adac 9638 20a6 b936 5a8c 0d3f 31da c43f
00000140: 55e1 3c3f 8151 273e 3068 2fbe bcf4 ffbd
00000150: 9ead 1ebf 23c1 683f fbb1 47bf 9c24 aa3f
00000160: b11c f8bd c896 2cc0 db1b d4b8 1e08 feb8
00000170: 72dc bab7 d023 803a 055b 713a 50e2 3439
00000180: 2bb7 0a3a 60a5 073a f490 03b7 5d75 aa3f
00000190: ddc8 b8bd 05cf d53f 4a93 4ab9 7e3b 44b9
000001a0: 6e57 4d37 dda7 9db8 b641 afb8 6466 6137
000001b0: 7d85 6f3a 0dd4 563a 93fb b6b9 aa81 993d
000001c0: 8331 26bd cf78 46bd 28ec ceba 1587 d1ba
000001d0: c672 55b9 0a37 fc38 c649 0939 cb7a 16b7
000001e0: 5eb8 adb8 8544 74b8 2883 1b38 1ac1 de3f
000001f0: 6459 8040 6836 6040 72ea fbb9 7819 04ba
00000200: 48da 69b9 108a 183a 4811 1d3a 7b9f 1639
00000210: 7930 fbbf cfb6 a43e 4aad 153f b34b 0f3e
00000220: c9a9 bdbd 1a6d 143e be9c 5537 221c cb37
00000230: 53ca 3438 f4fa 1c3b 7e0b 1a3b 3659 ca39
00000240: 3044 42b6 3808 e2b7 8a2e 8837 be75 fa3d
00000250: aae5 ebbd b1e3 d7bd 0f55 54ba d42d 38ba
00000260: a010 a939 5a78 04be 4ee9 c33d 568c 0ebb
00000270: 4cf7 a1bf f733 023f 2941 27bf e804 bf39
00000280: 9439 c939 2090 7f37 b1a3 dcb9 001d cbb9
00000290: 69d3 8cb8 9e5f 0e3a 45e7 0e3a 5886 a538
000002a0: 28e7 fe3a 2916 ed3a baed 6e39 ca58 f539
000002b0: 40b9 d239 082d bc36 8428 50ba 4bf1 1aba
000002c0: b95d 3339 356f e23f df87 febf 0c13 bcbf
000002d0: 741e 163f 793c 233f 0b6d e93f d0db 29b7
000002e0: f084 7fb7 aa5a 2cb8 4ea9 c53a f295 bd3a
000002f0: 0a72 bd38 74ce 08ba 4ca0 fbb9 4ce0 39b7
00000300: 6b75 56bf 9c18 983e 6738 353f 40b3 e3ba
00000310: 1d7c daba dccd 49b9 60eb a43a bada 963a
00000320: 960b 7638 56a1 7db9 659e 9bb9 0c1a 4238
00000330: c0be 123a 10ef e739 7ee7 cdb9 f6d3 443a
00000340: 7aa4 513a 8a2a b839 19e4 acb8 1807 84b8
00000350: ea9f 46b7 3ecc 14b9 62a3 1db9 2c5d 05b7
00000360: e618 14b9 d0c1 17b9 4912 63b8 70f6 9638
00000370: cc27 4539 e159 ab39 a488 b73d 236e b4bc
00000380: 27a0 14be 152e 75ba d669 74ba 9324 3ab9
00000390: 9323 8e3a ea54 833a 8e9d d438 80c7 0b36
000003a0: c250 86b8 8c4d d8b7 097e 4ab9 e78d 4ab9
000003b0: 2cb4 a3b8 8034 cfb9 55c0 d1b9 52e6 d1b8
000003c0: 8a9e e439 64b0 dd39 bb0f 2139 cb6b 02c0
000003d0: 3d22 a33f e034 1740 49e2 aab9 90ee a9b9
000003e0: e4a1 36b7 80c2 0939 78ce ed38 0fd0 b838
000003f0: a0ed 42b9 d4be d1b8 e8bc 4bb8 c6bd 043b

bias f4 [400]
-5.363214e-06 -0.00035529135 0.00086578884 -0.046881676 0.5042542 0.00043089635 3.6071207e-05 -0.00010822396
-1.025934e-05 6.0413095e-05 1.0943913e-05 -0.006321598 -9.972362e-05 -2.1426786e-06 -0.00023061481 7.0339374e-05
-0.025676198 5.8230697e-05 3.8001635e-05 1.2697668e-05 -0.008653499 -0.00016906651 5.3061267e-06 1.36788e-07
7.947683e-05 3.673919e-05 0.55258733 -0.011209854 -0.19726631 -0.05418798 -1.196984e-05 0.00014576518
0.00021316009 -0.2878386 -7.988364e-05 -5.613183e-05 0.0009343538 -0.009637368 -0.00035619253 4.4123895e-05
-2.6732683e-05 0.46636364 6.4172804e-05 3.2941054e-05 0.0158929 0.020504765 1.634602e-05 0.0006307446
2.3913995e-05 -0.015277734 -0.0007823193 0.0034266473 -0.24458522 0.00010623189 -8.326662e-05 0.000116032774
0.00046940532 0.00015480713 -0.00060143176 0.30655694 0.03265329 0.00010123037 0.000544942 -0.00021926971
0.29863608 -0.00024466493 0.00053296203 -0.00012360064 0.0008965034 -0.00012333253 2.5294867e-07 -2.758563e-05
-3.994343e-05 -0.00043268618 -0.022876298 -0.00013552076 0.00033762853 0.00010110404 4.5961635e-05 -4.007628e-05
-2.036577e-06 0.18112512 -0.0001201472 -2.5409372e-05 -5.9115337e-06 0.00053990196 -4.422725e-06 0.018666435
-1.4281941e-06 -9.356795e-06 0.0013216885 -1.2908598 -0.24181853 -0.00039367657 3.3327226e-05 0.5751948
3.8671344e-05 -0.00054037466 -8.212913e-05 -0.0001568608 0.25430217 -2.7451559e-05 -0.000192202 -0.00021309197
0.17889178 0.00044552668 -0.007971338 -0.000114114446 5.1444385e-06 -0.12981665 -0.000103171435 0.00048990507
0.0070866058 0.00010344992 -1.7502129e-05 -0.000543006 -5.1817726e-05 0.0001392091 -0.18575332 0.25535354
-8.915579e-05 -7.566763e-06 0.00021169003 -0.2810485 -0.27975243 4.6807785e-05 -3.8839262e-05 0.023551732
-7.141847e-05 -0.00022791914 -1.5409736e-05 -6.9892776e-05 -0.13226408 4.206524e-06 0.001154228 7.1004964e-05
-0.8880337 -3.637606e-06 -0.24308579 -0.041199945 -0.020944178 -0.00011817189 3.4258723e-05 0.00016791098
-0.72485 0.00019658176 -0.006725376 0.7473343 -7.2693176e-05 2.3405113e-05 -0.00022023138 -3.326395e-05
2.3327033e-05 0.016880257 -0.040179465 -2.1114236e-05 2.3501283e-05 -3.1593692e-05 -2.095614e-05 0.0073730163
-0.0001643689 -0.00010966049 0.79820293 5.0843584e-05 2.7047136e-05 0.0014230986 0.00010146314 0.00025290763
0.0004230347 0.00012776413 -0.08496294 0.00011232271 -7.153132e-06 -2.6146936e-05 7.986106e-06 0.44764122
-6.041416e-05 0.00020932112 -4.669695e-06 -0.4161232 0.00023239225 -0.1352476 -0.044637274 0.000665524
-0.00077802327 -0.09624683 -4.947687e-05 -0.24711432 -0.00056100485 -0.00035598216 0.00014358285 -0.00014978222
0.5274492 1.0091646e-05 1.3130034e-05 -0.0006027213 -3.0171122e-06 -0.016249731 -1.0973636e-05 0.96953654
3.763869e-05 -8.678579e-05 0.00014181877 0.365371 0.4151056 0.00020530431 0.6007681 -0.00034183214
0.3396277 -0.14327002 1.2622346e-05 6.419586e-05 -0.33258358 9.529802e-06 0.0034382169 0.3580599
-0.9263723 0.0003047529 -3.0694955e-05 6.332024e-05 -7.0943395e-05 0.7579171 -0.20948137 3.1359843e-05
1.5388716e-05 -0.00014973665 0.0010882624 -0.00027649122 -0.00020174729 -0.0003557474 -0.49699908 0.0001294656
0.4052647 0.16959813 4.1852443e-05 -0.0004400358 5.1978004e-06 -0.24436943 0.24087283 -1.6608057e-05
-5.716002e-05 -0.0004195811 -8.210085e-05 -0.0002085519 -0.00011291803 0.006195433 -5.3548807e-05 -4.0534174e-05
0.00014135012 -0.00034296597 -0.0029414003 0.123348705 -0.0001059951 4.2852258e-05 -6.639116e-05 0.030295925
00000000: a8f5 b3b6 6646 bab9 1bf6 623a 0007 40bd
00000010: ce16 013f eee9 e139 2a4b 1738 4cf6 e2b8
00000020: 881f 2cb7 1164 7d38 c09b 3737 6825 cfbb
00000030: b622 d1b8 f0ca 0fb6 31d1 71b9 2a83 9338
00000040: e456 d2bc bc3c 7438 f263 1f38 1208 5537
00000050: 68c7 0dbc 7247 31b9 480b b236 00e0 1234
00000060: ccac a638 6818 1a38 5d76 0d3f 89a9 37bc
00000070: 2e00 4abe 37f4 5dbd 12d2 48b7 8bd8 1839
00000080: ba83 5f39 955f 93be 3487 a7b8 186f 6bb8
00000090: 6cef 743a 0de6 1dbc 5abf bab9 ac11 3938
000000a0: 0040 e0b7 37c7 ee3e 8394 8638 302a 0a38
000000b0: d431 823c 9cf9 a73c d01e 8937 8e58 253a
000000c0: ea9a c837 764f 7abc 8f14 4dba 9a91 603b
000000d0: 8c74 7abe d0c8 de38 6d9f aeb8 9f56 f338
000000e0: 841a f639 b953 2239 67a9 1dba 08f5 9c3e
000000f0: 75bf 053d a44b d438 70da 0e3a c4eb 65b9
00000100: d4e6 983e 5f46 80b9 7ab6 0b3a cb9a 01b9
00000110: 5303 6b3a d352 01b9 00cd 8734 b067 e7b7
00000120: ee88 27b8 28da e2b9 1367 bbbc 941a 0eb9
00000130: bc03 b139 d107 d438 eec6 4038 9417 28b8
00000140: 20ac 08b6 dd78 393e 89f7 fbb8 3626 d5b7
00000150: b05b c6b6 3588 0d3a eb66 94b6 5aea 983c
00000160: 60b0 bfb5 21fb 1cb7 823c ad3a e53a a5bf
00000170: 479f 77be 6066 ceb9 d6c8 0b38 f73f 133f
00000180: 0a33 2238 eea7 0dba be3c acb8 007b 24b9
00000190: e533 823e c647 e6b7 d589 49b9 7171 5fb9
000001a0: 682f 373e 9495 e939 379a 02bc ba50 efb8
000001b0: 649e ac36 a8ee 04be be5d d8b8 f96c 003a
000001c0: c236 e83b 41f3 d838 89d1 92b7 8458 0eba
000001d0: dc56 59b8 a9f8 1139 1e36 3ebe b3bd 823e
000001e0: 26f9 bab8 00e6 fdb6 1cf9 5d39 97e5 8fbe
000001f0: b63b 8fbe 7a53 4438 57e7 22b8 90ef c03c
00000200: 80c6 95b8 94fd 6eb9 2844 81b7 6693 92b8
00000210: 3c70 07be c425 8d36 7749 973a 80e8 9438
00000220: 2d56 63bf 981d 74b6 7beb 78be 46c1 28bd
00000230: 2093 abbc 0dd3 f7b8 06b1 0f38 4311 3039
00000240: c58f 39bf 8421 4e39 8b60 dcbb 4d51 3f3f
00000250: da72 98b8 1956 c437 e9ed 66b9 e584 0bb8
00000260: 6cae c337 7748 8a3c 3993 24bd 7a1e b1b7
00000270: 9f24 c537 7883 04b8 f8ca afb7 5899 f13b
00000280: 715a 2cb9 87f9 e5b8 0757 4c3f e240 5538
00000290: 48e3 e237 4487 ba3a 9cc8 d438 b098 8439
000002a0: c2ca dd39 6cf8 0539 0d01 aebd cc8e eb38
000002b0: f004 f0b6 1e56 dbb7 10fc 0537 3b31 e53e
000002c0: 3665 7db8 367d 5b39 60b0 9cb6 1a0e d5be
000002d0: 52ae 7339 597e 0abe 93d5 36bd 8f76 2e3a
000002e0: 42f4 4bba 0f1d c5bd 6285 4fb8 890b 7dbe
000002f0: 6610 13ba 1ea3 bab9 ba8e 1639 dc0e 1db9
00000300: e906 073f 4a4f 2937 1149 5c37 f1ff 1dba
00000310: 9879 4ab6 281e 85bc 681b 38b7 8c33 783f
00000320: 3cde 1d38 c400 b6b8 30b5 1439 e811 bb3e
00000330: b988 d43e f546 5739 f0cb 193f ef37 b3b9
00000340: afe3 ad3e 60b5 12be 90c4 5337 e4a0 8638
00000350: 6548 aabe 30e2 1f37 b553 613b a153 b73e
00000360: bc26 6dbf 3ec7 9f39 75be 00b8 ccca 8438
00000370: 72c7 94b8 db06 423f 4982 56be 6088 0338
00000380: 0417 8137 a002 1db9 07a4 8e3a 06f6 90b9
00000390: 208c 53b9 9c83 bab9 aa76 febe 28c1 0739
000003a0: db7e cf3e 22ab 2d3e b88a 2f38 9bb4 e6b9
000003b0: c468 ae36 fb3b 7abe 5ea7 763e 8851 8bb7
000003c0: 1bbf 6fb8 39fb dbb9 8f2d acb8 b9ae 5ab9
000003d0: 68ce ecb8 0f03 cb3b 9899 60b8 3d03 2ab8
000003e0: 6237 1439 1dd0 b3b9 82c4 40bb 3f9e fc3d
000003f0: b049 deb8 43bc 3338 7c3b 8bb8 292f f83c

weight f4 [36, 400]
-0.0018595486 0.0012650552 -0.003101919 -0.0127888555 0.035129055 -0.0004913904 0.0019540177 0.0001919745
-0.0032439409 -0.0017139504 0.000759531 0.017489169 0.0022517727 0.001552984 0.0001662534 0.0024886252
0.029046005 0.00032093748 0.0022241073 0.0016086777 0.02835028 0.0011936411 0.00036064727 -0.0017113126
-0.0013710608 0.00019424416 0.033307943 -0.082284294 -0.041351344 -0.031154376 -0.0007200922 -0.0033848924
-9.811012e-05 0.00053323456 -0.0007745894 -0.0013263595 -0.00017044884 -0.033720024 0.0020146344 0.0015664445
-0.0009002716 -0.015553769 0.0009909286 0.0003263636 0.03377271 -0.12325649 -0.0009818665 -0.0015688497
-0.0018989769 -0.03120451 0.0013073712 0.0779513 0.0015967668 0.0013810799 0.0015110904 -0.00016671504
0.0003730508 -0.00012789054 0.0034688835 -0.007098399 -0.04399092 -2.9291485e-05 -0.0020258022 -0.0009766977
0.033595324 -0.0005200213 -0.004327973 -0.0043606577 -0.00064040435 -0.00012472586 0.0018759175 -8.3637315e-05
0.00065308076 -0.0004776485 -0.010520713 0.00090495544 -0.0011452336 -0.0028203633 0.0005118678 0.0012293995
-0.0017050684 -0.011373634 0.0002807777 -0.0027724432 0.0047199475 -0.0022723726 0.0025488809 -0.08293983
0.00046263888 -0.0017542113 -0.0007576409 -0.011446469 0.011730723 0.0019208805 -0.0009915783 0.013243542
0.0008766814 0.0009048803 -0.0026665293 -0.0031417562 0.001216342 0.0011652934 0.0048961067 -0.0032743826
-0.05420671 -0.0007085596 -0.040402316 0.0020131606 -0.00073113997 0.08948165 0.00034728256 0.0005844925
0.0037178318 -7.6685974e-05 0.0018998793 -0.0003731888 -0.0010542517 -0.0019159495 -0.02419551 0.08353822
-0.00045177576 0.0016923829 0.0001627346 -0.027480876 -0.008568877 0.004859372 -0.0010313182 0.03750082
0.00084579235 0.0012885198 0.0011309689 -0.003311051 0.0384316 0.00038259375 -0.06263882 0.00035524758
-0.01309996 0.0007180715 0.01384039 0.00081167533 -0.0011146069 2.4729875e-06 0.00044904178 0.003586137
-0.10743988 -0.003371414 -0.048011053 -0.020682856 0.00026612479 0.0016365387 -0.0013050992 0.0022707353
-0.0009478203 -0.069491215 -0.020346774 0.00031094588 0.0013299267 0.00051978335 0.0018559493 -0.016616123
0.00083733373 -0.0009996729 -0.053249836 -0.00021329153 -0.0022206628 0.0131390225 0.0039004157 0.0007400552
-0.0003989073 -0.0013572633 -0.07930786 -0.0010929622 0.0016060021 0.0014527827 0.0004159957 0.016307643
-0.0015120202 -0.0007531495 0.00039163014 0.0012417671 0.0007793238 -0.015620204 0.0029753305 0.0008533869
-0.0011635086 0.06045503 0.0014394046 0.0048097703 -0.0001341049 0.001861897 0.0040365537 -0.0012467422
-0.028344579 0.0020211204 -0.00088038424 0.0029181142 -0.00012337184 0.078768976 -0.0005856987 0.012084429
0.0015665478 -0.00027133207 0.0010459623 0.00775226 0.13591604 0.0030229902 0.030209273 -0.0015944747
-0.035728544 -0.010628723 -0.0006195172 -0.00085606513 0.10302812 -0.00063617603 -0.13487689 0.012242838
-0.009626538 -0.0008186824 -0.0017372395 -0.003410134 0.0025017334 0.010560775 0.075932205 -0.0007903775
0.0011585513 -0.0052538803 0.00039196495 0.0017798817 -0.0010395149 0.00095587916 0.0054433024 -0.0018786502
-0.006315014 -0.0052170674 -0.0023198263 -0.00026055746 -0.0015029162 0.09422669 -0.006513243 -0.00028876503
-0.0017185807 -0.00050894683 -0.0018489629 -0.003367533 -0.003118244 -0.05187443 0.00016720923 -0.0026719223
0.00024868498 0.002838919 0.08642742 -0.0039999117 0.0006606177 -0.00085776765 0.0018107136 -0.073835135
00000000: 19bc f3ba 35d0 a53a 9149 4bbb 5988 51bc
00000010: 7ce3 0f3d a7d0 00ba fa0e 003b c34c 4939
00000020: 4c98 54bb a2a6 e0ba 431b 473a 7245 8f3c
00000030: 7a92 133b 7f8d cb3a 4f54 2e39 3418 233b
00000040: e3f1 ed3c 8043 a839 54c2 113b 44da d23a
00000050: d93e e83c f373 9c3a 4215 bd39 1f4e e0ba
00000060: 2bb5 b3ba 05ae 4b39 e96d 083d ab84 a8bd
00000070: 0760 29bd 7637 ffbc 92c4 3cba 12d5 5dbb
00000080: 78c0 cdb8 c4c8 0b3a d10d 4bba 3dd9 adba
00000090: 83ba 32b9 021e 0abd f507 043b 2851 cd3a
000000a0: 3400 6cba 3cd5 7ebc 0ce2 813a c81b ab39
000000b0: 4155 0a3d e66d fcbd f9b1 80ba dca1 cdba
000000c0: 17e7 f8ba 9aa0 ffbc 195c ab3a eea4 9f3d
000000d0: 9a4a d13a 5a05 b53a c80f c63a 3ad0 2eb9
000000e0: 0896 c339 5b1a 06b9 3556 633b b099 e8bb
000000f0: d32f 34bd fcb6 f5b7 52c3 04bb 8904 80ba
00000100: 409b 093d 0a52 08ba abd1 8dbb d9e3 8ebb
00000110: cfe0 27ba d8c8 02b9 59e1 f53a 7166 afb8
00000120: 8233 2b3a e56c fab9 125f 2cbc 883a 6d3a
00000130: aa1b 96ba d8d5 38bb de2e 063a cd23 a13a
00000140: 9a7c dfba 7b58 3abc 5835 9339 e1b1 35bb
00000150: caa9 9a3b 16ec 14bb 200b 273b 5cdc a9bd
00000160: 578e f239 90ed e5ba 6c9c 46ba f989 3bbc
00000170: 3832 403c 0ec6 fb3a d9f7 81ba 71fb 583c
00000180: 18d1 653a 7d35 6d3a f0c0 2ebb ece5 4dbb
00000190: aa6d 9f3a c2bc 983a 856f a03b 0697 56bb
000001a0: db07 5ebd a1be 39ba e67c 25bd 3bef 033b
000001b0: f9a9 3fba 2842 b73d 7a13 b639 a138 193a
000001c0: dea6 733b 78d2 a0b8 5f05 f93a 8ea8 c3b9
000001d0: d12e 8aba 9920 fbba aa35 c6bc 1616 ab3d
000001e0: 51dc ecb9 f2d2 dd3a bda3 2a39 931f e1bc
000001f0: 7a64 0cbc 5e3b 9f3b 4c2d 87ba 769a 193d
00000200: 2ab8 5d3a 8de3 a83a 053d 943a 38fe 58bb
00000210: 746a 1d3d dd96 c839 c848 80bd 8640 ba39
00000220: 37a1 56bc f63c 3c3a cec2 623c 9cc6 543a
00000230: 0018 92ba 9af5 2536 5e6d eb39 6505 6b3b
00000240: 7109 dcbd f1f2 5cbb 3da7 44bd 186f a9bc
00000250: aa86 8b39 2081 d63a dd0f abba 9ed0 143b
00000260: 2577 78ba 6951 8ebd 47ae a6bc 7306 a339
00000270: ef50 ae3a 1242 083a 5343 f33a 891e 88bc
00000280: 8480 5b3a 7507 83ba 801c 5abd 02a7 5fb9
00000290: 8a88 11bb 0e45 573c 1e9e 7f3b 4400 423a
000002a0: 6e24 d1b9 33e6 b1ba 296c a2bd ba41 8fba
000002b0: 7d80 d23a 4c6b be3a ff19 da39 9b97 853c
000002c0: fb2e c6ba 026f 45ba b553 cd39 cac2 a23a
000002d0: 894b 4c3a e2eb 7fbc c3fd 423b d3b5 5f3a
000002e0: df80 98ba b29f 773d 67aa bc3a 479b 9d3b
000002f0: 839e 0cb9 e50a f43a 1145 843b ba69 a3ba
00000300: e432 e8bc c674 043b 96c9 66ba d53d 3f3b
00000310: 605d 01b9 a151 a13d 9389 19ba c5fd 453c
00000320: 9f54 cd3a 9341 8eb9 ac18 893a ac06 fe3b
00000330: 932d 0b3e 5c1d 463b 7079 f73c b1fd d0ba
00000340: 1858 12bd 1824 2ebc 1867 22ba 8f69 60ba
00000350: 6800 d33d 0dc5 26ba 2b1d 0abe 2f96 483c
00000360: a0b8 1dbc d99c 56ba 16b4 e3ba 8e7c 5fbb
00000370: 1ff4 233b 1a07 2d3c 5882 9b3d 5631 4fba
00000380: 88da 973a be28 acbb a580 cd39 eb4a e93a
00000390: 5540 88ba f793 7a3a bb5d b23b 0a3d f6ba
000003a0: 2dee cebb eff3 aabb 3a08 18bb 6e9b 88b9
000003b0: 80fd c4ba ecf9 c03d 0b6d d5bb 6365 97b9
000003c0: 0042 e1ba d86a 05ba e658 f2ba d4b1 5cbb
000003d0: 745b 4cbb 487a 54bd e354 2f39 6b1b 2fbb
000003e0: ef61 8239 280d 3a3b dc00 b13d b111 83bb
000003f0: 4e2d 2d3a d0db 60ba 7755 ed3a e036 97bd

bias f4 [36]
0.004949422 -0.10707699 0.06413486 0.12258601 -0.02552572 0.033411756 -0.076228194 0.034339935
0.19832008 -0.082158394 -0.043546166 0.03173527 0.045998618 -0.061144814 0.058241308 -0.28264228
-0.022867963 8.55553e-05 0.025619116 0.010438131 -0.14071712 -0.038496584 0.016206874 0.022918314
0.07519371 0.03633293 -0.020100694 0.15349837 0.15485115 0.03327769 0.10473999 0.076127596
-0.05084911 0.020461107 -0.11273894 0.040959224
00000000: c32e a23b 2e4b dbbd 2359 833d 600e fb3d
00000010: 511b d1bc c4da 083d 871d 9cbd 08a8 0c3d
00000020: 6b14 4b3e a942 a8bd 775d 32bd d8fc 013d
00000030: 0c69 3c3d fc72 7abd 708e 6e3d 7db6 90be
00000040: 9855 bbbc 276c b338 2edf d13c b204 2b3c
00000050: 2618 10be 98ae 1dbd 47c4 843c 30bf bb3c
00000060: 29ff 993d d7d1 143d 36aa a4bc ad2e 1d3e
00000070: 4d91 1e3e 304e 083d eb81 d63d c9e8 9b3d
00000080: 2847 50bd 0d9e a73c ace3 e6bd dcc4 273d
