data/results/random_unitary/L=20/obs_t=0.0/latent-2_epochs-50000.dat_min_loss.net.pkl (torch_old, 134992 bytes, 8 tensors)

weight f4 [400, 36]
000000 73 97 ff bd 42 6e 4d 3c 7d 7d 55 3d 5b 34 1e be
       -0.124800585 0.012538495 0.052121628 -0.1544966
000010 a4 57 e4 3c 8b c2 89 3d 66 ec 83 bd e8 99 19 3e
       0.027873822 0.06726559 -0.06441574 0.15000117
000020 a7 66 b9 bc 9b 37 8c bd 66 9d 0a 3d 75 14 dd bd
       -0.022631956 -0.068465434 0.033841513 -0.107949175
000030 64 ce 28 3e 07 fa 78 bd 46 c4 26 3e 0b d0 26 ba
       0.16484982 -0.06078532 0.1628581 -0.0006363398
000040 7f 67 dc 3d ac b4 04 be 21 e4 67 bd d5 20 8c bc
       0.10761928 -0.12959546 -0.056614045 -0.0171055
000050 3e e6 94 bc a9 e8 0f be 1a d9 a1 3d 8a ab 18 3e
       -0.018176194 -0.14053597 0.07902737 0.14909187
000060 48 2b 04 3e 33 a8 b0 3d 5d 90 f6 3d f0 d5 15 39
       0.12907135 0.086258315 0.12039254 0.00014289445
000070 f8 ba a5 3d 55 8d ae bd 05 23 95 bd 7b 8a a5 bd
       0.08092302 -0.08523051 -0.0728207 -0.08083054
000080 c5 b1 29 be 15 ca e1 bd d1 8a 78 3d e0 b2 3c 39
       -0.1657172 -0.11024872 0.06067926 0.00017995713
000090 75 7e 00 be df c8 e2 3d 30 a9 27 bb 65 22 8f bd
       -0.1254824 0.11073469 -0.0025583021 -0.06988982
0000a0 5d fd 76 bd 40 9e 22 be 34 89 16 be 47 5d 16 3e
       -0.06030022 -0.1588068 -0.14700776 0.1468402
0000b0 7e e6 c1 3d 9f b4 07 bd 0e 36 00 be 74 24 d3 bd
       0.09467791 -0.033131238 -0.1252062 -0.10309687
0000c0 29 7f 2e 3d 6a 81 4a 3d e7 73 d8 bd 3d 1c 2d 3a
       0.042601738 0.049439825 -0.105689816 0.0006603634
0000d0 57 0f e4 3d 29 65 e4 bc a0 5a 7e bc 53 a9 02 be
       0.11135738 -0.027880268 -0.015524536 -0.12759905
0000e0 2a c4 08 be 3d 0e ff 3c 0d 6e 1a 3e 06 6f a2 bd
       -0.1335608 0.031134719 0.15081044 -0.07931332
0000f0 c3 2c ac bd e0 d5 1e 3d 13 94 02 3d 7b b1 71 b8
       -0.08406975 0.038778186 0.031879496 -5.762417e-05
000100 f5 c6 77 3b 93 d5 2c 3d 2c 83 05 3e 6c 07 84 3c
       0.0037807797 0.042195868 0.1303832 0.01611682
000110 70 02 4c bd 31 53 ab 3c 61 5c 97 3d ac b2 0a b9
       -0.049807012 0.020913692 0.07390667 -0.00013227266
000120 59 74 b5 bb b7 aa f2 3d 8b 52 24 3e db a6 89 3c
       -0.0055375514 0.118489675 0.16047113 0.016803196
000130 e5 6b 3f bd 31 04 8a bd b2 7a ef 3d 88 05 d5 bd
       -0.046733756 -0.06739081 0.11693324 -0.104014456
000140 b0 a7 29 bd 33 8d 7b bd 36 f0 fa bc 70 d4 0c be
       -0.041419685 -0.061413955 -0.03063212 -0.13752913
000150 47 da 14 be 0b fe ca bd 4a 88 05 bd 6d 2d 81 40
       -0.14536391 -0.09911736 -0.03260068 4.036795
000160 55 a2 d2 bd 4e 01 05 3e b6 85 d4 3c 67 2d da bd
       -0.10284869 0.12988779 0.025942665 -0.10653191
000170 46 2b d8 3d cd 79 e8 3c 16 ac bd bc d8 4f ae 3d
       0.10555129 0.028378392 -0.023153346 0.08511323
000180 2a 68 05 be 49 ce 1e be b2 ac 68 bd 40 70 79 be
       -0.13028017 -0.15508379 -0.05680532 -0.24359226
000190 01 a7 c4 bd 32 a2 0c bd 6b bd 00 3e 1d ff 16 be
       -0.09602166 -0.03433437 0.12572257 -0.14745755
0001a0 c8 51 9f bc 4e 39 f5 bc 50 11 be bd 8a b0 85 bf
       -0.019448176 -0.029934552 -0.09280646 -1.04445
0001b0 2b 25 8e 3d 5b f8 84 bd a6 61 5b bd b6 26 49 bd
       0.06940683 -0.064926825 -0.05355992 -0.049109183
0001c0 71 0d 02 3e 13 1a 26 be bd 70 5e 3c 4c 12 89 bd
       0.1270044 -0.16220884 0.013576684 -0.06692943
0001d0 58 3d 03 be cb 54 f0 3c 18 53 26 3e 85 48 55 3c
       -0.1281637 0.029337307 0.16242635 0.013017778
0001e0 66 33 07 3e c8 15 fb bc 59 90 b0 bd 6a 0f 9f 39
       0.132032 -0.030650035 -0.08621282 0.00030338328
0001f0 d3 90 22 3c 21 32 4b bd c2 f2 14 3e 42 ef b7 3d
       0.009922224 -0.049608354 0.1454573 0.08981182
000200 ea 1d 12 3e a6 cc f6 bd f8 49 23 be 8b a2 1b 3c
       0.14269224 -0.12050752 -0.15946186 0.0094992025
000210 6f 32 2a 3e 2f 21 13 3e df a3 bd bd fb 63 6b b8
       0.16620801 0.14368127 -0.092597716 -5.612148e-05
000220 76 d1 16 3e 0f 80 26 bd 20 0c bb 3d 56 aa 54 bd
       0.1472834 -0.04064947 0.09133172 -0.051920258
000230 fe 5a 52 3c 69 1e 05 3c f0 c1 85 39 36 4d af b8
       0.012839077 0.008124926 0.00025512232 -8.359032e-05
000240 30 f3 e8 bd 4b 0c 98 bd b5 2d 86 bc dd d1 71 bd
       -0.11374509 -0.0742422 -0.016379217 -0.05903803
000250 ed 33 3d bd e1 4c 9d 3d b3 d1 22 3e b0 5a 26 3c
       -0.0461921 0.07680679 0.15900306 0.0101534575
000260 62 f3 9e bd 0c be 12 3d b1 40 4d bd bf 12 b0 3d
       -0.07761265 0.035825774 -0.050110523 0.085973255
000270 ca 8a 0a be 60 d2 13 be ba 3b 01 3d 03 d6 cd 39
       -0.13529506 -0.1443572 0.0315511 0.00039260098
000280 86 58 5f bd 27 75 a6 bd 97 87 ef bd c5 d5 0e 3e
       -0.054527782 -0.08127814 -0.116957836 0.13948734
000290 2d 8a 42 3c a9 b0 b3 bd 63 eb 7b 3d 86 18 99 bb
       0.011873764 -0.087739296 0.06150378 -0.004672113
0002a0 b3 5b 97 bd dc a8 bf bd a9 79 07 bc 74 dc f4 b8
       -0.07390537 -0.09358379 -0.008268752 -0.00011675889
0002b0 91 d4 fe 3d 0d c4 d9 bb 49 f8 9b bd f0 cf 62 bd
       0.124428876 -0.0066456855 -0.07615716 -0.055374086
0002c0 b7 03 0e be 0a a6 a2 3d e7 9e 47 bd 4c 5c ef b8
       -0.13868605 0.07941826 -0.048735525 -0.000114136
0002d0 eb 30 cd 3d 07 41 bf bd 02 65 ff bc 68 33 f2 bd
       0.10019096 -0.09338575 -0.031176094 -0.11826211
0002e0 12 d7 c0 bd 63 64 c5 3d 72 25 03 bc dc 41 65 3d
       -0.094160214 0.09638288 -0.008004533 0.05597101
0002f0 e5 6b c4 bd 15 53 0e 3e 3b 5b e8 3d 55 0e 85 3d
       -0.09590892 0.13898881 0.11345526 0.06496874
000300 38 20 ea 3d f0 6b 07 be 09 0d 82 3d 9b cb 2d 3a
       0.114319265 -0.13224769 0.063501425 0.0006629766
000310 e5 fe 20 3e 58 96 60 bd 3d 10 d1 3b 9e 0a a2 3d
       0.15722235 -0.05483088 0.0063801096 0.07912181
000320 7a 3c 22 3e f9 46 9b bd d0 46 45 3d 8f 74 e5 3d
       0.15843382 -0.07581896 0.048163235 0.112038724
000330 5c 5a 94 bd 82 74 4c bc d1 6c 27 3e 41 71 bd b8
       -0.07243797 -0.0124789495 0.16350104 -9.0333175e-05
000340 d6 e6 6c bc e9 59 19 3e b6 1d e2 bc 13 60 55 bd
       -0.014459332 0.14975704 -0.027602058 -0.052093577
000350 94 5e 94 bd a0 fe 7b bd 92 9d eb bc 0a b3 42 b9
       -0.07244602 -0.061522126 -0.028761659 -0.00018567979
000360 03 38 43 ba 30 6c 1c 3e b1 ce b2 3d e0 19 10 be
       -0.0007447006 0.15275645 0.087308295 -0.1407237
000370 7e 75 0a be 33 95 3c bd a4 44 66 bd 0b 66 05 be
       -0.13521382 -0.046040725 -0.056217805 -0.13027208
000380 a6 ba 26 3e 88 3c 52 3d 80 bf ad 3c a8 87 17 be
       0.16282138 0.05132726 0.021209478 -0.14797843
000390 27 2a 0f 3d 14 af 8e bd 71 91 09 be 9e 73 2b 3a
       0.03495231 -0.06966987 -0.13434388 0.00065403606
0003a0 d3 b0 50 bd 92 ff c2 3d b6 a5 59 3d 84 c6 85 bd
       -0.050949883 0.095214024 0.05313655 -0.065320045
0003b0 2c 72 8d 3d 0e d8 a7 bd 2f da 05 3d 1a a5 4a bd
       0.06906542 -0.08195506 0.03267878 -0.04947386
0003c0 84 3f 0c bd ba 77 c3 3d 34 79 11 be 42 0b 0a b9
       -0.03424026 0.095443204 -0.14206392 -0.000131649
0003d0 d0 7e 6a 3d 10 6d 1e 3e 2d 6c 8d bd 8c dd 32 3d
       0.057249844 0.15471292 -0.069053985 0.043668315
0003e0 a9 2a a7 3b 7f 22 9e 3d e1 86 c6 bd 2a 27 08 b9
       0.005101521 0.07721423 -0.09693695 -0.0001298456
0003f0 67 ac 24 be bb c5 91 bd f0 eb 19 be 93 43 5e bd
       -0.16081391 -0.07117792 -0.1503141 -0.054263663

bias f4 [400]
000000 51 f8 70 39 ce c5 62 b9 4a c1 88 40 02 e6 da b8
       0.00022980689 -0.00021626728 4.273595 -0.00010437892
000010 ae b1 1f b9 03 42 6b b9 42 80 50 b9 2c c2 82 39
       -0.00015229612 -0.00022435938 -0.00019884206 0.00024940202
000020 67 c3 16 39 fd b2 69 b9 85 ff 19 b9 d4 03 4d b9
       0.00014377908 -0.0002228729 -0.00014686405 -0.0001955175
000030 79 e1 fb 3e 23 aa 98 39 08 46 46 ba 44 cc 46 b9
       0.4919546 0.0002911846 -0.0007563536 -0.00018958846
000040 c5 92 4e 3f 92 c1 13 b9 66 15 a0 b9 d2 75 12 b9
       0.806927 -0.00014091123 -0.0003053352 -0.00013967537
000050 5d 04 ae b9 52 44 8e b9 9d 3b a0 b9 5e c4 19 39
       -0.00033191117 -0.00027135253 -0.00030561993 0.0001466437
000060 a4 ce 5b b9 40 9b 8e 39 81 d8 00 3a 64 2a e5 3f
       -0.00020962447 0.0002720002 0.0004915074 1.7903562
000070 28 f8 48 b9 00 2f 15 39 44 39 1c 39 92 65 8b 39
       -0.00019165932 0.00014227256 0.00014898652 0.00026587822
000080 7e 26 60 b9 ae 56 f5 39 df 10 61 b9 6a dd 4a 38
       -0.00021376644 0.00046794623 -0.00021463957 4.836676e-05
000090 88 7c 76 b9 be 38 72 b9 1b d6 f0 b8 5d bd 1c bf
       -0.0002350678 -0.00023100057 -0.00011483972 -0.61226445
0000a0 d3 c0 7c b9 a8 92 a6 37 22 c5 78 b7 bc 1b 48 b9
       -0.00024104425 1.9857034e-05 -1.48278505e-05 -0.00019083818
0000b0 d0 12 56 39 34 a7 34 39 ed fe 79 b9 ce 2c 66 b9
       0.00020415639 0.00017228426 -0.00023841458 -0.000219512
0000c0 50 f6 83 b9 d2 e3 33 b9 ac 3b da 39 07 c5 0d 40
       -0.00025169784 -0.0001715564 0.0004162466 2.2151506
0000d0 f2 fd 14 39 4a 18 d4 39 da 2d b1 b9 97 0f 57 39
       0.00014208982 0.00040453888 -0.00033794233 0.00020509805
0000e0 06 4f 6d b8 d3 4e 5d 39 ca 55 71 b8 75 f5 60 b9
       -5.65788e-05 0.00021105567 -5.7538775e-05 -0.00021453745
0000f0 74 29 8f b9 61 3d 19 39 18 fe 32 39 a7 0f 75 b7
       -0.0002730597 0.00014614082 0.0001707006 -1.4606782e-05
000100 40 22 04 b9 3c 57 0e 39 da 8a 8d bf f0 13 ff 38
       -0.0001260126 0.00013574673 -1.1057999 0.00012163061
000110 6f b2 15 b9 10 57 13 39 61 8a 6d 39 43 2c 88 39
       -0.00014276219 0.00014051446 0.00022653631 0.0002597292
000120 e6 70 37 3f 08 43 8d 39 cd 90 05 b9 27 3f 98 39
       0.71656644 0.00026943558 -0.00012737811 0.0002903875
000130 34 46 95 b8 2b 82 a3 39 36 68 54 39 5f 36 12 39
       -7.11795e-05 0.00031186765 0.00020256717 0.000139439
000140 36 ce 21 39 fc b1 f0 b6 3f 34 5c b9 50 3f 11 39
       0.00015430976 -7.1732775e-06 -0.00021000298 0.00013851863
000150 cc c1 02 39 44 60 2c 39 5b 44 25 39 9b 1e 4d b9
       0.00012469961 0.0001643906 0.0001576109 -0.00019561725
000160 eb fe 5c 39 4a bc 67 39 8e 4a a7 b9 3d 1c 26 b9
       0.000210758 0.0002210002 -0.0003190827 -0.00015841513
000170 58 2d 82 b9 ff dd a9 39 eb 99 8e b9 a0 6a 86 b9
       -0.00024829316 0.00032399592 -0.00027199028 -0.00025637913
000180 45 a0 0f b9 84 93 0a b9 54 ea 84 39 db b8 4e 39
       -0.00013697248 -0.0001321566 0.0002535159 0.00019714555
000190 4a b5 02 b9 e8 d1 4f 39 02 26 1c b9 6c df c0 35
       -0.00012465302 0.00019819255 -0.00014891478 1.4370139e-06
0001a0 db b6 bb b9 b6 08 a1 39 45 94 6b b9 f3 da 76 39
       -0.00035803657 0.00030714803 -0.00022466581 0.00023541953
0001b0 8b e8 b8 b9 f7 39 b0 39 6f 5b 7a bf dc 7b b9 39
       -0.00035268473 0.00033612523 -0.97795767 0.00035378232
0001c0 a2 4e f6 b9 80 05 6a be 0f dc bb b9 08 51 69 b9
       -0.00046979362 -0.2285366 -0.00035831376 -0.00022250798
0001d0 0b 51 af 38 8c 83 42 3a 5b 80 8f bf 80 be 37 b9
       8.359746e-05 0.00074201147 -1.1211046 -0.00017523207
0001e0 64 d3 9e b9 32 fc a4 3f a6 a3 74 3f 05 05 72 39
       -0.00030293607 1.2889464 0.9556221 0.00023080788
0001f0 62 6f 50 39 f3 9b 7d b9 2c b3 23 b9 8e 5b 39 39
       0.00019877919 -0.00024186056 -0.00015611638 0.00017677082
000200 ae 3e a0 b9 e6 4b 96 39 9a b9 af 39 29 8c 53 c0
       -0.00030564278 0.00028666778 0.00033516885 -3.3054297
000210 8a de 15 b9 ad ed 9c 39 85 99 5a b9 04 ef 94 39
       -0.0001429265 0.0002993172 -0.0002084729 0.0002840684
000220 d3 10 1d 39 f8 14 17 39 19 cb 5c b9 9b 04 9b 39
       0.00014978954 0.00014408294 -0.00021056495 0.00029567335
000230 31 ed ef 3f f9 0b ce b8 b8 1b 56 36 d8 9f f3 3e
       1.874426 -9.8250755e-05 3.190462e-06 0.4758289
000240 51 c3 49 3f f7 14 5c b9 51 32 11 b9 19 74 be 39
       0.78813654 -0.00020988645 -0.00013847022 0.00036326124
000250 9b 4d 1e 39 36 a4 9d b9 0b a1 54 39 60 b5 15 b9
       0.00015096964 -0.0003006772 0.00020277889 -0.00014277315
000260 9a 66 49 b9 db d9 91 b9 b1 78 50 b9 d8 0f 84 b9
       -0.00019207076 -0.0002781887 -0.00019881387 -0.00025188806
000270 27 ec 1e 39 2a 51 45 b9 66 d8 72 b8 1d 72 68 b9
       0.00015156028 -0.0001881762 -5.7898833e-05 -0.00022167755
000280 f3 06 14 b9 45 2a 6c 39 00 81 73 39 aa ec bd b9
       -0.00014116969 0.0002252246 0.00023222342 -0.00036225218
000290 fc 1c 9f b9 fa 8c 17 b9 3c 64 5e 39 5e b6 4a 37
       -0.00030348438 -0.00014453 0.0002120891 1.2082599e-05
0002a0 91 04 0c 39 24 92 86 39 19 ed be 39 2c f7 46 39
       0.00013353142 0.00025667355 0.00036416276 0.0001897483
0002b0 f1 b5 03 c0 f4 5f 52 b9 fe 8b 10 b9 1b 50 bd 39
       -2.0579798 -0.00020062906 -0.00013785061 0.00036108572
0002c0 e4 ba 55 39 82 bf 63 b9 ba ff 02 b9 0a 65 c9 bd
       0.00020382885 -0.00021719749 -0.00012493032 -0.09833725
0002d0 c7 a8 e2 b8 52 88 9a b9 8c 57 09 b9 46 d4 18 b9
       -0.00010807957 -0.00029474735 -0.00013097952 -0.00014574928
0002e0 be 7f 59 b9 8f ec 6a 39 6c 06 61 39 09 10 53 b9
       -0.0002074232 0.00022404104 0.00021460064 -0.00020128502
0002f0 24 c7 59 39 9b c0 16 b9 af 06 7f b9 e6 b3 4e 39
       0.00020768918 -0.00014376866 -0.00024321185 0.00019712708
000300 f2 86 58 b9 8a 26 68 b9 47 f9 2a b9 6e b6 25 b9
       -0.00020649636 -0.00022139601 -0.00016305326 -0.00015803587
000310 16 32 a7 b9 4a 94 95 39 f9 21 8e b9 00 95 8e b9
       -0.0003189004 0.0002852998 -0.00027109662 -0.00027195364
000320 aa 3b 49 39 c0 74 9b b9 7e b6 5c b9 ba 7a 72 39
       0.0001919108 -0.0002965089 -0.00021048819 0.00023124638
000330 19 b3 0a 39 f1 62 4a b9 87 3c f6 b8 9c 9c 4f 39
       0.00013227425 -0.0001930108 -0.00011741468 0.000197994
000340 e8 6a 9d b9 1a 07 2c b9 41 27 91 b9 16 cf 96 b9
       -0.00030025025 -0.00016405844 -0.00027685802 -0.0002876452
000350 dc a2 84 39 ac 07 28 39 20 a7 fa b8 18 97 50 b9
       0.00025298342 0.00016024587 -0.000119520584 -0.00019892713
000360 f8 a8 20 b9 ff c9 56 39 e8 06 19 39 5c 06 a0 b9
       -0.00015321735 0.0002048388 0.0001459379 -0.00030522316
000370 03 55 88 bf ec b9 a9 b9 56 a7 95 b7 1f 8a 9d 39
       -1.0650944 -0.00032372714 -1.7840106e-05 0.00030048282
000380 86 90 97 36 a9 7b 6b b9 3d 97 07 b9 07 e2 25 39
       4.5169754e-06 -0.00022457413 -0.00012930944 0.00015819828
000390 2e 75 b0 b9 0a e2 10 b9 da 86 4a b9 2e 44 5e b9
       -0.00033656642 -0.00013817116 -0.00019314457 -0.00021196969
0003a0 08 bc 00 b9 b2 57 25 b9 d9 7c 47 b9 4e d7 bb be
       -0.00012277078 -0.00015768295 -0.00019024628 -0.36687702
0003b0 3d 0c 84 b9 a0 3c cc b9 78 3a bf 38 c2 af 85 39
       -0.0002518612 -0.0003895508 9.1184804e-05 0.00025498687
0003c0 ad db 13 b9 f9 3f 4a 39 13 a2 6c b9 2a 94 63 39
       -0.00014100848 0.00019288053 -0.00022567091 0.00021703602
0003d0 13 19 73 3f 3e de b8 bf 93 b0 4f b9 49 2a 33 3a
       0.94960135 -1.4442823 -0.00019806837 0.0006834609
0003e0 e5 71 09 b9 04 52 1e 39 e4 e8 59 b9 ba d9 5d b9
       -0.00013107767 0.00015098607 -0.00020781491 -0.00021157312
0003f0 4a df 81 b9 77 fe 5c 39 b5 77 a1 b9 2d 5c 02 37
       -0.0002477116 0.0002107563 -0.00030797502 7.770065e-06

weight f4 [2, 400]
000000 8c bf 4c 3a 83 c9 c6 b9 76 df f5 bd 90 fe 96 b9
       0.0007810525 -0.0003791564 -0.120055124 -0.00028799893
000010 9d a7 08 ba 82 ba 19 ba 78 16 09 ba 81 f6 ec 39
       -0.00052129646 -0.00058642786 -0.00052294834 0.00045197087
000020 18 0c 05 3a 97 f1 1e ba 48 65 03 ba d3 d2 36 ba
       0.00050753495 -0.00060632214 -0.00050123455 -0.0006974164
000030 a5 96 ea be b4 07 9b 3a fb 35 d4 ba 33 62 f8 39
       -0.45818058 0.0011827857 -0.0016190404 0.0004737541
000040 30 b6 15 bd b4 f0 01 ba 42 17 e1 b9 46 d2 f5 b9
       -0.0365507 -0.0004956827 -0.00042932673 -0.00046886707
000050 87 ca bf b9 a3 57 65 ba 4b 55 d7 b9 76 8f ff 39
       -0.00036581254 -0.00087487156 -0.00041071544 0.00048744277
000060 b4 d3 3b ba e4 fe 80 3a 5f 9b 1c 3a 15 7a c4 3e
       -0.000716503 0.0009841588 0.000597408 0.3837439
000070 e9 4f 32 ba 36 4c 01 3a 9b 3f 05 3a 9b 0d 68 3a
       -0.00068020687 0.0004932316 0.00050830253 0.0008852125
000080 dc a9 1f ba 4c f6 e4 3a 8f be 25 ba cc 67 3e 39
       -0.00060906797 0.0017468422 -0.0006322646 0.0001815848
000090 c9 45 55 ba fc d3 44 ba 6a 2a cc b9 bb 35 a8 be
       -0.0008135704 -0.0007508395 -0.00038941513 -0.32853493
0000a0 65 7f 4c ba 30 be a2 3a 57 59 01 b8 4f 3f 2f ba
       -0.00078009657 0.00124163 -3.08392e-05 -0.0006685154
0000b0 e9 b8 3b 3a 79 4c 0e 3a 43 43 25 ba c4 26 1e ba
       0.00071610376 0.00054282654 -0.0006304273 -0.0006032998
0000c0 9e 33 2d 39 ff 50 e8 b9 96 4f fd 39 ce 78 33 bf
       0.00016517795 -0.00044310835 0.00048315217 -0.7010621
0000d0 5f da 00 3a d4 46 e4 39 e2 bf 92 ba 39 4c 3b 3a
       0.00049153523 0.0004354032 -0.0011196102 0.0007144842
0000e0 48 72 88 3a 24 c0 46 3a 27 90 f2 b8 36 0f 47 ba
       0.0010410035 0.0007581732 -0.0001156631 -0.0007593514
0000f0 82 d3 ed b9 02 65 05 3a 7e 3c 9c 39 72 f1 43 b8
       -0.00045361748 0.00050885987 0.0002979971 -4.6716486e-05
000100 41 44 7c b9 bd 6d f6 39 5f 9d a2 bd 6a 23 d5 39
       -0.0002405802 0.00047002538 -0.079401724 0.0004065291
000110 90 e0 01 ba d0 64 ef 39 0b 93 2a 3a 5d 35 7e 3a
       -0.0004954422 0.00045660743 0.00065068965 0.0009697283
000120 7c 20 1c be e8 ce 48 3a 80 79 e1 b9 f3 1c 95 3a
       -0.15246767 0.0007660226 -0.0004300587 0.0011376425
000130 b1 6d 34 b9 8b 28 ad 39 01 fe 3f 3a 69 70 fd 39
       -0.00017207001 0.00033027338 0.00073239213 0.00048339673
000140 62 9b 04 3a 59 ef 69 b7 2d d7 3c ba 75 3d fd 39
       0.0005058554 -1.394361e-05 -0.00072036945 0.0004830171
000150 b3 91 7c 39 14 54 f6 39 73 47 03 3a b5 d9 36 ba
       0.0002408687 0.0004698342 0.00050079 -0.000697519
000160 59 a3 3d 3a 71 ac 01 3a 35 d2 80 ba 57 cb 0e ba
       0.00072341185 0.0004946655 -0.0009828272 -0.000544717
000170 fa 61 31 ba 40 a0 e6 39 a5 8b 06 ba 3a 1d 48 39
       -0.0006766614 0.00043988414 -0.0005132503 0.00019084374
000180 5b e6 f7 b9 08 8d ef b9 58 40 3d 3a 51 ab 3a 3a
       -0.0004728314 -0.0004569071 0.0007219366 0.0007120865
000190 21 c7 74 b9 c1 96 3a 3a 8b 9a 06 ba 11 07 44 36
       -0.00023343835 0.0007117801 -0.0005134723 2.921039e-06
0001a0 68 08 ed b9 ab 81 09 3b f8 1b 3b ba 2e 25 4b 3a
       -0.00045210426 0.002098183 -0.00071376516 0.00077493757
0001b0 7e 72 6f ba d0 9c ce 39 5c a1 2d 3e 89 21 b9 3a
       -0.0009134187 0.00039408216 0.16956085 0.0014124374
0001c0 85 04 95 ba 39 11 51 be a0 cc 43 ba 82 52 3e ba
       -0.0011369145 -0.20416726 -0.0007469151 -0.00072602194
0001d0 48 d8 96 39 fd 8a b7 3a a1 11 d1 3d d8 b5 12 ba
       0.00028771372 0.0014003214 0.102084406 -0.0005596555
0001e0 44 f7 df b9 da e5 fd 3b 39 aa a4 be 0b 44 36 3a
       -0.00042718102 0.0077483477 -0.3216112 0.0006952888
0001f0 7c 66 2f 3a e8 cc 28 ba b1 1d 0c ba 6a f0 f0 39
       0.00066909916 -0.0006439225 -0.00053450005 0.0004595549
000200 7e 64 c4 b9 e2 7a 94 3a 76 8d f6 39 fd 4b 0a bf
       -0.00037458906 0.0011328126 0.00047026173 -0.540222
000210 d9 bc c5 b9 43 6c db 39 27 fd 3e ba a1 c7 84 3a
       -0.0003771547 0.00041851596 -0.00072856474 0.0010130295
000220 19 1f 06 3a 35 dc fb 39 39 ca 34 ba 49 3c a2 3a
       0.0005116328 0.00048038518 -0.00068965886 0.0012377586
000230 90 c0 15 bf 14 e5 49 b9 7e 52 10 37 6e de 58 3d
       -0.5849695 -0.00019254192 8.602276e-06 0.0529465
000240 91 2a 67 be 9c d9 1f ba c5 14 fb b9 72 2d c4 39
       -0.22574832 -0.0006097795 -0.00047889925 0.00037417893
000250 01 a6 02 3a d4 c8 ec b9 0e cd 3b 3a 84 08 fa b9
       0.0004983843 -0.00045163056 0.00071640394 -0.0004769006
000260 98 2f 35 ba a5 bd dc b9 9d 57 39 ba d6 01 46 ba
       -0.0006911694 -0.00042102966 -0.00070702453 -0.0007553374
000270 a0 71 08 3a d4 00 2c ba 18 2a 43 b9 a1 b2 50 ba
       0.000520492 -0.00065614027 -0.0001861233 -0.0007961188
000280 c1 0e c5 b9 c0 74 50 3a 1e d3 42 3a 1f 0f 99 ba
       -0.0003758576 0.00079519674 0.00074319716 -0.001167748
000290 3a f4 a9 b9 20 d7 fc b9 e9 1e 36 3a 92 87 02 38
       -0.00032416155 -0.00048225466 0.0006947355 3.1120675e-05
0002a0 2e 1a eb 39 f1 37 d5 39 bd 6c 93 3a 54 dd 08 3a
       0.00044842198 0.00040668205 0.0011247616 0.0005220969
0002b0 eb 5d 0f bf aa e0 23 ba e8 4c f6 b9 8b 30 45 3a
       -0.5600268 -0.0006251434 -0.00046978076 0.0007522187
0002c0 0b 35 09 3a 41 6c 14 ba b8 06 d9 b9 16 7b 02 3e
       0.0005234039 -0.0005661883 -0.0004139447 0.12742266
0002d0 ad 27 b8 b9 f8 28 8d ba ed ad e6 b9 b5 43 fe b9
       -0.00035124776 -0.0010769656 -0.00043998603 -0.000484971
0002e0 80 b6 3a ba 0c 21 42 3a aa 59 2f 3a ec fa 3f ba
       -0.00071225315 0.0007405437 0.0006689081 -0.0007323462
0002f0 5c 2c 44 3a 0b 48 f3 b9 aa 7d 4d ba 14 04 cf 3a
       0.00074834167 -0.00046402248 -0.0007838855 0.0015794062
000300 ce aa 3b ba c8 28 45 ba db 75 10 ba 9d f2 e0 b9
       -0.0007158936 -0.00075210305 -0.0005510726 -0.0004290537
000310 f0 2c 00 ba 20 96 57 3a df f6 e1 b9 82 d0 64 ba
       -0.0004889509 0.00082239695 -0.00043099278 -0.000872858
000320 22 84 29 3a f3 b6 e7 b9 8f fe 47 ba ed 91 26 3a
       0.00064665277 -0.0004419606 -0.000762918 0.0006354142
000330 02 74 ea 39 92 7d 36 ba d3 2e a7 b9 46 51 3b 3a
       0.0004471839 -0.00069614605 -0.0003188761 0.00071455946
000340 3a 2f da b9 d9 15 0b ba 80 4d e8 36 b0 8a 95 ba
       -0.00041615387 -0.0005305685 6.923161e-06 -0.001140913
000350 b6 c6 33 3a 13 02 10 3a c6 e7 cc b9 e9 f4 3c ba
       0.00068579183 0.0005493473 -0.00039082597 -0.00072081253
000360 36 1b 04 ba 78 8b 27 3a 44 85 ff 39 23 da ad b9
       -0.0005039455 0.0006391327 0.0004873668 -0.00033159656
000370 2e 4d 87 3e 84 be fa b9 e3 93 1e b8 7c aa 24 39
       0.2642607 -0.0004782566 -3.7807866e-05 0.00015703769
000380 92 2e 49 37 88 0b 49 ba 45 4e e3 b9 5f fd 78 b9
       1.1991377e-05 -0.000766926 -0.0004335513 -0.00023745511
000390 e9 fd 0c ba ff b6 fa b9 74 ad 36 ba ef 13 3a ba
       -0.0005378412 -0.00047820059 -0.00069685956 -0.0007098307
0003a0 a7 e8 d5 b9 57 63 07 ba d4 0d 32 ba 53 0b 9c 3d
       -0.00040799865 -0.0005164644 -0.00067922217 0.076193474
0003b0 07 4a 4b ba ba 26 a1 ba 2c 93 a2 39 94 1a a3 39
       -0.00077548664 -0.0012294867 0.000310087 0.00031109585
0003c0 dd a8 ff b9 c8 6f 2b 3a cc a0 41 ba f9 17 4e 3a
       -0.00048763203 0.0006539789 -0.00073863263 0.00078618486
0003d0 7e f7 20 3e ac 93 19 bf 4b ed 39 ba fc 7a b9 3a
       0.15719411 -0.59990954 -0.00070925493 0.0014151032
0003e0 84 6f e6 b9 18 ae 06 3a 06 b2 3e ba cb b3 42 ba
       -0.00043952104 0.00051376363 -0.00072744524 -0.0007427304
0003f0 b3 0b 33 ba 68 7a 2b 3a 48 ef 7b ba 0d 55 93 37
       -0.00068300514 0.0006541372 -0.0009610546 1.756337e-05

bias f4 [2]
000000 e0 26 da bd 05 6a 85 3d
       -0.10651946 0.06514362

weight f4 [400, 2]
000000 c6 0f 08 38 e5 19 18 37 46 0b a1 39 29 d8 a3 b9
       3.2439617e-05 9.065935e-06 0.00030716712 -0.00031250835
000010 3c 1c 77 b9 66 b4 74 39 03 0f 97 b7 bc fa 41 37
       -0.00023566274 0.00023336857 -1.8007593e-05 1.1562075e-05
000020 8b 4d 4e bc 77 38 70 3c 1e 2e 7d bf bc 92 fe be
       -0.01259173 0.0146619 -0.98898494 -0.49721324
000030 4b d7 20 b8 9a e3 a8 37 97 5d a6 39 de 52 c2 b9
       -3.834748e-05 2.0133146e-05 0.00031731717 -0.00037064304
000040 02 21 a2 ba da fd 46 3a 65 37 4e b9 eb 48 36 39
       -0.0012369456 0.00075909274 -0.00019666327 0.00017384037
000050 a2 fc 9e 37 21 0a f3 b8 c6 5f 00 bb 35 77 a7 ba
       1.8952709e-05 -0.000115890296 -0.0019588335 -0.0012776615
000060 82 5f 71 3f bc fa cb be 83 72 11 be d9 a8 86 3e
       0.9428636 -0.39839733 -0.14203839 0.26300696
000070 3e 1a 1e 38 df 6d fa 37 f8 9d 87 bd 3e 2c d9 3d
       3.7694575e-05 2.9853485e-05 -0.06621927 0.10604142
000080 1d b0 57 3c f3 50 d0 bc 50 57 ec ba 8a ea be 3b
       0.013164547 -0.025429225 -0.0018031392 0.005826299
000090 5e 95 c7 bd 67 2b 5c 3e 9c eb 99 3e 2e 5f 45 3f
       -0.097452864 0.21500932 0.30062568 0.7709836
0000a0 92 1b 76 be 5b e4 4d c0 19 e1 8d 3b 44 da 36 3c
       -0.24033955 -3.2170627 0.0043298122 0.011160437
0000b0 a5 22 3a 39 72 ed 39 b9 2c b5 8b 3f 0d ed 56 be
       0.00017751248 -0.0001773143 1.0914664 -0.20988865
0000c0 b4 71 9c 3e 46 00 93 3f 4a 36 dc bf b4 c6 8b 40
       0.305555 1.1484458 -1.7204068 4.3680058
0000d0 35 fd e8 38 df 5b c3 b8 5c 5e d0 3e b5 45 fd be
       0.000111097856 -9.315437e-05 0.4069699 -0.49467245
0000e0 5e dd 5e 37 66 d4 a7 b8 6e b7 ff 3f 52 58 31 c0
       1.3283772e-05 -8.002743e-05 1.9977853 -2.7710156
0000f0 f8 a2 03 b5 70 93 1f 38 36 e2 9f 39 a4 7f b1 b9
       -4.9038454e-07 3.8045866e-05 0.00030495384 -0.0003385517
000100 55 08 7d 38 48 cc 2c b8 e3 b2 fa b8 4c cc 3d b9
       6.032766e-05 -4.1198247e-05 -0.00011954249 -0.00018100551
000110 0b 18 a8 38 68 7d 88 b8 11 c5 1a 3f cd a5 84 3f
       8.0153426e-05 -6.508344e-05 0.6045695 1.0363098
000120 12 e6 13 3f 38 bf 68 bf dd 4b 81 3f 54 eb c6 bf
       0.57772934 -0.90916777 1.0101277 -1.5540566
000130 4f 71 2e 3e 69 13 a7 3e 3e 83 8c 3f 7e 8b e8 3e
       0.17035411 0.32631996 1.0977552 0.45418924
000140 6a 10 7e bc 8b 3a 92 3c 43 57 84 bf 40 cc d6 be
       -0.015506843 0.017850181 -1.033913 -0.41952705
000150 79 d1 0e 3d d1 fd 99 3f 64 ef b4 3a 2b f2 b3 bc
       0.034867737 1.2030584 0.0013804254 -0.02196606
000160 7b a9 92 3e d7 2d b3 be ca a7 42 ba b6 bf 05 3a
       0.28644928 -0.3499591 -0.0007425515 0.00051021145
000170 d3 3a 59 bf 80 6a b1 bf 32 fc a5 38 01 6c 86 b8
       -0.84855384 -1.3860626 7.914788e-05 -6.409735e-05
000180 dd 98 96 b6 72 0c a9 36 20 5e 16 b5 a8 db 82 b7
       -4.488144e-06 5.0380413e-06 -5.6016324e-07 -1.5599493e-05
000190 b8 17 de b7 26 5e b0 37 9a 8f 45 39 ad 8e f7 b8
       -2.6475507e-05 2.1024676e-05 0.0001884088 -0.00011804453
0001a0 3a 68 09 b9 8e 65 00 39 79 21 94 bf aa 26 dc 3e
       -0.00013104166 0.00012244863 -1.1572715 0.42998248
0001b0 c0 dd 41 ba dc ef 42 3a 24 63 9b bf 75 60 74 bf
       -0.0007395409 0.00074362545 -1.213963 -0.9545968
0001c0 52 86 87 b6 a0 b1 9b b7 32 87 15 ba 8a 6c 7b 3a
       -4.0389505e-06 -1.8560153e-05 -0.00057040446 0.0009591064
0001d0 86 d3 04 3a da 98 10 ba 2a a2 e0 39 5c 7e aa b9
       0.000506692 -0.0005515941 0.0004284543 -0.00032519072
0001e0 e1 d5 b6 b8 d2 0c d2 38 29 62 40 ba 21 72 5c 3a
       -8.718274e-05 0.00010015968 -0.0007338846 0.00084093405
0001f0 26 45 e7 b7 97 8c f4 37 1f 07 4e bf 58 03 c4 be
       -2.7569546e-05 2.9152534e-05 -0.80479616 -0.382838
000200 a6 98 c4 bd 57 6a 6a 3e 26 f4 9a 37 dc b4 62 b7
       -0.09599428 0.22892128 1.8471921e-05 -1.3512759e-05
000210 ff 77 8d c0 b8 0b 01 c0 4c 3a 80 b9 13 8e 71 39
       -4.420898 -2.0163403 -0.00024457497 0.00023036478
000220 17 bb 95 bf 11 ef 69 3f 2b cd 94 3f 5f 81 f2 be
       -1.169772 0.9138041 1.1625112 -0.47364327
000230 2b 66 6a 3e a1 05 f5 be db c4 0e be 7d 15 aa 3f
       0.22890536 -0.47855857 -0.13942282 1.3287808
000240 66 92 9f bc 44 b0 6b bf 65 be b6 39 3c 84 75 bb
       -0.019478988 -0.92065835 0.000348556 -0.003746285
000250 81 54 41 b7 f4 c5 3d b7 4a 98 8e 39 d7 56 a3 b9
       -1.15233715e-05 -1.1311367e-05 0.00027197815 -0.00031154483
000260 fa bd cb b7 db 5d a4 37 d6 83 b6 b8 30 e8 8d 38
       -2.428795e-05 1.9594028e-05 -8.702993e-05 6.766652e-05
000270 ee 7e 72 b9 e4 1d 69 39 75 2b a8 b9 ce 05 bd 39
       -0.00023126203 0.00022231747 -0.00032075835 0.00036053214
000280 93 8b 1d bc 4e 90 8f 3c 59 e1 bd b8 d2 2c af 38
       -0.009615797 0.017524865 -9.0541966e-05 8.352999e-05
000290 23 d9 8a 39 3a 55 e2 38 85 fd 67 39 82 03 4d b9
       0.0002648319 0.000107923945 0.0002212432 -0.0001955163
0002a0 c2 43 fd b9 02 5e 6a 39 84 69 f5 b6 23 5a 2a 37
       -0.00048306404 0.00022351 -7.3138526e-06 1.0153776e-05
0002b0 3e 2b 56 bc 32 0f 6f bf ae 06 cd bd a6 95 61 3e
       -0.013071833 -0.9338256 -0.1001104 0.22029743
0002c0 f0 4f 06 bf 79 fa 2d bf 98 17 d9 be 03 91 dd be
       -0.52465725 -0.67960316 -0.42400813 -0.43274698
0002d0 d4 7e 76 b9 b9 90 89 39 0b da 41 3f f9 e3 fa 3e
       -0.00023507635 0.00026238503 0.7572333 0.49002054
0002e0 4d 10 05 39 ae 16 e4 b8 39 e2 d5 3c 61 a8 81 3f
       0.00012689941 -0.000108761116 0.026108848 1.012951
0002f0 5a 80 b8 3f 1e 07 cf 3e d8 e4 0d b6 90 69 c2 34
       1.441417 0.40435117 -2.1143842e-06 3.6212123e-07
000300 e4 e8 bc 3c e2 6c 03 bd 5b 1d 01 37 6b 97 08 b7
       0.02306027 -0.03208626 7.695834e-06 -8.141486e-06
000310 c4 2e a0 b9 31 42 ab 39 21 63 ed bd a5 25 86 3e
       -0.0003055242 0.00032664978 -0.11591173 0.26200595
000320 d8 0f 78 bf 8e 77 59 3f 6f bb 3b 37 d1 13 42 b7
       -0.96899176 0.8494805 1.1189709e-05 -1.1567915e-05
000330 8b e1 6c ba 1b 98 e6 3d 3d e9 8f b8 19 af 90 38
       -0.0009036294 0.112594806 -6.8622154e-05 6.8990696e-05
000340 00 59 91 38 79 8f 83 b8 4d 60 57 b9 3e b8 2c 39
       6.930716e-05 -6.273291e-05 -0.00020539873 0.00016471834
000350 e1 8d 83 3d d5 42 5b be f8 ee 64 3f 38 95 1a 3f
       0.06423546 -0.21412213 0.8942714 0.6038394
000360 77 f3 b6 37 3e 5e 43 b7 5f 56 a2 39 3c 1b be b9
       2.1809463e-05 -1.1644848e-05 0.000309634 -0.00036259915
000370 9f 30 a3 b9 58 fd ad 39 bb 3a d2 3f a3 d7 3d 40
       -0.00031126008 0.00033185887 1.6424173 2.9662864
000380 65 b8 57 38 87 55 1d b7 71 47 c5 b9 7d 11 c4 39
       5.1431725e-05 -9.377843e-06 -0.00037627996 0.00037397063
000390 7d 7c 83 3f 5d 14 2b bf 7d b4 50 39 1e 7b 51 b9
       1.0272366 -0.66827947 0.00019903663 -0.00019977658
0003a0 8f d0 dc b6 2e 52 7a 36 de d8 2a bf 7e 2b 05 be
       -6.5807903e-06 3.7300738e-06 -0.66737163 -0.13004872
0003b0 3e 8f c0 38 22 49 e3 b8 c8 dd 55 ba 99 91 35 3a
       9.1819544e-05 -0.000108378255 -0.0008158353 0.0006926298
0003c0 5c 57 7a 37 b0 f3 2a b7 95 80 80 39 66 60 31 b9
       1.4921501e-05 -1.01895275e-05 0.00024509864 -0.00016915947
0003d0 bd 30 c3 ba 32 b8 3d 3c e3 9f 13 be 2e e6 28 3f
       -0.0014891844 0.01157956 -0.1441646 0.65976226
0003e0 ec 53 f3 38 6c 2e 07 b9 46 20 e0 38 6a fc b7 b8
       0.000116027746 -0.00012891897 0.00010687164 -8.773136e-05
0003f0 e8 09 13 3a e0 fe 58 b9 07 88 f2 39 8d 1a fd b9
       0.0005609081 -0.00020694314 0.00046259185 -0.00048275702

bias f4 [400]
000000 5e 5e ad 38 35 2b 95 39 06 d3 5d b9 4e 54 85 b8
       8.26686e-05 0.00028451686 -0.00021154815 -6.357637e-05
000010 e7 54 2c be 89 e0 28 3f 37 e1 9c b8 86 20 89 39
       -0.16829263 0.65967613 -7.480609e-05 0.00026154908
000020 a2 b9 b1 ba 38 ed 35 b9 eb eb 8a b8 09 29 05 bf
       -0.0013559351 -0.00017349876 -6.624296e-05 -0.5201574
000030 e7 05 26 3f 0e 94 96 bc 88 20 b9 38 b1 b0 19 bc
       0.64852756 -0.018381145 8.827547e-05 -0.009380505
000040 e0 d2 c7 be 9f 3d b0 3e 65 2d 8d bc 85 7b ad be
       -0.39028072 0.34422013 -0.01723356 -0.338833
000050 99 b2 fc 3e 34 76 5d be 9e 47 1e 39 80 23 fd bd
       0.4935501 -0.21627122 0.00015094734 -0.12360287
000060 08 13 43 be 91 bb d9 3f 01 20 c4 38 c8 6b 5d bd
       -0.19050229 1.7010366 9.3519695e-05 -0.054057866
000070 fa dd 91 b7 1c e6 5d 3f 92 5e 83 b6 5f 7c 86 39
       -1.7388713e-05 0.86679244 -3.9151137e-06 0.00025651135
000080 d6 34 a1 38 81 b7 9d b9 8f 89 95 38 e8 42 6a bf
       7.68692e-05 -0.00030082095 7.130496e-05 -0.9150834
000090 6b 16 a6 be be ea 7d bf 1e 64 83 bd 28 52 e5 3e
       -0.3243898 -0.99186313 -0.0641558 0.44789243
0000a0 05 40 5a 3e eb a7 2f bb 87 ee 54 bf e9 cf a9 be
       0.21313484 -0.0026802968 -0.83176464 -0.33166435
0000b0 76 be ff bb 64 5d 64 ba 20 bc 9d 3e cc 70 9e 38
       -0.007804687 -0.0008711426 0.3080759 7.555037e-05
0000c0 40 1c f7 b7 90 4e a1 b5 46 7b cd b7 2e c8 6f 39
       -2.945785e-05 -1.20183e-06 -2.4495308e-05 0.00022867389
0000d0 55 f2 00 b9 21 34 ff bd d0 9c 37 ba 14 dc 4d bf
       -0.00012297307 -0.12461115 -0.0007004263 -0.8041394
0000e0 b7 6f 25 b8 0c a3 e0 b8 7a 20 10 3a 8b 20 de 39
       -3.9443108e-05 -0.00010711522 0.00054980034 0.00042367386
0000f0 38 6f 31 b8 44 be 1f ba 91 aa 6d b7 7f 64 17 3e
       -4.230367e-05 -0.00060937204 -1.4166014e-05 0.1478443
000100 5e 50 92 bc b8 69 74 37 73 22 a0 be a2 11 6d b9
       -0.017860588 1.4568148e-05 -0.31276283 -0.0002260865
000110 0e 5b 12 be 3a ad 7b 3f ab 72 a1 3d 86 5d 39 bd
       -0.14292547 0.983112 0.07883199 -0.045255207
000120 d7 bf c1 bd d7 b7 42 be 74 d0 db b7 8c 00 72 39
       -0.09460419 -0.19015442 -2.6203903e-05 0.00023079122
000130 aa 16 59 b7 a2 12 c4 b8 52 ce 5b b9 02 96 8f b9
       -1.2939485e-05 -9.349479e-05 -0.00020962328 -0.0002738685
000140 14 c3 a8 3e de 55 aa b8 03 7b 16 3a 3c d4 43 39
       0.32961333 -8.122226e-05 0.0005740376 0.00018675713
000150 af 28 2d ba 86 e0 b5 b7 f1 00 ce 3e e7 02 82 bc
       -0.00066054886 -2.1681433e-05 0.40235093 -0.015870525
000160 f3 00 b9 3e a3 b4 d6 3c 1c 92 9e b9 6e 7c 48 3d
       0.36133537 0.026209181 -0.00030244968 0.04894679
000170 36 78 e6 38 54 47 05 bf f4 f7 a9 bf 48 f6 65 36
       0.00010989646 -0.52061963 -1.3278794 3.4267014e-06
000180 3b e3 8d be 98 73 a3 37 4c de 90 b9 aa 12 97 bc
       -0.27712426 1.9484942e-05 -0.00027631444 -0.018441517
000190 72 33 ea bc f5 bb 31 38 87 8c 6d bc fb e9 63 b8
       -0.028588984 4.2375137e-05 -0.014498836 -5.433893e-05
0001a0 0e f7 79 38 12 c1 40 b9 a4 df a1 3c b6 1b 7a 3e
       5.9596314e-05 -0.00018382471 0.01975996 0.24424633
0001b0 a0 64 c3 37 69 03 88 39 90 dd 8f b9 45 3a e0 be
       2.3292669e-05 0.00025942482 -0.00027440162 -0.43794456
0001c0 bc 13 ce 38 8e 8f b2 b9 9b 07 63 3f aa 46 3b 39
       9.826521e-05 -0.00034057762 0.8868348 0.00017860034
0001d0 5a cd fa b5 d8 20 7a 3d 48 9d a8 38 ec 19 3a ba
       -1.8686217e-06 0.06106648 8.04016e-05 -0.00070991996
0001e0 eb 5d 8e 36 47 38 97 39 dd 6f 9a 3e 56 cf aa 3b
       4.2428633e-06 0.00028842894 0.3016347 0.0052127047
0001f0 72 36 ea 38 60 84 b5 38 38 0a 45 3a e2 cb d6 39
       0.00011168131 8.655409e-05 0.00075164763 0.00040969165
000200 6a f0 00 b9 83 9b f0 be fe 11 90 3e 00 cb dc 38
       -0.00012296592 -0.46993646 0.28138727 0.00010528229
000210 f4 24 3f 38 6a 98 bd b9 42 e1 f7 3e 01 e1 d6 bd
       4.5572364e-05 -0.00036162446 0.48414046 -0.10492135
000220 ed ef 05 38 58 fa f7 be 46 f9 af 38 fd f0 e6 3f
       3.193312e-05 -0.48433185 8.391081e-05 1.8042294
000230 c9 32 8a b7 7a 09 0c b9 99 e3 8c b8 cc 34 a8 b9
       -1.647453e-05 -0.0001335497 -6.7181136e-05 -0.00032082794
000240 92 dc 03 b9 b8 bc 93 37 7a f1 9c b8 5f 3e ad bf
       -0.00012575302 1.7611645e-05 -7.483638e-05 -1.3534659
000250 37 f9 3f 3f 94 c1 13 bf f1 e3 00 b7 33 03 99 3e
       0.74989647 -0.5771725 -7.682466e-06 0.29885253
000260 b6 7f 51 39 fb 7e f9 b7 be 7a 9f 38 ee d6 37 39
       0.00019979369 -2.9742243e-05 7.604573e-05 0.00017532308
000270 26 f8 8f b9 c2 50 05 3a 23 80 5a 3e 02 d1 62 39
       -0.0002745997 0.0005085581 0.21337943 0.00021630901
000280 e5 a5 94 3e 62 18 34 b8 6a ed d3 39 43 85 19 b8
       0.29032817 -4.2938053e-05 0.00040421943 -3.6602152e-05
000290 32 f2 0a b8 25 df 28 b7 1a 48 1e 39 48 b3 37 3a
       -3.3127326e-05 -1.0065535e-05 0.00015094914 0.0007007611
0002a0 fc b4 a7 bd 4f 93 2d 3e ab eb ca 3c 06 d8 59 39
       -0.08188817 0.16950725 0.024770578 0.00020775208
0002b0 5e 5d bd be 60 4e b9 39 64 41 a7 b9 38 2e 8f b6
       -0.36985296 0.00035344344 -0.00031901442 -4.2671127e-06
0002c0 92 21 9a 38 c5 55 94 bf 4d 41 b4 3a 4e 63 47 bd
       7.349545e-05 -1.1588675 0.0013752371 -0.04867869
0002d0 1f e0 8b bf a0 09 9f 38 4d 71 88 be 18 17 48 b8
       -1.0927771 7.5835036e-05 -0.26648942 -4.7705224e-05
0002e0 11 86 01 39 fd 3c 1a 3f 22 07 b0 b7 f2 1a 4d b7
       0.00012352342 0.6024931 -2.0984156e-05 -1.2225226e-05
0002f0 0b b8 15 3a 93 99 6e b9 c6 32 bb be f0 63 75 be
       0.00057113235 -0.0002275466 -0.36562175 -0.23963904
000300 23 fe 86 3c 53 4c 82 3f ee 2b fe be 3b e3 fe b8
       0.016478604 1.0179542 -0.4964289 -0.00012153989
000310 c1 15 bc 36 aa a0 7b 39 19 33 d8 3e 43 89 6f bd
       5.605369e-06 0.00023997077 0.42226484 -0.058480512
000320 6d 7d d0 bd ff 50 1a 3e b0 db cc 39 e1 e7 0f 3e
       -0.10180173 0.1506996 0.00039073592 0.14053299
000330 ae 1e 32 39 de c0 cb 38 36 f1 8c 3e f0 85 7c bb
       0.00016986832 9.7157186e-05 0.2752778 -0.0038531981
000340 df 1f 8f be 1f 3b 0d bf 6f 12 89 bb 9d bf 69 3e
       -0.27954003 -0.55168337 -0.0041831057 0.22827001
000350 30 0b 8f 37 86 de 3c b8 38 6d 9b 3b 08 2f 17 3a
       1.7052138e-05 -4.5029934e-05 0.0047432445 0.0005767201
000360 99 d9 ba 38 2c 7b cd bb 2a 4c bf 37 7c 08 19 be
       8.909702e-05 -0.0062707867 2.2804441e-05 -0.14944643
000370 f1 f4 68 3c fd af 71 3c 35 9e ce b9 ca 91 13 b8
       0.014218555 0.0147514315 -0.00039409255 -3.5183308e-05
000380 3f 13 08 bf 3d 0a 66 39 54 e9 02 39 e7 da 03 bf
       -0.5315437 0.00021938323 0.00012484688 -0.51505893
000390 06 9b da b9 56 09 e7 be d4 ba 0b bf 6f 78 34 b8
       -0.00041695702 -0.4512431 -0.5458195 -4.3027507e-05
0003a0 70 92 e2 3b 5b ec c6 bf ea c3 27 b8 73 2e 91 b9
       0.0069144294 -1.554088 -3.9998362e-05 -0.00027691163
0003b0 f1 7c e6 38 57 bb e2 3e 72 ec f5 be 02 fa d2 3e
       0.00010990527 0.44283554 -0.48031956 0.41206366
0003c0 a5 8d 2d 3f 36 c3 2b 3f 29 c4 e1 be d3 cd 5d 3c
       0.6779426 0.67094743 -0.4409497 0.013537842
0003d0 62 98 94 39 6b 6b 2d 3c af fd 5d 3c f9 bd 82 3d
       0.00028342294 0.0105846925 0.013549252 0.06383891
0003e0 a6 b6 9a b8 c0 8d 09 be 0b a0 c8 b9 ec c5 e2 3d
       -7.377313e-05 -0.1343298 -0.00038266214 0.11072907
0003f0 bc 4b d6 39 d5 6b 26 39 90 38 d7 b8 8a a5 d8 3f
       0.00040873687 0.00015871164 -0.000102625345 1.6925519

weight f4 [36, 400]
000000 33 18 b9 b7 36 28 96 b7 79 11 21 b8 56 4d 84 b7
       -2.2064987e-05 -1.7900118e-05 -3.8401664e-05 -1.5771639e-05
000010 fe 68 c3 3c ae 96 d2 bc 21 fb 4b b7 cf 8a 4c 38
       0.023853775 -0.025706615 -1.2158213e-05 4.8766666e-05
000020 7e b0 5b 37 a0 6f 51 b7 b4 63 88 37 1c c1 61 3c
       1.309451e-05 -1.24833605e-05 1.6258891e-05 0.013778951
000030 b6 e6 f6 bc 85 e7 b1 3c a6 f6 c2 b7 ba fb 06 3d
       -0.030139308 0.021716842 -2.3241457e-05 0.03295491
000040 30 ec cc bc 63 d7 35 bd c5 12 e7 bc 02 76 74 bc
       -0.025014967 -0.044394862 -0.028207192 -0.014920713
000050 3e fb 95 ba 70 a4 b3 3c 39 fb 33 38 2c 83 b2 bc
       -0.0011442674 0.021928996 4.2910895e-05 -0.021791063
000060 d7 d9 e1 3c 0b fe 42 39 6a 05 fb 36 ff 25 ba bc
       0.027569694 0.0001859592 7.481013e-06 -0.022723196
000070 db ec b9 38 5d 9b a4 b9 2e cc 90 bc 40 4a f4 37
       8.865605e-05 -0.00031396272 -0.017675485 2.9121642e-05
000080 77 7e 49 b7 9e 89 55 38 f4 07 9b b7 e5 b6 6e 3d
       -1.20099785e-05 5.0911323e-05 -1.8481143e-05 0.05827989
000090 fd 71 88 bc 32 29 13 3c ee 56 69 bc 3d aa 35 bc
       -0.016655916 0.00898199 -0.014241917 -0.011087951
0000a0 3d c1 59 bc 35 b7 82 bc ce 9c 59 bc 4c b3 aa bc
       -0.0132907005 -0.0159565 -0.013282014 -0.020837449
0000b0 3e 81 61 bc 28 6f 11 38 96 17 8c bb 8e be 85 37
       -0.013763724 3.4674216e-05 -0.0042752726 1.594357e-05
0000c0 37 da ff b7 7e a1 e3 37 aa d5 4c b8 d0 bf ca b7
       -3.0499983e-05 2.713571e-05 -4.883638e-05 -2.4169596e-05
0000d0 5b cc 7e b6 1f a3 d8 bc a7 ca e6 37 0e a1 bb bb
       -3.79679e-06 -0.02644497 2.7512504e-05 -0.0057259863
0000e0 2d 08 75 37 dc b2 04 37 96 a2 44 36 43 be 57 b8
       1.46050415e-05 7.909457e-06 2.9300913e-06 -5.143719e-05
0000f0 73 52 1d b8 1e f8 10 37 f5 89 66 37 91 0c 08 bd
       -3.7508504e-05 8.640838e-06 1.3741189e-05 -0.03321511
000100 bd 3c fd bb 02 39 ac b6 9c b5 53 39 f7 0a 1d b8
       -0.007728188 -5.132636e-06 0.00020190183 -3.744193e-05
000110 95 6e 8a 3c 2b b3 01 ba 9e 6e 41 bd be 69 0a 3c
       0.016898433 -0.00049476576 -0.047224633 0.008448062
000120 5e 34 2e bd 28 fc 46 3c 91 6b 5c 36 d4 76 37 38
       -0.04253041 0.01214508 3.2845167e-06 4.3741267e-05
000130 a7 27 2c 37 bb 1a ca b7 e4 52 13 b8 f1 c1 16 b8
       1.0261231e-05 -2.4092724e-05 -3.512473e-05 -3.594341e-05
000140 7e 34 2b bc 38 2a 8f b7 35 c5 38 37 d7 72 91 37
       -0.010449527 -1.7066588e-05 1.10131705e-05 1.7338823e-05
000150 2c 3a f3 37 f7 32 85 b7 e6 24 b3 3a a2 ec 04 bd
       2.8994946e-05 -1.5878568e-05 0.0013667613 -0.032452233
000160 8f 97 54 bd ad 0d 2c 3c 15 87 4e b8 f7 3c d4 ba
       -0.05190235 0.010501307 -4.9240032e-05 -0.0016192485
000170 6b 99 23 36 fd b5 b0 b9 08 5f 93 bb ec ab 05 38
       2.4378194e-06 -0.00033704928 -0.0044974126 3.1869786e-05
000180 2b 0a f5 3b 00 74 c7 37 96 87 96 b6 9c ba 18 bc
       0.0074780188 2.3776665e-05 -4.4861326e-06 -0.009321835
000190 c0 41 e5 3c 96 d7 32 38 72 10 03 bd 39 41 80 b7
       0.027985454 4.2639287e-05 -0.031998105 -1.528916e-05
0001a0 3a e7 b3 36 a9 27 6c b8 76 ea b4 3c 4d 38 d7 bc
       5.361534e-06 -5.630372e-05 0.022084456 -0.026271963
0001b0 87 e6 a1 37 db 18 5e 38 41 37 1d b8 8e cf c7 b9
       1.9300043e-05 5.2952073e-05 -3.7483176e-05 -0.00038110878
0001c0 ba 3b 59 b6 68 a2 2c b8 7f a1 e7 3c b6 f5 aa b6
       -3.2370285e-06 -4.115925e-05 0.02827525 -5.0949993e-06
0001d0 90 16 b3 b7 bd 45 25 bb 67 7c c7 b6 2a ee 0f 37
       -2.134897e-05 -0.002521857 -5.9451445e-06 8.578916e-06
0001e0 f5 00 2d b7 74 0d 08 37 7a 2e 42 bd 35 d8 c8 bc
       -1.0311826e-05 8.109364e-06 -0.047407605 -0.024517158
0001f0 f7 9b 6a b7 46 9e cd b7 12 51 00 b8 5f 7b 3a 38
       -1.39838e-05 -2.4511606e-05 -3.059308e-05 4.4460754e-05
000200 ea 7b 70 b8 8e 1b 95 3b 18 81 26 3a d1 37 c7 37
       -5.7335863e-05 0.004550404 0.0006351634 2.374864e-05
000210 85 1a 07 37 28 b4 ea 37 43 31 d2 bc cd e0 10 bd
       8.052802e-06 2.7978866e-05 -0.025658255 -0.035370637
000220 a8 46 82 38 e0 ad 02 3d 84 96 22 b7 e1 75 10 ba
       6.212044e-05 0.0319041 -9.690997e-06 -0.00055107294
000230 2e f6 ca 36 33 de 2a b9 78 85 f4 b7 3c bc 12 b8
       6.048728e-06 -0.00016295239 -2.9149218e-05 -3.498442e-05
000240 45 03 8c 38 0e ff 35 b8 7f ce 0b 38 c8 79 21 ba
       6.676329e-05 -4.33913e-05 3.3332497e-05 -0.00061598094
000250 6b 43 0c 3c 37 6d e0 bc 96 97 93 b7 94 21 7e bc
       0.008560996 -0.027395828 -1.7594353e-05 -0.015510935
000260 92 4d 03 38 7c dc b7 36 43 d7 94 b6 10 de 19 38
       3.1305077e-05 5.4794928e-06 -4.4358035e-06 3.6684854e-05
000270 71 04 15 b8 78 f2 74 b6 82 8b f5 3a 91 de 84 37
       -3.5528505e-05 -3.6499969e-06 0.0018733593 1.5839267e-05
000280 9d 3c cd 3c c9 c0 67 b7 26 6c 05 b7 8d 09 3b b7
       0.025053317 -1.3813559e-05 -7.952598e-06 -1.1148292e-05
000290 79 7e dc bc 38 ca 67 b8 5d 22 ad 37 d4 81 08 b8
       -0.026915776 -5.5263023e-05 2.0639209e-05 -3.254584e-05
0002a0 94 9f fe bc e2 64 bb bc 21 dc 9b 3b 46 9b 25 38
       -0.031081952 -0.022875253 0.004756466 3.9483675e-05
0002b0 92 24 b0 3c a4 bd 29 38 3e 49 a4 37 c2 9b 46 b8
       0.021501813 4.0469356e-05 1.958443e-05 -4.735194e-05
0002c0 6e 39 a9 37 6b 6a d7 bc 80 ff 1f 3d 09 5f 5f bb
       2.0173113e-05 -0.026295861 0.039062023 -0.0034083745
0002d0 cd 49 a9 b9 8d 80 89 37 f2 e6 12 bb 06 40 93 b8
       -0.00032289178 1.6391534e-05 -0.0022415486 -7.0214315e-05
0002e0 64 b7 46 38 9e 59 06 bd 67 68 ad 37 50 84 11 b7
       4.7377674e-05 -0.03280031 2.0671823e-05 -8.67348e-06
0002f0 72 aa 81 b8 2e ac 31 b8 69 89 2a bc e6 18 52 3a
       -6.182947e-05 -4.2360443e-05 -0.010408738 0.00080145744
000300 2f 96 81 bb 94 ec ac 3a 4d 2d 73 bb b2 7c b7 b8
       -0.003954671 0.0013193064 -0.0037105859 -8.749346e-05
000310 42 a0 01 b7 1d ec 18 38 1c bf 13 3d bc ea bd bc
       -7.726312e-06 3.645952e-05 0.036070928 -0.02318322
000320 ae 7e 8f bc 16 bc 05 3b 50 c7 6a b8 1a e1 8a 3b
       -0.01751646 0.0020406297 -5.597557e-05 0.00423826
000330 25 70 10 38 46 50 b3 b6 86 2e 2d bd 19 21 2d bb
       3.4436718e-05 -5.3439608e-06 -0.042280696 -0.0026417433
000340 0a e6 2c 3d 9e 17 63 3a 76 14 08 3d e0 57 b6 3c
       0.04221157 0.0008662882 0.033222638 0.022258699
000350 98 65 64 b7 99 88 aa b7 3b 9b ba bc 62 f2 5d b8
       -1.3613513e-05 -2.0329187e-05 -0.022779098 -5.2916243e-05
000360 f4 d7 fb 37 a8 0d 65 bc b3 46 86 37 48 73 17 3d
       3.0022093e-05 -0.013980307 1.6006967e-05 0.036975175
000370 39 e6 ce b8 8c 69 b5 bb cb 6d 9b 38 bb 06 49 b8
       -9.865728e-05 -0.005536264 7.4114265e-05 -4.7928403e-05
000380 6c 1d 85 ba e5 7d 94 b6 7c 54 7a 38 4b f9 6b 3c
       -0.0010155863 -4.4253998e-06 5.9683327e-05 0.014402698
000390 34 ae 9c b7 7b 9f e5 3c 40 8c de bc f8 ec 8a b4
       -1.8677769e-05 0.028030148 -0.027166486 -2.587692e-07
0003a0 b8 f9 0e bd 89 40 b6 b9 c3 99 18 b7 02 19 26 b8
       -0.03490612 -0.00034761828 -9.095706e-06 -3.9600774e-05
0003b0 2e 48 3d 38 99 df 37 3d 0d f4 e7 bb 73 9b 1a 3d
       4.5128334e-05 0.044890974 -0.0070786537 0.037745904
0003c0 60 f5 95 3a 91 13 66 ba d1 74 11 bd d6 2b 9e 3c
       0.0011440925 -0.00087767193 -0.035511795 0.019308012
0003d0 b4 c0 32 38 e0 e2 fa bb ee 91 0a bd d7 31 08 3c
       4.2617976e-05 -0.00765644 -0.033830576 0.008312664
0003e0 5d 38 82 b7 ca ef 9a bb e3 c6 ad b7 00 a1 dc bb
       -1.5523454e-05 -0.004728292 -2.0715821e-05 -0.00673306
0003f0 33 ab 9f b8 3b ab 6e 38 92 72 d0 b8 eb 9e 10 ba
       -7.613599e-05 5.6903093e-05 -9.939553e-05 -0.00055168447

bias f4 [36]
000000 2b fb b1 bb 31 5e f6 bc eb 95 e7 3c 11 12 23 3d
       -0.005431553 -0.03007421 0.028269729 0.03981215
000010 0f 63 3f 3c f5 7a 60 3c 36 3e 2c bc ce 91 fd bc
       0.011681332 0.01370119 -0.010512879 -0.030953314
000020 a2 da 21 bc bc 28 37 3d 2f cb 36 bd 8c 17 3e bd
       -0.009878786 0.04471658 -0.044627365 -0.046409175
000030 bf 06 0b 3d eb 18 ee ba e2 38 9c 3b 2e 3e b3 be
       0.03394198 -0.0018165385 0.004767523 -0.35008377
000040 04 09 16 bc 83 ff e4 3c d8 4f 19 bd 92 0b ac bb
       -0.009157423 0.027953869 -0.03742966 -0.0052504027
000050 bb b9 76 3b 4a 7c 02 3d c5 5f 36 bd 7b 80 2f bd
       0.0037647325 0.031856813 -0.044524927 -0.042847138
000060 fa a3 e8 bc a6 67 e8 bc ac 29 34 bc e7 ff 4a 3d
       -0.028398503 -0.028369736 -0.0109962635 0.049560454
000070 2c fa 1c bd cb e3 1c 3c a8 07 3a 3c 77 b6 dc 3c
       -0.03832452 0.009575794 0.011354364 0.026942475
000080 6c 2d ea 3b b4 24 07 bd 14 07 c5 3c e3 1b 82 bc
       0.007146528 -0.032993987 0.024051227 -0.015882438
