data/results/random_unitary/L=20/obs_t=0.0/latent-8_epochs-50000.dat_min_loss.net.pkl (torch_old, 154216 bytes, 8 tensors)

weight f4 [400, 36]
000000 1d a2 ff bd 20 b5 4d 3c 38 85 55 3d 5e 34 1e be
       -0.124820925 0.012555391 0.052129 -0.15449664
000010 b4 79 e4 3c 81 c1 89 3d 63 ec 83 bd ed 99 19 3e
       0.027890064 0.06726361 -0.064415716 0.15000124
000020 bb 4c b9 bc 98 37 8c bd 7f 9d 0a 3d 47 14 dd bd
       -0.022619596 -0.06846541 0.033841606 -0.10794883
000030 61 ce 28 3e 43 f6 78 bd 45 c4 26 3e 4a b7 d1 b0
       0.16484977 -0.06078173 0.16285808 -1.5258845e-09
000040 75 66 dc 3d ab b4 04 be 5d e0 67 bd 3f 10 8c bc
       0.1076173 -0.12959544 -0.056610454 -0.01709759
000050 42 e6 94 bc ac e8 0f be 52 d9 a1 3d 75 ab 18 3e
       -0.018176202 -0.14053601 0.07902779 0.14909156
000060 47 2b 04 3e 2a a8 b0 3d 5f 90 f6 3d 68 04 f9 af
       0.12907134 0.08625825 0.12039255 -4.5295967e-10
000070 12 bb a5 3d 27 8d ae bd 25 23 95 bd 79 8a a5 bd
       0.080923215 -0.085230164 -0.07282094 -0.08083052
000080 66 b1 29 be 27 ca e1 bd 80 8a 78 3d fe 72 50 af
       -0.16571578 -0.110248856 0.06067896 -1.8958343e-10
000090 6d 7e 00 be af c8 e2 3d 4e 60 27 bb f6 22 8f bd
       -0.12548228 0.110734336 -0.002553958 -0.0698909
0000a0 02 ff 76 bd 42 9e 22 be 34 89 16 be 47 5d 16 3e
       -0.06030179 -0.15880683 -0.14700776 0.1468402
0000b0 98 e6 c1 3d 99 b4 07 bd 0e 36 00 be 6d 24 d3 bd
       0.094678104 -0.033131216 -0.1252062 -0.10309682
0000c0 e5 80 2e 3d 87 81 4a 3d e0 73 d8 bd 85 57 2a be
       0.042603392 0.049439933 -0.105689764 -0.16634949
0000d0 58 0f e4 3d 49 65 e4 bc a8 5a 7e bc 5b a9 02 be
       0.11135739 -0.027880328 -0.015524544 -0.12759916
0000e0 2c c4 08 be ba 09 ff 3c 0b 6e 1a 3e ff 6e a2 bd
       -0.13356084 0.031132568 0.1508104 -0.07931327
0000f0 c5 2c ac bd dd d4 1e 3d f7 93 02 3d b2 72 39 3e
       -0.084069766 0.03877722 0.03187939 0.18110159
000100 cf e1 77 3b 9d d5 2c 3d 2a 83 05 3e 13 0b 84 3c
       0.0037823801 0.042195905 0.13038316 0.016118562
000110 2b f7 4b bd 99 59 ab 3c 58 5c 97 3d 50 e2 92 ba
       -0.049796265 0.020916747 0.0739066 -0.0011206362
000120 97 ce c6 bb fb 15 f3 3d d2 4a 24 3e bc 57 87 3c
       -0.006067108 0.11869427 0.16044167 0.016521327
000130 91 70 3e bd a4 0c 8a bd d2 60 ef 3d 95 a4 d4 bd
       -0.04649407 -0.06740692 0.11688389 -0.10382954
000140 6a 93 29 bd 4d f5 7b bd 82 36 fb bc 40 f6 0c be
       -0.04140035 -0.061513234 -0.03066564 -0.13765812
000150 8f 07 15 be 18 9d ca bd b2 8e 05 bd 41 17 89 3e
       -0.14553665 -0.098932445 -0.032606788 0.26775554
000160 c7 aa d2 bd e1 09 05 3e 56 70 d6 3c 91 87 d9 bd
       -0.102864794 0.1299205 0.026176613 -0.1062156
000170 16 10 d8 3d ed 80 e6 3c da 41 be bc b0 4a ae 3d
       0.10549943 0.028137648 -0.02322476 0.08510339
000180 8a 6b 05 be 73 ca 1e be a4 fe 68 bd 40 83 67 be
       -0.13029304 -0.15506916 -0.05688347 -0.22608662
000190 1a 96 c4 bd 9a a8 0c bd 59 b8 00 3e 7d 02 17 be
       -0.09598942 -0.03434048 0.12570323 -0.14747043
0001a0 b3 6a 9f bc 0b e1 f6 bc 07 26 be bd 96 be 8d be
       -0.019460058 -0.030136606 -0.09284597 -0.27684468
0001b0 f8 19 8e 3d 4b f8 84 bd 0f 63 5b bd 61 3e 49 bd
       0.06938547 -0.064926706 -0.053561267 -0.049131755
0001c0 73 0d 02 3e 0e 1a 26 be da 70 5e 3c 56 12 89 bd
       0.12700443 -0.16220877 0.013576711 -0.066929504
0001d0 64 3d 03 be 34 65 f0 3c 1a 53 26 3e 62 f4 55 3c
       -0.12816387 0.029345132 0.16242638 0.013058754
0001e0 68 33 07 3e bb 04 fb bc 63 90 b0 bd 8b 39 48 30
       0.13203204 -0.030641904 -0.086212896 7.284135e-10
0001f0 8d 98 21 3c 13 32 4b bd bf f2 14 3e 3a f1 b7 3d
       0.009863031 -0.0496083 0.14545725 0.08981557
000200 d9 1d 12 3e aa cc f6 bd 09 4a 23 be 96 14 1c 3c
       0.14269198 -0.12050755 -0.15946211 0.009526392
000210 66 32 2a 3e 28 21 13 3e f6 a3 bd bd 76 ce 73 30
       0.16620788 0.14368117 -0.09259789 8.8696284e-10
000220 78 d1 16 3e fb 7c 26 bd 0c 0c bb 3d 8a aa 54 bd
       0.14728343 -0.040646534 0.09133157 -0.05192045
000230 22 76 51 3c 69 ea 06 3c 28 3d bc 39 79 97 39 30
       0.012784513 0.008234599 0.0003590372 6.7517864e-10
000240 05 1c e9 bd 48 fa 97 bd 36 cf 85 bc 6f cb 71 bd
       -0.113822974 -0.07420784 -0.016334157 -0.0590319
000250 75 ff 3c bd 3c 42 9d 3d b4 d1 22 3e 80 22 27 3c
       -0.04614206 0.07678649 0.15900308 0.010201097
000260 f0 e6 9e bd 1c b9 12 3d 3e 41 4d bd 75 16 b0 3d
       -0.077588916 0.035821065 -0.050111048 0.08598033
000270 96 93 0a be ae d1 13 be e6 53 01 3d c9 a6 db b0
       -0.13532862 -0.14435455 0.031574152 -1.598175e-09
000280 26 85 5f bd 28 75 a6 bd 53 7f ef bd 5c d5 0e 3e
       -0.05457034 -0.081278145 -0.11694207 0.13948578
000290 bb 2c 42 3c 0d b4 b3 bd 44 01 7c 3d 3d 95 9c bb
       0.011851485 -0.08774576 0.061524644 -0.004778533
0002a0 bb 5a 97 bd 40 ac bf bd 7c 32 07 bc 82 bf 13 ae
       -0.07390352 -0.09359026 -0.0082517825 -3.3594023e-11
0002b0 8d d4 fe 3d b3 7d d6 bb 80 f8 9b bd a6 c5 62 bd
       0.124428846 -0.0065457462 -0.07615757 -0.055364273
0002c0 d8 f9 0d be 29 c1 a2 3d df 7f 46 bd 80 50 d3 af
       -0.13864839 0.079469986 -0.04846179 -3.8437875e-10
0002d0 0a 31 cd 3d 05 41 bf bd 28 65 ff bc 63 33 f2 bd
       0.10019119 -0.09338573 -0.031176165 -0.118262075
0002e0 10 d7 c0 bd 69 64 c5 3d a9 24 03 bc d5 41 65 3d
       -0.0941602 0.09638292 -0.008004346 0.055970985
0002f0 eb 6b c4 bd 16 53 0e 3e 3c 5b e8 3d 54 0e 85 3d
       -0.09590896 0.13898882 0.113455266 0.064968735
000300 3d 20 ea 3d f1 6b 07 be 08 0d 82 3d 05 72 fa 2f
       0.1143193 -0.1322477 0.06350142 4.555575e-10
000310 e6 fe 20 3e 52 96 60 bd f3 06 d1 3b db 0a a2 3d
       0.15722236 -0.054830857 0.0063790022 0.07912227
000320 7a 3c 22 3e f3 46 9b bd c9 46 45 3d a6 74 e5 3d
       0.15843382 -0.07581892 0.04816321 0.112038895
000330 62 5a 94 bd 71 74 4c bc d0 6c 27 3e 91 e3 ee 2f
       -0.07243802 -0.012478934 0.16350102 4.3453643e-10
000340 59 e7 6c bc e8 59 19 3e 57 1d e2 bc 25 60 55 bd
       -0.014459454 0.14975703 -0.027601881 -0.052093644
000350 b6 5e 94 bd d9 fd 7b bd c8 9a eb bc 85 95 a2 30
       -0.07244627 -0.061521385 -0.028760329 1.1829547e-09
000360 30 ed 31 ba 38 6d 1c 3e 97 d2 b2 3d 98 1c 10 be
       -0.0006787358 0.15276039 0.08731573 -0.14073408
000370 76 74 0a be e0 98 3c bd 74 44 66 bd 0d 66 05 be
       -0.13520989 -0.04604423 -0.056217626 -0.1302721
000380 b8 ba 26 3e b8 3c 52 3d 65 cb ad 3c a9 87 17 be
       0.16282165 0.051327437 0.02121515 -0.14797844
000390 95 42 0f 3d 26 af 8e bd 72 91 09 be 11 2b 44 37
       0.034975607 -0.06967001 -0.13434389 1.1692538e-05
0003a0 80 b4 50 bd 9b ff c2 3d a8 a7 59 3d 4e e0 85 bd
       -0.05095339 0.09521409 0.053138405 -0.06536923
0003b0 35 74 8d 3d 43 d9 a7 bd 2d f4 05 3d 39 ab 4a bd
       0.0690693 -0.08195736 0.032703567 -0.049479697
0003c0 56 3e 0c bd 85 76 c3 3d 34 79 11 be 48 fa 67 b5
       -0.034239136 0.0954409 -0.14206392 -8.6418413e-07
0003d0 40 7d 6a 3d 0f 6d 1e 3e cd 68 8d bd ba de 32 3d
       0.057248354 0.1547129 -0.06904755 0.04366944
0003e0 31 8a a8 3b 9e 27 9e 3d c2 81 c6 bd ec 68 85 b7
       0.005143427 0.077224 -0.09692718 -1.5903694e-05
0003f0 86 ac 24 be c0 c5 91 bd f1 eb 19 be ca 46 5e bd
       -0.16081437 -0.07117796 -0.15031411 -0.05426673

bias f4 [400]
000000 ca 1d 86 b0 3d e0 8d 3b 47 d7 52 bd a4 89 58 30
       -9.75825e-10 0.00432971 -0.051474836 7.877594e-10
000010 40 79 f0 2d 7e f2 0d b0 62 ee 1a 38 ae 1a 0f 2f
       2.7338687e-11 -5.1640103e-10 3.6938472e-05 1.3015253e-10
000020 1a 6c 35 3d f0 17 95 2e 66 76 40 30 18 82 c4 af
       0.044292547 6.779988e-11 7.001745e-10 -3.574463e-10
000030 e2 8d 62 30 ba 02 3d 2e c0 61 6d b8 aa 58 1d 30
       8.241995e-10 4.2976046e-11 -5.659624e-05 5.7242266e-10
000040 34 4e 45 af 90 d8 77 b0 34 d2 09 2f dc 13 a6 ae
       -1.7944829e-10 -9.016583e-10 1.2534757e-10 -7.552334e-11
000050 c9 f3 7e bb 11 e0 5e af 1a 87 1e 30 06 ac e5 af
       -0.0038902631 -2.0270387e-10 5.7672056e-10 -4.1777087e-10
000060 3a fd 58 2f d8 3e b5 b0 40 2f d5 2e 93 3c 7e bc
       1.973505e-10 -1.3187345e-09 9.694512e-11 -0.015517372
000070 92 62 9d 2f 2c f1 f2 ad 7a b0 20 af f2 60 7f bc
       2.8628172e-10 -2.7619317e-11 -1.4614612e-10 -0.015587078
000080 ac bc 05 3d 1e f0 fd 2f 01 be c6 b0 f0 21 32 b2
       0.032650635 4.6191045e-10 -1.4460398e-09 -1.036868e-08
000090 76 02 e6 2f de f9 a6 2e 2a 3b 13 af 24 b1 13 2f
       4.1838505e-10 7.5931914e-11 -1.3390591e-10 1.3432505e-10
0000a0 c9 b5 41 2f 88 62 74 30 ce 6a 35 30 78 15 b2 2f
       1.7617831e-10 8.8906704e-10 6.5999195e-10 3.2393266e-10
0000b0 b8 04 2d af 1a 46 53 b0 06 67 99 b2 f9 e2 7f 30
       -1.5735935e-10 -7.6860973e-10 -1.7858394e-08 9.3091007e-10
0000c0 88 3c 15 3d e5 38 80 2f 9e c2 05 b0 bb fd ca 2f
       0.03643468 2.332349e-10 -4.8661686e-10 3.6923872e-10
0000d0 5b bd e4 2f 67 fe 69 3b dc 9c ac af 40 cb 05 2f
       4.1607504e-10 0.0035704614 -3.1398073e-10 1.2168488e-10
0000e0 b8 e2 fc af 1d 7a e5 af 4e fc a9 30 54 55 1d b0
       -4.5999626e-10 -4.1741624e-10 1.2368078e-09 -5.7237526e-10
0000f0 08 01 b6 ae 35 8e 72 30 50 d1 04 2f e4 d4 04 b0
       -8.276585e-11 8.8241175e-10 1.2079693e-10 -4.8323856e-10
000100 42 3b 73 39 03 4f 3e b0 a4 e8 24 af 20 b2 84 b8
       0.00023196361 -6.923388e-10 -1.4998364e-10 -6.327429e-05
000110 13 eb 2b b0 19 6d 67 b0 8e df d0 af 4f 71 92 b0
       -6.25435e-10 -8.419235e-10 -3.7993825e-10 -1.0655102e-09
000120 70 fc ba af 78 f3 39 b0 3a 80 89 30 98 c8 e1 2f
       -3.401257e-10 -6.76486e-10 1.0004506e-09 4.1069792e-10
000130 30 ab 2b 30 f0 24 9f 2e 18 88 bc 34 45 54 a0 30
       6.245271e-10 7.237044e-11 3.511675e-07 1.1665483e-09
000140 db 06 8a af 1f c5 37 b0 b0 f9 aa 30 8a d1 46 3c
       -2.5106925e-10 -6.685514e-10 1.2440093e-09 0.012134919
000150 c7 02 08 3c 06 ca 5e b6 b3 87 99 36 47 0f 87 af
       0.008301443 -3.319817e-06 4.575553e-06 -2.4567212e-10
000160 8b 8c c0 b3 25 f5 2d ba ca 77 ba 30 fe a4 cc b8
       -8.966261e-08 -0.00066359557 1.3567327e-09 -9.75821e-05
000170 30 8b c3 2e 3d 8f 24 bc e2 ea d7 2f 2a c7 37 2f
       8.892298e-11 -0.010043916 3.9275166e-10 1.671451e-10
000180 39 dc 9f af 4a b4 c9 2f 88 f4 a2 3b f9 09 6b b0
       -2.907841e-10 3.668979e-10 0.004972998 -8.5506674e-10
000190 2a ea 3a b0 8c 43 b9 2e 60 46 a2 30 57 ee 1c 30
       -6.7999173e-10 8.424825e-11 1.1807053e-09 5.709117e-10
0001a0 36 40 cc 2f 15 af 48 38 90 44 b1 ae 51 1d 90 30
       3.7153008e-10 4.7846774e-05 -8.061207e-11 1.0485711e-09
0001b0 a2 06 30 2f b8 41 3a b0 16 db 48 af 8f 1f 38 b0
       1.6009463e-10 -6.77598e-10 -1.8267729e-10 -6.698366e-10
0001c0 d0 77 23 30 5b a8 09 bd 70 6c d4 b0 58 ad a0 30
       5.946932e-10 -0.033607822 -1.545585e-09 1.1690799e-09
0001d0 10 8c a0 b0 94 b2 e4 af 29 e8 f2 bc ee d5 f1 2f
       -1.168134e-09 -4.1599846e-10 -0.029651718 4.398965e-10
0001e0 bb fb 34 30 00 3a a7 ae 11 3c 14 30 88 92 01 31
       6.584135e-10 -7.6045836e-11 5.3927446e-10 1.8855264e-09
0001f0 f1 d2 4f 30 d4 4c 9a af 8b be 94 af b8 73 e4 af
       7.5605927e-10 -2.8067026e-10 -2.7056432e-10 -4.1555182e-10
000200 05 7b 05 b0 eb 7c 10 b0 c2 62 2c b0 c9 5a c4 bb
       -4.855994e-10 -5.2564414e-10 -6.271358e-10 -0.0059922677
000210 bf 92 de b0 37 b1 25 b0 26 76 d6 af 0e 5f 89 af
       -1.6194334e-09 -6.027849e-10 -3.9010323e-10 -2.4987695e-10
000220 a4 fa 46 2f 86 bb 8e af 13 25 27 ba 96 91 74 30
       1.809704e-10 -2.5962893e-10 -0.0006376069 8.8973573e-10
000230 a8 8d 8a af aa 2e a7 bb 15 30 3c 30 ab 03 02 b5
       -2.5202707e-10 -0.0051019983 6.846233e-10 -4.843411e-07
000240 ca 4b 60 b0 8c da 84 b0 8a 57 f4 2f 1d ea 21 b0
       -8.159843e-10 -9.666379e-10 4.4445542e-10 -5.8904154e-10
000250 72 76 2e b0 da ab 5b b7 f6 0e 3b 30 fb 4f d6 3b
       -6.346915e-10 -1.30934295e-05 6.8051464e-10 0.006540296
000260 fe 54 16 3d 12 4e 04 b0 f0 59 69 30 51 17 f7 31
       0.03670215 -4.8132265e-10 8.4892715e-10 7.191297e-09
000270 bc 45 5e b0 78 6a 61 b0 80 1e 10 30 a6 f2 2e 30
       -8.086223e-10 -8.2005824e-10 5.243024e-10 6.3645655e-10
000280 36 91 21 b0 94 b1 33 b0 86 3c 20 30 e4 75 73 b0
       -5.8777816e-10 -6.5372174e-10 5.829367e-10 -8.857042e-10
000290 dc 0e 07 b0 55 e8 94 bc b1 8d 02 30 39 4e bb b0
       -4.913383e-10 -0.01817719 4.749508e-10 -1.3628273e-09
0002a0 e4 79 95 2f 3c 8d 81 2e 5c 43 b1 2e f2 ea 22 b0
       2.718955e-10 5.891329e-11 8.0609935e-11 -5.9269134e-10
0002b0 7d dd 15 37 d6 1b 20 30 2b 15 83 af 71 d1 bb 3b
       8.932661e-06 5.824722e-10 -2.3843802e-10 0.0057317545
0002c0 43 1f b7 af fa c5 24 af 2c 1e 0e b0 e8 42 d9 3c
       -3.330972e-10 -1.4986049e-10 -5.1702176e-10 0.026521161
0002d0 5a e0 dc 2f 7e 77 91 2e 04 32 80 2e 4d 47 de 3b
       4.0177178e-10 6.615063e-11 5.8296507e-11 0.006783402
0002e0 da e2 00 30 6a a0 32 30 7e ec 25 b0 ab 28 61 30
       4.6888504e-10 6.4983985e-10 -6.0362726e-10 8.1912316e-10
0002f0 d9 e0 c0 2f c6 f5 98 b1 35 43 66 30 ee 2c 56 b0
       3.508436e-10 -4.4517234e-09 8.376902e-10 -7.7916595e-10
000300 68 66 0f 2f bb 54 17 30 88 c6 73 bb 84 e0 ea ad
       1.3042156e-10 5.505389e-10 -0.0037197191 -2.6702425e-11
000310 50 41 0d 3c 80 70 db ad 44 91 22 b0 00 6b a4 30
       0.008621529 -2.4947377e-11 -5.914169e-10 1.1962982e-09
000320 4c 17 31 b0 b1 56 d3 2f d4 b3 80 af 20 d9 27 2f
       -6.442533e-10 3.8442274e-10 -2.341084e-10 1.52657e-10
000330 be 91 97 bc a9 16 62 b0 a0 05 31 3c 08 c4 4a 30
       -0.018502112 -8.2250523e-10 0.010804564 7.376575e-10
000340 86 10 31 b0 b1 60 81 2f 5c a1 7a bc 5c 6e da bb
       -6.4415706e-10 2.3533667e-10 -0.01529726 -0.006665988
000350 ba e1 82 30 6d e5 ff 2e ff 1f bf 3b b8 68 c2 af
       9.5229e-10 1.1636812e-10 0.0058326717 -3.5362802e-10
000360 6e a6 0d 2f ee 4e d4 2f 49 97 f0 3c dc a5 4d b0
       1.2883003e-10 3.8618658e-10 0.029369013 -7.4814266e-10
000370 f0 4b 0a 2e 10 d8 07 af 14 f2 42 30 e8 e6 37 b0
       3.1445013e-11 -1.2354939e-10 7.09208e-10 -6.690315e-10
000380 eb 05 0b bd 5d e5 3d b0 b8 72 a9 36 2a 99 ca ad
       -0.03394119 -6.9083744e-10 5.0499475e-06 -2.303276e-11
000390 c2 61 d0 af fd 61 02 b0 4a 0e b7 b0 90 f5 ad 2f
       -3.790444e-10 -4.7432974e-10 -1.3319064e-09 3.1643e-10
0003a0 04 04 65 30 ce 47 20 2f e4 f4 f9 ae 58 d0 9d ae
       8.331542e-10 1.4577425e-10 -1.13667104e-10 -7.176543e-11
0003b0 a7 24 74 b0 9d ed 32 2f 86 86 1f b0 cc 37 ce 37
       -8.881877e-10 1.6273423e-10 -5.803503e-10 2.4583096e-05
0003c0 2a 23 f3 2f 88 88 a7 2d f5 37 03 2f 1c 3b 00 ae
       4.4226428e-10 1.9046334e-11 1.193426e-10 -2.915633e-11
0003d0 07 ba a4 2e 7c 3e b5 af 94 0f 63 3c 58 90 96 2f
       7.4909016e-11 -3.2968106e-10 0.013858695 2.7387403e-10
0003e0 a0 6b f1 ae c0 b5 bc ae 06 4a 0e 30 e7 b7 e1 b0
       -1.0978529e-10 -8.5815355e-11 5.176449e-10 -1.6423173e-09
0003f0 f2 ee 35 b0 32 1b eb 2f 30 0b 07 30 8d 33 73 bb
       -6.618698e-10 4.2765574e-10 4.912861e-10 -0.0037109584

weight f4 [8, 400]
000000 3d 0e 93 32 0d 9a 5f bc 86 46 ee 3d bf f5 bc 31
       1.7119527e-08 -0.013647568 0.11634545 5.4994582e-09
000010 11 c8 0d 31 35 f0 01 32 e9 9b e8 39 c8 32 28 32
       2.0631925e-09 7.563405e-09 0.0004436665 9.790433e-09
000020 00 1e 49 bd d5 35 53 31 73 8d a4 30 83 68 0a b2
       -0.049100876 3.073514e-09 1.1972773e-09 -8.05642e-09
000030 5e 7b 1a b2 2e 4c d3 31 3b c8 df ba 9d 81 45 b2
       -8.99203e-09 6.149569e-09 -0.0017073223 -1.149638e-08
000040 28 d3 48 32 f9 6e 71 b0 43 b9 ce b2 c4 61 d1 30
       1.16895436e-08 -8.783299e-10 -2.4065804e-08 1.5234538e-09
000050 38 bc d0 bd a3 47 86 32 d9 15 17 b0 69 40 ec 31
       -0.1019215 1.563223e-08 -5.496453e-10 6.8758266e-09
000060 9a 04 77 32 a8 8a 75 30 35 bb 7e b0 4b 7f 59 bd
       1.43783385e-08 8.9327523e-10 -9.26707e-10 -0.05309991
000070 db 12 02 b2 54 3b 67 b1 94 c8 00 b1 b3 f9 e0 bd
       -7.571283e-09 -3.3648648e-09 -1.8740467e-09 -0.10985126
000080 d9 5b 8f 3c d0 e2 52 b0 1e 2c 84 b1 8b cf 9c b4
       0.017499851 -7.6719875e-10 -3.846721e-09 -2.9208272e-07
000090 8b 4a 96 31 3a e5 d2 2e ae 90 27 31 cb 80 a6 b2
       4.374049e-09 9.590413e-11 2.438394e-09 -1.9383512e-08
0000a0 8f a3 66 31 29 73 9f b1 e2 4e e2 31 6e 37 27 b2
       3.3562377e-09 -4.6406012e-09 6.5864336e-09 -9.733283e-09
0000b0 cb 02 75 31 62 1b de 31 c5 6e 02 b5 fe 85 7e 32
       3.565378e-09 6.4641634e-09 -4.8589965e-07 1.4815212e-08
0000c0 49 8f 4b 3e ce 02 91 31 aa 22 ec b1 57 4c fb b1
       0.19878878 4.2203743e-09 -6.872445e-09 -7.3137403e-09
0000d0 15 1c 8a 31 76 00 bd 3d 19 03 b9 31 9d 59 52 b2
       4.019521e-09 0.092286035 5.384561e-09 -1.22439845e-08
0000e0 2a 35 80 b2 ac 6f 01 32 5b 24 72 32 bd e9 f3 31
       -1.4925337e-08 7.5341795e-09 1.409452e-08 7.0988038e-09
0000f0 32 e8 11 32 a0 f9 0a b1 be c7 9d b0 af 7b cf b1
       8.492906e-09 -2.0223538e-09 -1.1480024e-09 -6.038554e-09
000100 eb af ba b9 fa 6f 9a b2 b4 0c 7a b2 fb ab 1d bc
       -0.00035607754 -1.797888e-08 -1.4554804e-08 -0.009623523
000110 f5 48 12 32 03 ed 0d 32 c8 25 4b 30 a5 e4 5d 31
       8.514907e-09 8.26117e-09 7.390466e-10 3.2289702e-09
000120 b5 b4 d4 30 91 dd f1 30 8d ae 16 31 83 c6 9f b2
       1.547639e-09 1.7598031e-09 2.1927093e-09 -1.8600309e-08
000130 ce b3 7b 30 6b 5b 1a b2 b0 ec 38 37 3a bf 07 31
       9.1568786e-10 -8.984766e-09 1.1022363e-05 1.9753785e-09
000140 96 ff b4 31 42 26 bb b0 ef 17 8c 31 37 d1 da bd
       5.2677462e-09 -1.3616914e-09 4.077257e-09 -0.10684436
000150 09 16 46 bd af eb c1 b8 27 e3 1f 39 34 58 d8 b1
       -0.048360858 -9.246857e-05 0.00015248042 -6.296455e-09
000160 54 e5 35 b6 55 10 99 3e d0 de d6 b0 02 c0 ab ba
       -2.7104588e-06 0.29895273 -1.5633876e-09 -0.0013103487
000170 2e 46 9e 31 bd 4a 0c 3d 38 40 2d b2 0e 7a 02 32
       4.6063837e-09 0.034250963 -1.0084527e-08 7.594748e-09
000180 b6 9b 00 31 57 ba 48 b0 82 2c 60 bb 90 85 84 31
       1.8714963e-09 -7.302438e-10 -0.0034206216 3.85689e-09
000190 7c 4d 96 31 08 38 34 32 df b9 2b 32 00 0e a0 31
       4.3743835e-09 1.0490119e-08 9.995772e-09 4.6582045e-09
0001a0 42 2b f5 31 c0 dc 1b b9 45 52 87 32 2b 8b aa b0
       7.1353563e-09 -0.00014864188 1.575348e-08 -1.2408682e-09
0001b0 6d 15 6f 31 b1 82 b6 31 d3 78 34 b2 f3 c1 f7 b1
       3.4791257e-09 5.311755e-09 -1.0504851e-08 -7.2106956e-09
0001c0 63 21 8a 31 a6 7b 2f be 8f 6b ab 31 24 4a 79 b0
       4.0201242e-09 -0.17137012 4.988983e-09 -9.069103e-10
0001d0 44 eb db b2 e3 eb ac 2f 36 2e 4c be e0 ba 0d af
       -2.5601942e-08 3.1454225e-10 -0.19939503 -1.2890267e-10
0001e0 c5 45 2e 2f 6d be 00 b0 dc 48 fd 30 5c 31 71 32
       1.5849995e-10 -4.683674e-10 1.8428881e-09 1.4039269e-08
0001f0 41 01 46 b1 37 cd b2 31 5d 56 09 32 98 a8 ba 31
       -2.8813505e-09 5.203812e-09 7.994086e-09 5.4324794e-09
000200 71 14 94 2f 42 12 c5 b1 c8 0d f8 b1 d6 e5 e8 3d
       2.6935568e-10 -5.7355303e-09 -7.2193167e-09 0.11371963
000210 82 88 f6 b1 cf 8c 4c 32 06 a0 ae b1 cd 7c fc 31
       -7.1750614e-09 1.1906379e-08 -5.082259e-09 7.3483535e-09
000220 f5 a3 c4 b0 67 80 02 b0 a8 99 44 be d8 ba 15 32
       -1.4307476e-09 -4.7476195e-10 -0.1919924 8.715425e-09
000230 6d 95 cc b0 52 0f e3 bd e6 43 ec 31 bc c4 06 b7
       -1.4885423e-09 -0.110869065 6.876223e-09 -8.032828e-06
000240 e5 d2 f7 31 8b e5 25 32 01 d6 1b b2 27 b3 a0 31
       7.212622e-09 9.656456e-09 -9.070846e-09 4.67698e-09
000250 80 96 07 b0 25 0c 32 b9 6d dc 24 32 f0 89 a4 3d
       -4.932659e-10 -0.00016979927 9.596175e-09 0.08034122
000260 52 df 2c be 32 8a 67 31 09 fa aa b1 60 ce ad 34
       -0.16882065 3.369348e-09 -4.976077e-09 3.237392e-07
000270 08 b3 2e 32 21 71 3d 32 d2 3b 08 31 93 05 3d b2
       1.016884e-08 1.10269704e-08 1.9824609e-09 -1.1002515e-08
000280 fb 15 b7 32 85 36 25 32 29 a5 b0 30 4d 2c 07 32
       2.1314e-08 9.61666e-09 1.2852627e-09 7.868107e-09
000290 c5 82 98 b1 94 00 b2 3d 71 0b c6 b1 0f c3 a1 b1
       -4.438649e-09 0.086915165 -5.763859e-09 -4.7078923e-09
0002a0 29 f8 69 32 f9 86 38 32 42 34 30 32 7f f7 98 b1
       1.361881e-08 1.0740899e-08 1.025643e-08 -4.4519193e-09
0002b0 19 ba 80 39 64 d9 88 b0 06 46 76 32 89 d8 ef 3c
       0.00024552716 -9.957088e-10 1.4335006e-08 0.029278057
0002c0 a6 f7 bd b1 d8 4c fc 31 5f 19 9c 32 a3 d0 60 bd
       -5.5287783e-09 7.3429014e-09 1.8172328e-08 -0.05488647
0002d0 81 ae 07 b2 a7 7b 86 2f ee 21 27 b1 50 d7 1f bd
       -7.897712e-09 2.4462318e-10 -2.4320985e-09 -0.039023697
0002e0 58 fd 45 b1 b5 f7 03 b1 cf 3a 31 b1 4c 01 d8 2f
       -2.8811282e-09 -1.9203814e-09 -2.5790319e-09 3.9291093e-10
0002f0 e0 ba e8 30 ca 28 35 b4 e3 ba 84 b1 3c 1c 31 b1
       1.6933335e-09 -1.6871778e-07 -3.862952e-09 -2.577294e-09
000300 c8 01 15 b2 d4 34 7e 31 a0 45 63 3d 00 f5 da 31
       -8.6733465e-09 3.6991894e-09 0.05548632 6.3724883e-09
000310 8c 52 84 bd f6 f1 55 b1 ca 50 8d 32 bc 88 29 b1
       -0.06461057 -3.1133118e-09 1.6451299e-08 -2.4670461e-09
000320 14 5e bc 31 11 5b 50 32 ba 5b 68 b2 80 5a 01 32
       5.4822156e-09 1.21279e-08 -1.35250335e-08 7.529366e-09
000330 fc 46 e7 bd 9c 19 03 32 49 40 ec 3d c8 a7 af b0
       -0.11292836 7.6310265e-09 0.11535699 -1.2780612e-09
000340 53 a8 0c 32 3e 8f 62 32 e7 96 4d be 12 c1 82 bd
       8.187345e-09 1.3187501e-08 -0.20077096 -0.063844815
000350 c3 60 c9 30 52 fc 8a 2f 43 f3 ff 3d dc 0d a2 31
       1.4652176e-09 2.5281338e-10 0.1249757 4.716396e-09
000360 08 64 61 b0 3d a5 4e 32 25 1d 2f 3e 0c e9 8e 31
       -8.1996676e-10 1.2028349e-08 0.17100962 4.1592383e-09
000370 f4 97 c7 31 03 e1 1e 31 41 6f bf ae 44 08 73 b2
       5.8089373e-09 2.311993e-09 -8.705437e-11 -1.4146341e-08
000380 a6 f6 1e be d0 28 80 b1 0e df 2a 39 b3 e6 c6 b1
       -0.15523776 -3.72993e-09 0.00016295558 -5.788786e-09
000390 e6 17 92 30 b5 f4 10 b2 60 91 27 32 be c4 5e b2
       1.062969e-09 -8.437543e-09 9.753734e-09 -1.2966835e-08
0003a0 39 da 32 32 ce 88 2e b2 0f 89 11 32 ce 90 56 31
       1.0410582e-08 -1.0159239e-08 8.471274e-09 3.122341e-09
0003b0 c1 f0 28 32 39 ed 3b b0 9f 6f 11 31 95 d1 2c 3a
       9.833628e-09 -6.836732e-10 2.1163726e-09 0.00065925095
0003c0 93 9d a5 31 27 97 57 2f 8d 84 08 b2 db 05 ca b1
       4.820046e-09 1.9607836e-10 -7.94638e-09 -5.8796394e-09
0003d0 8f 6c a7 31 9b e7 07 b1 d0 cf c3 3d 32 e3 6d 31
       4.8726814e-09 -1.9776738e-09 0.095611215 3.4617185e-09
0003e0 9d 76 2e 32 3c 7e 25 31 0c a1 79 31 d0 2b 90 31
       1.01551025e-08 2.4082416e-09 3.6325813e-09 4.1959325e-09
0003f0 00 41 ae b0 4b 26 a0 b1 4f fe 35 b1 de eb ec bd
       -1.267864e-09 -4.6609663e-09 -2.6483524e-09 -0.115684256

bias f4 [8]
000000 02 9c 6b bc d7 cc 6c bc cd d2 8f bb ba 13 f0 3b
       -0.014380457 -0.0144531345 -0.004389143 0.0073265703
000010 52 13 cb 3a a1 07 99 3c 7a 6e 81 bc 75 bc 0c bc
       0.0015493429 0.018680396 -0.01579975 -0.0085898535

weight f4 [400, 8]
000000 3c fc 7e 04 b1 24 80 04 1c bb a0 83 bc 35 38 04
       2.9973377e-36 3.012635e-36 -9.446913e-37 2.165377e-36
000010 da be 43 04 6e 72 08 84 d8 90 43 83 03 61 8c 84
       2.3009775e-36 -1.6039267e-36 -5.747162e-37 -3.3002933e-36
000020 70 14 c8 83 48 fe 7c 03 40 70 a8 03 38 69 22 03
       -1.1759636e-36 7.4348045e-37 9.899924e-37 4.7728306e-37
000030 c0 a6 18 83 00 a8 37 82 c0 25 30 02 00 f9 61 02
       -4.4860205e-37 -1.349293e-37 1.2941272e-37 1.6601849e-37
000040 14 16 d5 03 60 fe f0 02 90 b1 d6 82 18 a2 6e 03
       1.2524084e-36 3.5410835e-37 -3.154639e-37 7.012799e-37
000050 80 09 25 82 00 12 47 83 00 85 6f 80 00 01 ec 82
       -1.2125012e-37 -5.8501507e-37 -1.0241451e-38 -3.4677657e-37
000060 d0 44 23 83 cc cc b9 03 b4 63 c8 03 40 4a ba 81
       -4.7980388e-37 1.0920342e-36 1.1777834e-36 -6.843215e-38
000070 00 29 a3 02 14 dd b6 83 80 40 5f 02 54 b4 bb 83
       2.397423e-37 -1.0747756e-36 1.6401963e-37 -1.10322735e-36
000080 d0 24 c5 03 48 b2 56 83 40 9d 51 82 c8 ff 54 83
       1.1587071e-36 -6.3093605e-37 -1.5400023e-37 -6.2594823e-37
000090 60 3d 54 83 dc c8 ea 83 e8 28 50 03 66 a6 60 84
       -6.2371656e-37 -1.3799399e-36 6.1172664e-37 -2.640748e-36
0000a0 b4 2a 8f 03 20 56 4a 02 40 82 6c 02 80 b9 14 01
       8.414589e-37 1.4865333e-37 1.7375922e-37 2.7316397e-38
0000b0 dc da 91 83 04 5e b8 83 30 c7 f5 02 d4 c3 da 83
       -8.572582e-37 -1.0836133e-36 3.6113843e-37 -1.2857848e-36
0000c0 30 96 78 83 e0 02 24 82 40 27 97 81 08 a2 11 83
       -7.3053057e-37 -1.2049642e-37 -5.552496e-38 -4.2797673e-37
0000d0 d0 5e 8b 03 30 f0 63 03 88 c0 5b 83 14 2b 01 04
       8.191454e-37 6.6985026e-37 -6.457933e-37 1.5183658e-36
0000e0 c0 52 0c 04 d0 10 57 83 ac 2a 90 83 c0 c3 af 01
       1.6494918e-36 -6.320212e-37 -8.473356e-37 6.4565735e-38
0000f0 60 52 a6 82 68 08 81 83 b8 ef 1a 03 ac 0e 20 84
       -2.4438789e-37 -7.5838685e-37 4.5531716e-37 -1.8814647e-36
000100 60 92 41 02 80 d5 1e 83 60 9f 9a 02 80 e0 2b 03
       1.4221408e-37 -4.6677113e-37 2.2719743e-37 5.0510097e-37
000110 d8 ab 80 83 50 40 90 03 20 21 4f 83 7a 48 42 04
       -7.562617e-37 8.478325e-37 -6.086986e-37 2.283787e-36
000120 f4 e0 88 04 00 a7 60 03 4c 5c 8d 83 90 d3 a6 03
       3.2180033e-36 6.601939e-37 -8.3084255e-37 9.8051755e-37
000130 00 bf 1a 03 08 3a 27 84 00 2c 13 83 52 f9 6e 84
       4.547579e-37 -1.9657402e-36 -4.3249927e-37 -2.8091248e-36
000140 ac 78 9c 03 e0 64 e1 03 60 44 df 02 10 45 5f 83
       9.196561e-37 1.3247471e-36 3.280615e-37 -6.561309e-37
000150 66 3e 2b 04 2e e2 30 84 84 48 96 83 d8 f2 67 84
       2.0129605e-36 -2.0792557e-36 -8.832856e-37 -2.7265428e-36
000160 18 52 54 83 08 ea c7 83 2c 31 a2 83 b0 c8 89 82
       -6.239544e-37 -1.17499e-36 -9.5327936e-37 -2.024553e-37
000170 e0 34 20 83 3c 6d ef 03 80 2f 3a 03 88 cb a6 03
       -4.708047e-37 1.40722365e-36 5.4715015e-37 9.803332e-37
000180 80 9e 07 01 3c ef 23 84 bc 7f d2 83 c8 3d 7a 83
       2.4909302e-38 -1.9270409e-36 -1.2372017e-36 -7.353932e-37
000190 80 08 10 83 b0 61 16 04 c0 07 c4 01 7c ed fb 03
       -4.2327554e-37 1.7677271e-36 7.201015e-38 1.4806978e-36
0001a0 a8 04 6a 83 92 56 4c 84 a8 26 5b 03 c0 3e 11 83
       -6.8771765e-37 -2.4019836e-36 6.440269e-37 -4.2683704e-37
0001b0 76 59 62 84 f8 0d 43 03 30 3d bb 02 9a e6 52 04
       -2.660725e-36 5.7321385e-37 2.75123e-37 2.4791268e-36
0001c0 a4 8e ca 83 b0 aa 0f 03 00 52 d0 01 20 2a 4d 83
       -1.1905242e-36 4.2219863e-37 7.6524797e-38 -6.0292443e-37
0001d0 18 31 b2 03 28 be 1f 03 80 07 92 81 00 df 0b 80
       1.0473171e-36 4.694419e-37 -5.364269e-38 -1.090188e-39
0001e0 fc 64 6b 07 cf ed 4a 07 44 02 8c 86 18 b5 18 07
       1.7709112e-34 1.5266677e-34 -5.2665476e-35 1.1488428e-34
0001f0 a2 ad eb 06 ba d1 f3 86 2b ec 21 85 cd 1a 7d 87
       8.8652306e-35 -9.1714606e-35 -7.613561e-36 -1.904148e-34
000200 58 20 9a 03 20 29 87 83 d8 52 19 83 10 7f 0e 03
       9.058732e-37 -7.944029e-37 -4.505776e-37 4.187591e-37
000210 a8 8a 9f 83 00 74 76 01 00 24 9c 81 c8 a4 4e 03
       -9.377014e-37 4.526629e-38 -5.7357007e-38 6.072712e-37
000220 5b cd 9b 84 5e 87 27 84 e6 e6 29 04 84 78 cb 83
       -3.6628914e-36 -1.9692913e-36 1.9971878e-36 -1.1958937e-36
000230 c4 7f 62 84 98 9c b8 03 90 2d b9 02 23 9c 9c 04
       -2.662484e-36 1.08505e-36 2.7209458e-37 3.6818813e-36
000240 50 e9 8e 82 f0 69 13 83 00 08 ec 01 14 c4 99 83
       -2.099894e-37 -4.3321028e-37 8.670419e-38 -9.037549e-37
000250 f8 43 c6 03 c0 6a 6b 82 e0 99 68 83 80 80 fd 01
       1.1652999e-36 -1.7295709e-37 -6.835531e-37 9.312191e-38
000260 c4 22 ed 03 18 8b 28 83 04 65 91 83 00 c4 92 02
       1.393759e-36 -4.9530435e-37 -8.545526e-37 2.156527e-37
000270 d0 7f e0 82 00 01 7a 01 10 ee ad 82 58 62 06 83
       -3.2987203e-37 4.5918466e-38 -2.5556707e-37 -3.9491954e-37
000280 d6 0c 75 04 bc 59 b1 03 50 0e b8 83 74 54 86 03
       2.8805506e-36 1.0423727e-36 -1.0817834e-36 7.895202e-37
000290 24 c1 ce 03 e0 9c c7 83 a0 ca 58 82 1e 91 65 84
       1.2151935e-36 -1.17321855e-36 -1.5927324e-37 -2.6985455e-36
0002a0 c8 23 43 83 80 80 2b 83 00 7f b1 02 00 85 57 03
       -5.7346424e-37 -5.0399894e-37 2.6080707e-37 6.33355e-37
0002b0 dc e9 9e 83 04 09 c6 03 78 d1 2e 83 0e 7e 79 04
       -9.340097e-37 1.1639464e-36 -5.1374463e-37 2.932769e-36
0002c0 c0 2d 1a 83 30 3e 4d 03 40 ff 4e 82 00 ea 91 02
       -4.530905e-37 6.0315473e-37 -1.5207743e-37 2.1440145e-37
0002d0 30 62 6f 03 88 48 4b 03 20 71 8b 82 60 3a 14 03
       7.03485e-37 5.97396e-37 -2.0489145e-37 4.35603e-37
0002e0 30 79 6a 84 0a c7 04 84 64 b2 d4 03 f4 49 05 84
       -2.7562214e-36 -1.560792e-36 1.2501197e-36 -1.5668032e-36
0002f0 0c 3b 1c 84 40 4c 65 03 60 3b 35 03 70 c0 0d 04
       -1.8364825e-36 6.7384582e-37 5.325928e-37 1.6662833e-36
000300 d0 b5 71 83 c8 08 3d 84 b0 92 d7 02 a0 c7 f6 82
       -7.1032245e-37 -2.2220875e-36 3.1675605e-37 -3.626103e-37
000310 f6 e2 26 84 04 47 d3 03 a0 2c cd 82 a8 ca 71 04
       -1.9617422e-36 1.241777e-36 -3.0147656e-37 2.8422469e-36
000320 b8 68 48 04 10 96 6c 03 70 cb af 83 b0 59 87 03
       2.3557972e-36 6.952643e-37 -1.03322825e-36 7.955178e-37
000330 56 ce 0b 04 10 3e 1a 83 94 98 92 83 50 df c0 83
       1.6434116e-36 -4.5327777e-37 -8.616139e-37 -1.1336016e-36
000340 60 6d 18 83 52 3e 37 84 28 69 a4 03 b0 46 32 83
       -4.479434e-37 -2.1540163e-36 9.663196e-37 -5.2390644e-37
000350 30 26 8b 84 a0 eb 8d 82 38 06 86 03 0c de 95 03
       -3.2713813e-36 -2.085333e-37 7.87724e-37 8.808412e-37
000360 40 2e 6d 02 34 a6 bb 03 8c 63 bf 83 e0 94 9d 02
       1.7425283e-37 1.10290305e-36 -1.1248826e-36 2.3154527e-37
000370 a8 f8 08 04 20 d2 6e 03 a0 5a 78 02 f0 0a 6f 83
       1.61009e-36 7.0183126e-37 1.824617e-37 -7.0248343e-37
000380 c0 4f 09 04 c0 b5 5d 02 40 de 64 03 04 3d c5 03
       1.6140892e-36 1.6288675e-37 6.725831e-37 1.1592628e-36
000390 ce 10 07 84 b4 53 d0 83 98 16 24 03 3e 3a 00 84
       -1.587689e-36 -1.22443585e-36 4.8221205e-37 -1.5073071e-36
0003a0 4c 52 8f 83 c8 c6 a2 83 60 af b0 03 6c cb 93 83
       -8.423679e-37 -9.567142e-37 1.0384614e-36 -8.686587e-37
0003b0 ac c3 1f 84 0c a4 c8 83 b0 70 8d 03 40 ef 6c 83
       -1.8780208e-36 -1.1792607e-36 8.313107e-37 -6.962881e-37
0003c0 10 e2 a2 02 d8 be 23 03 50 03 73 03 80 c0 70 03
       2.3933514e-37 4.8120473e-37 7.1415084e-37 7.075064e-37
0003d0 40 b4 92 81 78 bd 26 83 a8 31 10 83 70 09 f2 02
       -5.3890576e-38 -4.9000515e-37 -4.23748e-37 3.556412e-37
0003e0 00 91 91 80 40 99 ee 01 80 f1 6d 01 c0 da 3b 03
       -1.3368163e-38 8.7647295e-38 4.3703293e-38 5.5205474e-37
0003f0 00 15 c1 81 40 38 64 02 40 26 dd 81 3c 55 99 03
       -7.0927137e-38 1.6766937e-37 -8.1237465e-38 9.012101e-37

bias f4 [400]
000000 88 57 15 03 00 22 6e 81 40 3e a2 02 20 9b 12 02
       4.3887646e-37 -4.373809e-38 2.383949e-37 1.0770905e-37
000010 00 97 d1 01 00 7d 58 80 00 3b 59 00 00 4d 32 81
       7.699115e-38 -8.126365e-39 8.194524e-39 -3.2748681e-38
000020 00 a4 99 80 00 3c 56 80 00 5e ce 82 40 bd d2 01
       -1.4109663e-38 -7.919377e-39 -3.0322933e-37 7.741338e-38
000030 c0 78 28 82 00 7d cd 01 80 d0 87 81 26 46 3c 84
       -1.2377344e-37 7.5484473e-38 -4.989035e-38 -2.2131504e-36
000040 c0 8f f5 81 20 da af 82 c0 36 da 81 e0 19 43 82
       -9.020506e-38 -2.5839137e-37 -8.0159115e-38 -1.4333763e-37
000050 b8 a1 07 03 00 0c a1 81 00 fe ab 01 c0 e1 b7 81
       3.985858e-37 -5.915928e-38 6.317995e-38 -6.754752e-38
000060 00 1c 54 01 20 c0 8f 02 80 ff 60 01 d0 3f 9d 02
       3.895834e-38 2.1122236e-37 4.1325615e-38 2.3105703e-37
000070 20 88 7e 02 60 0f 46 82 c0 5a 70 82 00 de 89 00
       1.8700039e-37 -1.4551155e-37 -1.7658459e-37 1.2661102e-38
000080 20 52 7b 82 20 14 d9 82 60 d9 44 02 20 70 59 02
       -1.8464136e-37 -3.1896835e-37 1.4462189e-37 1.597482e-37
000090 00 a2 f4 00 c0 d1 73 82 40 69 43 02 80 fe 72 81
       2.2465976e-38 -1.7913016e-37 1.4356543e-37 -4.4630975e-38
0000a0 20 fd 5a 02 40 2d 85 81 90 98 ae 82 60 75 4e 82
       1.6088754e-37 -4.8921415e-38 -2.5654569e-37 -1.5168175e-37
0000b0 80 dc b8 81 00 2a 49 80 80 a8 77 81 00 61 b5 80
       -6.7907327e-38 -6.719058e-39 -4.5487628e-38 -1.6657022e-38
0000c0 00 46 d0 00 40 35 f9 01 c0 f9 9e 01 c0 98 49 02
       1.9126894e-38 9.1544564e-38 5.839841e-38 1.4810985e-37
0000d0 00 bf 27 01 80 88 35 01 80 3c 2a 01 80 53 62 82
       3.0810091e-38 3.3342384e-38 3.1267475e-38 -1.6627821e-37
0000e0 00 e2 2d 80 00 05 eb 81 49 51 f5 3a e0 47 5f 82
       -4.213671e-39 -8.633254e-38 0.0018716241 -1.640408e-37
0000f0 80 0c 62 82 00 df 29 82 80 80 03 01 00 41 38 00
       -1.6607445e-37 -1.2480157e-37 2.4153094e-38 5.166105e-39
000100 4a fe 88 3a 61 58 d8 bb 10 16 c1 02 80 a6 6f 81
       0.0010451761 -0.0066023325 2.8371464e-37 -4.4016825e-38
000110 84 97 84 3a 7d f5 62 3a 00 aa 73 01 50 d1 cc 02
       0.0010115956 0.00086577964 4.475402e-38 3.0095245e-37
000120 00 5f 2c 82 80 21 39 01 80 3e 88 81 00 db 62 01
       -1.2663828e-37 3.400317e-38 -5.0048193e-38 4.166677e-38
000130 80 ca de 81 00 7a 3d 80 f0 fb e4 82 40 58 df 81
       -8.1840494e-38 -5.64573e-39 -3.3646194e-37 -8.2043895e-38
000140 40 d0 98 01 a0 24 3c 82 b0 c9 9b 82 80 f8 65 82
       5.6134806e-38 -1.382257e-37 -2.2890966e-37 -1.6895579e-37
000150 c0 a9 06 82 c0 d5 85 02 20 1a 6f 02 00 12 47 02
       -9.893481e-38 1.966528e-37 1.7566444e-37 1.4625377e-37
000160 a0 6d f5 02 00 fc 0b 80 c0 f9 d0 81 c0 ec 6b 82
       3.6062436e-37 -1.100591e-39 -7.6765506e-38 -1.7333017e-37
000170 00 d8 bb 00 00 84 c2 01 60 87 51 02 80 c7 09 01
       1.7250724e-38 7.1453756e-38 1.5393746e-37 2.530606e-38
000180 90 68 af 02 00 c5 e3 80 d5 37 2d 95 40 99 bd 81
       2.5773955e-37 -2.0917328e-38 -3.4981115e-26 -6.964754e-38
000190 c0 bc d3 81 c0 09 25 82 b0 60 87 02 40 1e a6 01
       -7.778e-38 -1.2125084e-37 1.9891963e-37 6.1022176e-38
0001a0 e0 f3 bf 02 60 7f 5f 82 c6 2b 42 bb 80 44 dc 01
       2.8204905e-37 -1.6420007e-37 -0.0029628142 8.091353e-38
0001b0 ac d0 e7 3a a0 1b 1d 82 f1 41 84 bc 30 f8 da 82
       0.001768609 -1.1542466e-37 -0.016144725 -3.2174674e-37
0001c0 00 86 a1 01 80 81 32 02 00 b1 06 80 20 ee 46 02
       5.933434e-38 1.3114539e-37 -6.14509e-40 1.4615081e-37
0001d0 80 f9 33 02 80 e5 b7 01 00 b2 54 01 40 87 52 82
       1.3222446e-37 6.75529e-38 3.906596e-38 -1.5467178e-37
0001e0 40 52 09 02 60 23 85 02 90 5b 89 82 f0 98 bd 02
       1.0088775e-37 1.9562898e-37 -2.0182895e-37 2.7858836e-37
0001f0 a0 90 6a 82 00 9d c8 00 b0 b3 ca 82 c0 c9 84 82
       -1.723311e-37 1.842342e-38 -2.9784368e-37 -1.9511456e-37
000200 10 88 96 02 00 2a d4 01 00 ca 8d 00 b0 41 a0 02
       2.2118615e-37 7.793677e-38 1.3021269e-38 2.354759e-37
000210 e0 15 53 02 40 8b 00 82 40 40 16 82 60 17 3c 82
       1.550811e-37 -9.443918e-38 -1.1038698e-37 -1.3818767e-37
000220 aa f3 93 bb e0 69 c5 02 60 d0 20 02 c0 fb a7 81
       -0.004515131 2.9007318e-37 1.1814744e-37 -6.1707355e-38
000230 40 73 5f 82 c0 1f a0 81 10 b3 ac 82 c0 e0 bc 01
       -1.6416528e-37 -5.8820277e-38 -2.5375905e-37 6.9382794e-38
000240 4e 0f 36 bb a3 03 29 23 e0 52 9d 02 c0 da 70 82
       -0.0027780118 9.1622785e-18 2.3116645e-37 -1.7695193e-37
000250 00 4c 75 81 20 bc 3e 02 00 54 63 80 00 a4 eb 01
       -4.505392e-38 1.4012985e-37 -9.121848e-39 8.6560695e-38
000260 20 4c 22 3c a0 61 50 02 00 6a 60 02 f0 e1 e6 82
       0.009905845 1.5309444e-37 1.6487341e-37 -3.3925144e-37
000270 c0 61 8a 82 e0 cc 5a 82 00 24 20 02 a0 41 a2 82
       -2.0333383e-37 -1.6074907e-37 1.1765275e-37 -2.3841428e-37
000280 60 58 87 82 e0 5f cd 82 80 d2 be 01 54 31 8c ba
       -1.9887192e-37 -3.0177072e-37 7.009703e-38 -0.0010695853
000290 00 62 2f 82 40 ff 93 82 80 51 7a 01 00 26 3e 80
       -1.2885094e-37 -2.1746215e-37 4.5976221e-38 -5.707433e-39
0002a0 20 9a 0f 82 40 eb de 81 e0 70 3f 02 00 b2 a3 02
       -1.0550212e-37 -8.188749e-38 1.4064857e-37 2.4052864e-37
0002b0 40 23 de 01 00 af 61 82 58 cc 0d 03 c0 4c 70 82
       8.16005e-38 -1.6580612e-37 4.167075e-37 -1.7654441e-37
0002c0 a0 65 61 82 f0 66 d1 02 f0 09 ba 02 00 9a 86 01
       -1.6559554e-37 3.0768873e-37 2.7335948e-37 4.9444805e-38
0002d0 96 17 33 3b e0 e6 37 82 b8 1a 71 3a 60 10 09 82
       0.002732729 -1.3510975e-37 0.0009197402 -1.006987e-37
0002e0 80 92 b8 01 1b e4 58 3b 00 ee c1 00 80 15 98 02
       6.780114e-38 0.0033094946 1.7809629e-38 2.2346733e-37
0002f0 00 2d 6e 01 00 76 88 01 80 01 4d 02 00 ca 90 01
       4.3745982e-38 5.012783e-38 1.5061452e-37 5.31871e-38
000300 00 58 f7 01 70 b0 fd 82 80 52 a5 02 90 46 97 02
       9.0859744e-38 -3.727628e-37 2.4291924e-37 2.2227957e-37
000310 20 48 15 03 80 7f 3e 82 c0 3a 5c 02 a0 c9 ab 02
       4.386996e-37 -1.3995586e-37 1.6179908e-37 2.5241919e-37
000320 90 a0 e2 82 00 01 00 82 00 f2 c7 82 80 a4 45 02
       -3.3299874e-37 -9.404242e-38 -2.9379323e-37 1.4520483e-37
000330 40 3f aa 01 a0 69 53 02 40 15 54 02 00 9e eb 81
       6.2538897e-38 1.5532145e-37 1.5581399e-37 -8.6552085e-38
000340 20 00 38 02 00 19 86 01 40 5a 30 82 00 d3 44 82
       1.3518221e-37 4.92597e-38 -1.2956338e-37 -1.446036e-37
000350 00 f7 0d 80 40 1f f8 01 b0 ec 24 b9 00 72 a7 80
       -1.282468e-39 9.1145654e-38 -0.00015728432 -1.5377423e-38
000360 20 60 9e 02 20 06 68 82 00 8b 87 81 e0 1f 66 02
       2.3271186e-37 -1.7046426e-37 -4.9790623e-38 1.6906879e-37
000370 70 fc f9 82 00 7c 0d 02 18 b3 24 83 e0 f2 c4 82
       -3.6732154e-37 1.039463e-37 -4.840086e-37 -2.8939015e-37
000380 00 5c 69 81 00 83 b9 81 e0 75 0a 82 80 f0 2e 01
       -4.2861348e-38 -6.8146243e-38 -1.0172467e-37 3.2131303e-38
000390 10 76 05 03 00 7b a1 01 a0 89 eb 02 00 ed bf 01
       3.9220716e-37 5.9318556e-38 3.460914e-37 7.05024e-38
0003a0 25 2e 95 ba 80 3c bb 01 40 e0 d9 81 7d 33 64 3b
       -0.001138155 6.8779764e-38 -8.0034994e-38 0.0034820728
0003b0 90 70 ca b9 60 b8 4e 82 80 4f 20 81 90 19 90 82
       -0.00038612308 -1.5187403e-37 -2.9444397e-38 -2.117357e-37
0003c0 78 1b 11 03 80 56 70 82 80 c7 59 82 80 b2 1e 01
       4.2643203e-37 -1.765724e-37 -1.5999896e-37 2.9148084e-38
0003d0 80 26 36 82 00 e3 ba 00 a0 55 df 82 00 20 3c 01
       -1.3382297e-37 1.7162835e-38 -3.2816051e-37 3.4553105e-38
0003e0 d0 c1 a8 02 e0 67 41 02 00 1b 03 01 20 63 56 02
       2.4796624e-37 1.4209211e-37 2.4080272e-38 1.5750684e-37
0003f0 a0 73 00 82 70 a2 92 82 00 22 09 03 a7 b7 97 3b
       -9.437138e-38 -2.1546006e-37 4.029971e-37 0.0046300474

weight f4 [36, 400]
000000 00 20 1c 81 20 5e 99 02 00 44 66 00 80 16 73 01
       -2.8675634e-38 2.2535355e-37 9.391614e-39 4.4648194e-38
000010 40 5b 87 01 00 c7 05 80 80 c9 41 01 60 7f a4 02
       4.9722105e-38 -5.30565e-40 3.559307e-38 2.4170744e-37
000020 80 76 6b 01 00 47 14 80 80 6b 3c 02 00 39 2d 82
       4.3247703e-38 -1.86218e-39 1.384291e-37 -1.2726391e-37
000030 80 83 a7 82 00 ed 36 82 a0 f8 a8 02 e9 44 89 84
       -2.4613922e-37 -1.3439264e-37 2.4828085e-37 -3.227183e-36
000040 a0 1d a6 82 20 ad a3 82 00 f4 4f 02 00 6b 46 80
       -2.4408512e-37 -2.4050066e-37 1.5277983e-37 -6.466869e-39
000050 40 b6 cb 02 e0 8b a3 82 e0 81 54 82 c0 e5 a0 81
       2.9932776e-37 -2.4030982e-37 -1.5612572e-37 -5.910439e-38
000060 00 37 d6 81 00 eb 66 82 30 9b b5 82 90 22 d5 02
       -7.8690106e-38 -1.6965173e-37 -2.6684633e-37 3.1317375e-37
000070 80 e7 85 01 30 c5 87 02 00 2e 05 02 80 94 14 81
       4.918867e-38 1.9949647e-37 9.784498e-38 -2.728985e-38
000080 e0 6d 2f 82 80 8b 0a 02 70 e3 d7 82 00 ce 19 01
       -1.2888502e-37 1.0178673e-37 -3.1721953e-37 2.824946e-38
000090 80 42 4d 01 00 f1 27 80 00 00 1c 00 00 9b b1 01
       3.7700265e-38 -3.668039e-39 2.571394e-39 6.5241945e-38
0000a0 40 41 e1 01 c0 41 93 82 c0 2c 5c 02 00 64 41 81
       8.2745576e-38 -2.1637447e-37 1.617589e-37 -3.5520248e-38
0000b0 80 bc 2b 01 00 81 01 80 c0 a2 13 82 00 0a 49 80
       3.1542982e-38 -1.38112e-40 -1.0846561e-37 -6.707579e-39
0000c0 e0 44 d9 02 80 f8 3e 82 c0 f7 5f 82 d0 c5 a1 02
       3.1924817e-37 -1.4030311e-37 -1.6454553e-37 2.3770363e-37
0000d0 40 8c ec 01 80 be 05 81 80 6a 2a 81 00 18 9b 82
       8.689396e-38 -2.456492e-38 -3.130048e-38 -2.2788978e-37
0000e0 40 ad d5 01 20 a7 57 82 da dc 80 37 00 7f 07 81
       7.8492444e-38 -1.5843668e-37 1.5361631e-05 -2.4886702e-38
0000f0 a0 6b 61 02 60 52 c6 82 40 fa a3 02 00 20 36 81
       1.6561276e-37 -2.9140766e-37 2.4094334e-37 -3.345108e-38
000100 bb e6 00 37 02 9f f1 b6 60 07 98 82 c0 4a 16 02
       7.683116e-06 -7.2008706e-06 -2.2338626e-37 1.1041712e-37
000110 ed a6 c0 b7 5d 3b 2c b8 40 f3 ff 01 d0 97 a7 82
       -2.2965914e-05 -4.1063282e-05 9.402125e-38 -2.462558e-37
000120 20 fd 99 82 00 27 0e 02 20 94 5a 02 c0 b0 5a 82
       -2.2626616e-37 1.0443705e-37 1.605862e-37 -1.6066835e-37
000130 80 38 2f 81 00 a9 d3 00 00 7d ab 80 30 ff f1 82
       -3.218296e-38 1.9437915e-38 -1.5748711e-38 -3.5558238e-37
000140 00 d2 19 01 c0 a3 fe 01 00 e8 ed 00 80 52 af 81
       2.825233e-38 9.3539834e-38 2.1848239e-38 -6.440323e-38
000150 00 e6 26 02 40 7b ac 01 7c 45 8e 83 00 9f cc 80
       1.2261761e-37 6.3359676e-38 -8.361963e-37 -1.879148e-38
000160 00 03 09 82 00 e2 69 81 40 de 2c 82 00 8d eb 82
       -1.0066031e-37 -4.2957488e-38 -1.2700347e-37 -3.4611077e-37
000170 00 50 a1 02 40 54 f3 81 40 dc 63 82 d0 75 9d 82
       2.3702742e-37 -8.9384995e-38 -1.6740535e-37 -2.3136698e-37
000180 50 76 c1 82 60 e7 2a 82 4f 51 ba 94 00 dd cc 81
       -2.842671e-37 -1.2556029e-37 -1.8813271e-26 -7.5254884e-38
000190 80 0b 98 81 80 9a 22 82 00 db b8 80 00 b3 f2 01
       -5.5852483e-38 -1.194622e-37 -1.6976294e-38 8.915361e-38
0001a0 40 e3 f6 81 80 52 42 01 cd 39 b4 37 30 dd c4 82
       -9.0692216e-38 3.5691363e-38 2.1484588e-05 -2.8926567e-37
0001b0 af bc 46 b7 40 f7 9d 81 3c 7a 93 b8 40 3b e2 01
       -1.1845651e-05 -5.802748e-38 -7.032274e-05 8.310431e-38
0001c0 60 1c 8b 02 90 60 ae 02 00 e0 7d 00 00 50 45 82
       2.04405e-37 2.5622426e-37 1.1559793e-38 -1.4496233e-37
0001d0 80 ec 5f 01 00 5f f4 81 40 f6 fc 01 c0 18 6a 82
       4.1128312e-38 -8.976776e-38 9.292353e-38 -1.7198708e-37
0001e0 f0 6e 9d 82 c0 3d c4 01 20 cc 6e 02 00 94 b6 01
       -2.3132752e-37 7.2087636e-38 1.754406e-37 6.706861e-38
0001f0 70 2c c9 82 20 be 09 02 00 99 aa 00 40 09 e9 01
       -2.9559801e-37 1.0119734e-37 1.566692e-38 8.5603956e-38
000200 80 9e 6b 82 00 d8 b2 81 00 df 3e 00 20 84 59 02
       -1.731056e-37 -6.569682e-38 5.773798e-39 1.598056e-37
000210 e0 3d 39 82 20 34 50 82 00 5c 15 82 00 10 3e 82
       -1.3609411e-37 -1.5296386e-37 -1.0973194e-37 -1.3963587e-37
000220 86 4b 5c 38 00 80 d9 01 f0 ff c2 82 00 7c 97 01
       5.2522424e-05 7.989688e-38 -2.865264e-37 5.564657e-38
000230 20 b0 02 82 80 bf 00 02 00 8c ca 80 00 b1 53 00
       -9.601437e-38 9.458913e-38 -1.8600993e-38 7.685842e-39
000240 58 31 74 b6 b5 cc b5 22 80 38 60 81 10 b0 96 82
       -3.6387555e-06 4.927689e-18 -4.118284e-38 -2.2141574e-37
000250 70 80 e2 02 50 d4 b8 02 00 b5 3e 01 40 ca a0 01
       3.3281435e-37 2.7158231e-37 3.502735e-38 5.906493e-38
000260 6b bb d3 b8 e0 ba 2e 03 00 18 a4 80 90 ec 95 02
       -0.00010096173 5.1348526e-37 -1.5069631e-38 2.2029363e-37
000270 10 3a 96 82 00 fd 52 81 80 04 00 81 a0 06 00 02
       -2.2073845e-37 -3.8752427e-38 -2.3513116e-38 9.405856e-38
000280 90 bf a1 82 10 fb ac 02 a0 6c 9d 02 d9 83 ba 37
       -2.3766775e-37 2.5417231e-37 2.3131424e-37 2.2234324e-05
000290 f0 26 b0 82 d0 cc eb 82 00 89 ba 81 00 55 fe 80
       -2.5883225e-37 -3.4647703e-37 -6.8522195e-38 -2.3356708e-38
0002a0 10 f2 80 82 00 52 07 81 a0 36 00 02 e0 b8 b2 82
       -1.8946847e-37 -2.4854416e-38 9.419631e-38 -2.6260862e-37
0002b0 20 3e cb 02 80 72 14 01 40 db ff 81 40 39 45 02
       2.9863827e-37 2.7265457e-38 -9.3986814e-38 1.4489704e-37
0002c0 00 5a 29 01 00 52 c5 01 40 82 f8 81 70 03 89 82
       3.110497e-38 7.2484035e-38 -9.128771e-38 -2.0132314e-37
0002d0 a9 1e 65 b7 80 c2 6e 83 9c 66 28 b6 40 92 97 81
       -1.3656602e-05 -7.016519e-37 -2.5093677e-06 -5.56785e-38
0002e0 c0 3e ab 81 16 f8 93 37 10 17 97 82 40 70 e4 81
       -6.290552e-38 1.763929e-05 -2.2200693e-37 -8.3915043e-38
0002f0 40 d0 39 02 00 9e d6 01 00 82 0c 80 10 bd a3 82
       1.3651418e-37 7.8837904e-38 -1.148661e-39 -2.4059214e-37
000300 50 70 af 82 20 86 5f 82 00 12 41 02 20 0a ac 82
       -2.5778403e-37 -1.6421945e-37 1.4184566e-37 -2.527894e-37
000310 20 19 79 82 f0 eb ca 02 20 fe 00 82 90 fa 9f 02
       -1.8300841e-37 2.9816654e-37 -9.476885e-38 2.3506766e-37
000320 80 83 64 02 00 34 b5 00 00 53 d2 01 00 de b6 01
       1.6788533e-37 1.6640879e-38 7.7260916e-38 6.7174796e-38
000330 00 20 f7 00 80 0f 04 81 40 f9 66 02 00 e9 0a 81
       2.2694847e-38 -2.4255692e-38 1.6969263e-37 -2.5513766e-38
000340 40 13 ea 81 00 4b 8d 82 00 bf 1f 02 a0 9e 69 82
       -8.5985647e-38 -2.0761136e-37 1.1736289e-37 -1.716366e-37
000350 00 87 04 82 a0 1d 12 82 57 3c 0c 38 80 44 20 81
       -9.736571e-38 -1.0734888e-37 3.3434797e-05 -2.9436505e-38
000360 20 1c 75 82 80 88 40 02 c0 32 02 82 40 48 92 81
       -1.8007829e-37 1.4145106e-37 -9.565456e-38 -5.3735603e-38
000370 00 70 63 80 e0 87 6a 02 80 c2 54 81 a0 ee 08 02
       -9.131892e-39 1.7230599e-37 -3.9077797e-38 1.0060184e-37
000380 80 22 f6 01 00 04 8f 80 80 a7 04 82 a0 ea 04 02
       9.0415633e-38 -1.3133911e-38 -9.745899e-38 9.765162e-38
000390 40 8b 66 82 e0 11 38 82 80 84 5e 01 40 dc 7c 82
       -1.6937694e-37 -1.3523315e-37 4.0870024e-38 -1.8577245e-37
0003a0 df 78 8a 38 c0 3e dc 01 a0 eb ab 82 9e cc ae 36
       6.602867e-05 8.090528e-38 -2.5261434e-37 5.2094247e-06
0003b0 80 76 ad 36 00 5e cc 01 60 f8 f6 82 00 99 5f 80
       5.169597e-06 7.507265e-38 -3.6289012e-37 -8.779258e-39
0003c0 00 6e f2 81 00 04 9d 02 00 40 7c 80 80 48 60 81
       -8.90546e-38 2.3071373e-37 -1.141056e-38 -4.1194318e-38
0003d0 40 0e e4 81 10 44 a6 82 00 6b 26 02 50 d8 88 82
       -8.377442e-38 -2.4430574e-37 1.2226461e-37 -2.0107561e-37
0003e0 00 01 90 00 80 2c 8d 81 60 69 d5 82 80 bc 01 81
       1.322467e-38 -5.1859074e-38 -3.135802e-37 -2.38288e-38
0003f0 20 71 6c 02 80 a6 1c 02 b0 4b df 02 b9 f1 74 b9
       1.7371007e-37 1.1508853e-37 3.2810348e-37 -0.00023359702

bias f4 [36]
000000 de f7 19 b7 8b 4b 20 38 a4 9c 8b 35 30 02 93 b5
       -9.177222e-06 3.8217328e-05 1.0401895e-06 -1.095299e-06
000010 4e 53 a0 38 2d fe 5e 36 c7 c3 43 36 5f b6 b2 b6
       7.644911e-05 3.3228528e-06 2.9171222e-06 -5.326044e-06
000020 1a 59 67 b6 24 5c 54 b6 f4 da 99 35 b0 9b 7f 38
       -3.4473546e-06 -3.1644095e-06 1.1463112e-06 6.0941733e-05
000030 8e 61 12 b6 40 49 b1 34 c4 ff 56 b5 83 28 16 3b
       -2.181248e-06 3.3022116e-07 -8.00934e-07 0.002291233
000040 fa b4 55 b6 54 9c 30 b6 35 26 66 b6 b1 2b 85 38
       -3.1844816e-06 -2.6317039e-06 -3.429491e-06 6.350072e-05
000050 50 7c 39 36 d9 cc 1b 37 5c f4 99 36 22 02 5a 3a
       2.7639508e-06 9.286415e-06 4.5882025e-06 0.0008316358
000060 00 b8 4c b6 2a 73 09 b7 4e ee 61 36 b3 45 56 bb
       -3.050547e-06 -8.19265e-06 3.3666324e-06 -0.0032695353
000070 2c 40 83 35 3f f8 1c 36 a3 fc b5 b6 0e 76 de b7
       9.778937e-07 2.339031e-06 -5.423631e-06 -2.6519436e-05
000080 7a 3a 9e 39 26 63 77 b6 ab 81 89 39 21 2b c2 ba
       0.00030179677 -3.686358e-06 0.00026227286 -0.0014813879
