data/results/gge/L=12_charges=1100_support=3_J=1_g=0.6_numData=2000/latent-0_epochs-250000.dat_final.net.pkl (torch_old, 1213 bytes, 1 tensors)

W f4 [48]
000000 a2 55 02 b6 80 52 02 b6 93 9d 45 3d 4a 3a 66 3c
       -1.9421354e-06 -1.941953e-06 0.048245978 0.014051983
000010 d4 0c b3 b3 bb 10 bf 34 65 7a 40 b8 e2 75 1c bb
       -8.3376705e-08 3.5588695e-07 -4.5890356e-05 -0.0023873975
000020 6e 07 3e 3c ef 2e b5 b9 fe b1 21 37 a6 4c ed b4
       0.011598451 -0.00034557979 9.63779e-06 -4.420046e-07
000030 7d 90 3f 3d 8e a4 6b ba a0 81 40 34 99 1b 54 b6
       0.046768654 -0.0008989059 1.7928551e-07 -3.1606526e-06
000040 68 92 47 34 a8 2b 94 b5 2e 5b 7a 39 e5 75 1c 3b
       1.8586582e-07 -1.1039565e-06 0.00023875825 0.0023873982
000050 20 55 37 35 e9 13 55 b3 65 51 56 bb 86 91 cf 3a
       6.8296686e-07 -4.9611035e-08 -0.0032702324 0.0015836216
000060 e7 2e b5 39 64 49 8f 39 70 d2 74 35 08 fd e7 34
       0.00034557955 0.00027329766 9.120331e-07 4.3211207e-07
000070 8a a4 6b 3a cc 96 a8 bd e2 67 3b 35 54 14 d8 34
       0.0008989057 -0.08231887 6.98141e-07 4.0247926e-07
000080 92 9d 45 3d 29 5b 7a b9 08 38 b8 34 2b ca 8a 37
       0.048245974 -0.00023875818 3.431344e-07 1.6545024e-05
000090 5f 7a 40 38 5e 51 56 bb 1a 9e 96 34 2e fa 90 b4
       4.5890334e-05 -0.0032702307 2.805471e-07 -2.700412e-07
0000a0 63 33 65 b6 e1 f8 46 35 e0 13 b0 3b 1a d6 9c bd
       -3.415357e-06 7.4122914e-07 0.005373463 -0.07658024
0000b0 a7 80 93 b5 00 af 95 34 01 8e b6 3c 47 2e 82 bb
       -1.0989796e-06 2.7880742e-07 0.02228451 -0.003972802
