data/results/lindblad/R_op_vals_N_40_J_0.0_Jz_1.0_hx_0.676_hz_0.0_chi_100_eps_0.2/latent-2_epochs-250000.dat_min_loss.net.pkl (torch_old, 634820 bytes, 8 tensors)

weight f4 [400, 192]
000000 ab 40 36 bb b6 61 0e be 65 b9 9b bd d1 f1 4d be
       -0.0027809541 -0.13904461 -0.076037206 -0.20111777
000010 26 c7 ff bc b1 3c 6c bd 26 10 1e be b1 b3 04 bd
       -0.031222891 -0.057675067 -0.15435848 -0.03239793
000020 cc bd b9 bd a4 0e 62 be 2b d6 16 3b cc 59 2e bd
       -0.09069404 -0.22075897 0.0023015838 -0.042566106
000030 c9 fa 21 3d 99 94 79 3d c3 8b 8c 3e a6 7d 24 be
       0.039545808 0.06093273 0.2745038 -0.16063556
000040 33 ce c5 3e 12 43 d4 be 55 04 05 bd 26 ab 80 bd
       0.3863388 -0.4145742 -0.032474834 -0.06282644
000050 2b ab 09 be f8 3f d3 be 12 0f 25 be ff 77 3a 3e
       -0.13444202 -0.41259742 -0.1611903 0.18209837
000060 dd 1f f9 bc 58 64 a6 3c 2d f0 ac be c4 46 d1 3d
       -0.030410701 0.02031152 -0.3377699 0.102185756
000070 fe 41 85 3e 88 49 4e 3b 18 99 4c be 82 c5 b5 bc
       0.2602691 0.0031476934 -0.19980276 -0.022188906
000080 b4 2f bf be 04 05 8f 3e 5f be 84 bd c4 43 92 bc
       -0.37341082 0.27933514 -0.06481623 -0.017854579
000090 7b 57 98 bd 93 47 c5 bb 59 99 92 3d 5d e6 99 be
       -0.074385606 -0.006020495 0.07158155 -0.30058566
0000a0 bf a5 77 be 91 70 4c 3e f7 37 31 bf b6 5a 59 bd
       -0.24184321 0.19964816 -0.6922602 -0.053065024
0000b0 ec aa 3c bf d6 a5 ef 3d 9c 7b f1 be 53 96 c8 bd
       -0.73698306 0.117015526 -0.4716462 -0.09794297
0000c0 9a a3 1c be b9 16 b7 bd c4 e1 39 3d b6 03 c0 bd
       -0.15296784 -0.08939881 0.045381323 -0.09375708
0000d0 c8 bf bf bd 92 1f 3f be 03 d1 69 3e 87 e9 fa be
       -0.09362751 -0.18664387 0.22833638 -0.49006292
0000e0 42 f1 17 be f7 f9 02 3e e5 8b 93 3e e5 47 7b 3a
       -0.14838126 0.12790667 0.2881767 0.0009585603
0000f0 fc 2b 1a bd 64 c6 b2 be c4 4c 23 3f 06 8f fa be
       -0.037639603 -0.34916985 0.6378901 -0.48937243
000100 12 7a e1 3e 08 c5 08 3f 6a 19 da 3e 74 d1 d3 be
       0.44038445 0.53425646 0.42597514 -0.41370738
000110 1f c8 1e be ef 09 79 3f 1a 15 46 be 93 94 c6 be
       -0.15506028 0.9728078 -0.19343987 -0.38785228
000120 bd 4b 99 be d9 99 f1 3e 09 dc 84 be e8 7a c9 3e
       -0.29940596 0.4718769 -0.25949124 0.39351583
000130 4c 48 e4 3e b1 0b 70 3e b6 2a ed 3c 86 f1 43 bf
       0.44586408 0.2344196 0.02895103 -0.7654041
000140 c0 fa 06 3f 90 25 b7 be fb 59 b6 3e 46 35 21 bf
       0.52726364 -0.35770845 0.35615525 -0.62971914
000150 bd 76 33 bc 4f 2f 12 3f d7 f5 5f 3e 47 51 1a 3f
       -0.010953602 0.5710344 0.21871124 0.6028027
000160 0c 35 de be a0 88 d8 3e b1 29 52 be 59 96 12 3f
       -0.43399847 0.42291737 -0.20523717 0.5726066
000170 12 a9 a1 3e 0b 63 50 3b b9 e7 92 be ce d7 1c bd
       0.31574303 0.0031797315 -0.28692415 -0.038291745
000180 e9 99 19 be 03 c2 fd be 59 a6 86 3e 07 b9 ea be
       -0.15000118 -0.49562082 0.26298788 -0.4584429
000190 f1 b3 0b bf b1 37 0a 3e ce 21 8f be 5b 56 ea bc
       -0.54571444 0.13497807 -0.27955478 -0.02860563
0001a0 45 a9 50 3e b7 88 bd 3e 4f d3 d2 bc 17 33 cf be
       0.20377071 0.37018368 -0.025735525 -0.40468666
0001b0 be b4 7c bd b8 39 cb 3e 4d 7c 42 bf 90 30 c5 bd
       -0.061695807 0.39692473 -0.7597092 -0.09628403
0001c0 8f a0 5e 3d b1 a9 9a bd 57 0d 44 3e 5e 53 af 3e
       0.05435234 -0.07551897 0.19145714 0.34243292
0001d0 e5 b1 59 be 28 ab 16 3f 62 9c 4b bd fb e4 e5 3e
       -0.21259268 0.58854914 -0.049709685 0.4490126
0001e0 64 8f b4 3e 70 3a 8a 3f d8 2f 40 bd 90 b6 6a 3d
       0.35265648 1.0799084 -0.046920627 0.05730301
0001f0 07 cb 98 3e 80 51 87 3e 43 43 7d be 6b 0f 27 3e
       0.29842398 0.26429367 -0.2473269 0.16314475
000200 5b f8 50 bf c7 e8 32 3d 77 65 98 bf 16 d5 12 3e
       -0.8162896 0.043679025 -1.1905965 0.14339098
000210 6b 19 9e be 12 d4 2c 3f c9 ce 18 3f bb 5f 42 be
       -0.30878767 0.67511094 0.5969053 -0.18981831
000220 69 f3 95 be 3b 5f c0 bc 6f 62 f0 3e 37 cc 91 be
       -0.2928727 -0.02348291 0.469501 -0.28476116
000230 04 e7 77 be 1c b0 ea 3c e6 94 20 3e c8 a9 1d 3f
       -0.24209219 0.028648429 0.156818 0.6158719
000240 83 76 98 3e 13 44 99 be c5 20 4e 3f c2 a6 41 3e
       0.29777917 -0.2993475 0.8051875 0.1891127
000250 b4 ea 5f be 97 13 9f 3d 8e c1 7b be 01 64 7d 3e
       -0.21866876 0.07767408 -0.24585554 0.2474518
000260 4a af a6 be 16 18 15 3e 0d 8d 52 3e bc df 78 3e
       -0.3255561 0.1455997 0.20561619 0.24304098
000270 c8 81 2b bd a2 ce 4f 3d b5 b2 d9 3d 25 fc 2d 3e
       -0.041871816 0.05073417 0.10629789 0.16990717
000280 14 1e b1 3e 7b 55 a5 be 65 56 4c 3e 72 43 bb be
       0.3459326 -0.3229178 0.19954832 -0.36574894
000290 d7 22 9c bc ec 8e 22 3e f8 ae a9 be cb 01 51 be
       -0.019059582 0.15874833 -0.33141303 -0.2041084
0002a0 5b 38 dc 3e 1e f7 35 3f a8 49 b3 be b7 16 13 be
       0.43011746 0.71080196 -0.35017133 -0.14364134
0002b0 f2 80 48 be 2d c8 b8 3e 44 f0 11 bd 85 3c f0 3c
       -0.19580439 0.36090222 -0.035629526 0.029325733
0002c0 bf 11 b0 be 4e f3 9a 3c 91 19 b3 bd aa 01 52 3e
       -0.3438854 0.018914845 -0.08745111 0.20508447
0002d0 dc e3 f9 3d 19 c8 74 be 8b 93 bd 3e e6 e3 04 3d
       0.12201664 -0.23904456 0.3702663 0.032443903
0002e0 84 38 5f bd 5a b0 42 be 6b d3 3c be 95 73 54 be
       -0.054497257 -0.19012585 -0.18440025 -0.20747216
0002f0 d9 34 b6 3e 32 c6 b5 3e 63 21 5e 3e 47 c3 78 3e
       0.35587195 0.35502774 0.21692424 0.24293242
000300 76 5c 62 bd f8 e1 bb 3d 63 46 b2 be ee 8e b5 bd
       -0.05526396 0.091739595 -0.34819326 -0.08865152
000310 0c 65 97 be f2 96 98 3e 34 7e 63 3e db 99 ff 3d
       -0.2956928 0.29802662 0.22216111 0.124805175
000320 11 48 ff 3d d1 bb 0b 3e fa 56 16 be e5 c3 ca 3d
       0.124649175 0.13645865 -0.14681616 0.09900645
000330 b1 f2 b6 bd f2 68 09 be d5 41 a2 be 00 11 2a bf
       -0.089330085 -0.1341894 -0.3169085 -0.6643219
000340 a1 7c 0b be 96 d6 07 3f c4 92 85 be df 2f f6 bd
       -0.13621761 0.5306181 -0.26088536 -0.120208494
000350 80 8a a9 3e 93 d6 82 3e e5 91 33 3f 03 ca a4 bc
       0.3311348 0.25554332 0.7014449 -0.020115858
000360 12 04 24 3e ec 20 0d bf 4a e4 1e 3f 36 08 01 bf
       0.16017178 -0.5512836 0.6206709 -0.50403154
000370 ba 46 73 be ba 4b c3 3e 1f b9 e5 3e 31 34 a6 3e
       -0.23757449 0.38143712 0.448678 0.32461694
000380 98 58 b9 3e 5c 03 3d bf ea 9c 68 3e 48 ec b7 3e
       0.36200404 -0.7383325 0.22716108 0.35922456
000390 f6 f1 8d 3e 48 e0 9d be bc a9 45 3e 93 60 73 3e
       0.27723664 -0.30835176 0.1930303 0.23767309
0003a0 b2 10 f4 be f7 ed 4c be c0 49 c6 3e ed c7 30 be
       -0.47668988 -0.20012651 0.38728142 -0.17263766
0003b0 a7 9a de 3e 55 a9 5e 3b 70 d9 43 3f f9 42 d3 bd
       0.43477365 0.0033975441 0.7650366 -0.103155084
0003c0 b0 62 bb 3d 6a 1c d6 3e 01 3e 87 be 70 bb 96 3d
       0.091496825 0.41818553 -0.26414493 0.073599696
0003d0 f0 4d d6 3e bd 55 bb 3e 06 6c 49 be e1 48 1c 3f
       0.41856337 0.3658885 -0.19670114 0.61048704
0003e0 5a 9c 05 3e 23 22 33 be ac 7a 77 be 93 bd af bb
       0.13047925 -0.17493491 -0.2416789 -0.005363175
0003f0 4e f3 7b 3d 6a c4 35 3e 85 0a 84 bf 92 f2 56 3f
       0.06151133 0.17750707 -1.031571 0.8396388

bias f4 [400]
000000 e4 97 10 bc f6 94 c3 bd 5b f8 57 bb b4 cf 39 3a
       -0.008825276 -0.095498964 -0.0032954428 0.000708814
000010 23 cc 92 bd 0e 8e a2 3a 9f 0b 38 bb 58 4e 3f 3b
       -0.07167842 0.0012401955 -0.0028083099 0.0029190984
000020 a8 01 9b 37 cf 7b 08 bc 24 21 0d 3c f4 60 d3 3b
       1.8478211e-05 -0.0083302995 0.008613858 0.0064507667
000030 bf 85 9c be 86 89 40 3b 68 f7 c8 bc be 57 30 bc
       -0.3057079 0.0029378845 -0.024532035 -0.010763107
000040 e8 78 34 bc 92 d6 21 3c b7 80 d8 3c 9e 17 8c bc
       -0.011015154 0.009877818 0.026428564 -0.017101105
000050 a4 8a c9 3b 02 00 82 bc 28 18 95 3c a6 54 6e 3c
       0.0061505605 -0.015869144 0.018199995 0.014546549
000060 9c 67 06 3c 2a 0e 38 3a 37 1c 5f bc 3a ca 05 bc
       0.008203413 0.00070211536 -0.013617567 -0.00816589
000070 b0 86 19 bc 37 33 0a 3b c3 f0 21 bc 17 61 a1 bd
       -0.009370491 0.0021087655 -0.009884062 -0.078798465
000080 a3 ec 2b 3a ff ec 91 3a b0 be fd bb d7 90 a7 bc
       0.0006558394 0.0011133252 -0.007743679 -0.020454807
000090 f3 b5 7a bc 84 14 a3 3b e1 56 46 bd b3 3c da 3b
       -0.015302169 0.004976811 -0.048422698 0.006660068
0000a0 08 87 6d bc d8 d5 fa 3c 3f fe 9a bc 37 d6 c3 3c
       -0.014497526 0.030619547 -0.018920062 0.023905857
0000b0 8e 7d e9 3a d7 10 fe bb 01 43 54 bd ce 29 f9 3b
       0.0017813907 -0.0077534723 -0.051821712 0.0076038605
0000c0 5b ed 47 bc db 5c 86 3c 91 e1 09 bc 17 d9 48 3b
       -0.012202586 0.016401699 -0.008415596 0.0030646974
0000d0 90 8a 04 bc a1 17 2e 3c 92 29 d5 3b 15 91 8c bb
       -0.0080896765 0.010625751 0.0065051997 -0.004289756
0000e0 95 71 20 3c 8f aa 8e bd af e9 90 bc 58 b0 df 3c
       0.009792705 -0.06966125 -0.017689554 0.027305767
0000f0 f4 7a 36 bc 49 bc d5 bb f4 e4 9f 3a 89 19 6e 3b
       -0.011137713 -0.0065226895 0.0012198971 0.0036331138
000100 bd 68 09 3c b9 3f 6c 3c eb 42 95 ba 1f 78 4d bb
       0.008386788 0.01441949 -0.0011387741 -0.0031352115
000110 83 05 e3 3b 0c 96 07 bb 07 54 73 bb d8 25 05 3c
       0.0069281473 -0.00206888 -0.0037128942 0.008126698
000120 cb 2a 26 bc 7e 3d 6c bc 3e 8d 9b 3b 2d 8a 0b 3c
       -0.010142039 -0.014418958 0.004747062 0.00851683
000130 ce 11 2b bc 58 12 e7 3b df a1 1e 3c 05 2f e6 ba
       -0.010441257 0.0070517473 0.009682148 -0.001756162
000140 2e bb 01 3c 93 8a c1 bc 07 c7 c6 bc 34 09 78 bb
       0.007918162 -0.023625648 -0.024264826 -0.0037847282
000150 fd dc 4f 3c b8 91 25 ba 91 7d 2b bc a8 48 ba 3a
       0.012686965 -0.0006315964 -0.010466949 0.0014212327
000160 53 1d af 3c 9a 42 98 3c 7d 95 53 3b 00 df db 3a
       0.021376288 0.018586446 0.0032285147 0.0016774833
000170 a7 78 cc 3c fe c2 2a 3b 7c 9d a4 bb 62 3a 81 3c
       0.024959875 0.0026056166 -0.0050236564 0.01577491
000180 cb 2a 85 bd 85 76 a0 bc a4 26 8d bc a6 8d 59 3c
       -0.06502303 -0.019587765 -0.01723034 0.0132784005
000190 dd eb 43 3b d6 be c4 3c e6 f5 8a bc 6c 8f 89 3c
       0.0029895224 0.024016779 -0.016962957 0.016792022
0001a0 32 8d 8c ba 59 7b 22 3c 30 4e 1e 3c 84 1a 44 bd
       -0.0010723232 0.009917104 0.009662196 -0.04787685
0001b0 e0 80 3f 3c dd 9c 31 bb 3f c6 ad 3c 07 9c ed 3b
       0.011688441 -0.0027101554 0.021212695 0.007251266
0001c0 67 52 30 bc d6 1b cb 3d 60 b7 ca 3c 9a 04 cb 3c
       -0.010761834 0.09917419 0.024745643 0.024782468
0001d0 09 60 ca bb 82 d9 ff 3b 0b 6d 9a 3b 9f 97 c8 ba
       -0.006175999 0.0078079114 0.004712706 -0.0015303976
0001e0 a0 e5 7b bb 4b 5a 01 3b 7d 32 00 bc a0 1b dd 3b
       -0.0038436428 0.0019737657 -0.007824537 0.006747678
0001f0 bb 6f 55 bc 90 44 80 bb 4d 2c ea 3c 2e f2 3b bc
       -0.013027127 -0.0039144233 0.028585577 -0.011471314
000200 a2 0d 02 bc 5c 6a a2 3c 5f dc 1f 39 86 1b 94 3c
       -0.007937821 0.019826107 0.00015245516 0.01807953
000210 a0 0d 27 3c ad d2 f1 bb 62 84 1e 3c dc 00 41 bc
       0.01019612 -0.007379851 0.009675117 -0.01177999
000220 09 d3 82 3c b5 98 3c 3d 60 da f5 3b 60 26 22 bb
       0.01596977 0.04604407 0.007502839 -0.0024742112
000230 5a bf 52 bc 1b 95 bc ba f2 8b 3d 3c d4 d3 0f bc
       -0.012863005 -0.0014387699 0.01156901 -0.008778531
000240 b9 0c 0a 3c 40 aa 68 3b cd 2a e1 bc 86 93 39 3c
       0.008425885 0.0035501868 -0.02748623 0.011326676
000250 38 0e ca ba 38 64 86 3b bd f7 e9 3b d8 07 9b 3c
       -0.0015415614 0.0041013025 0.0071401284 0.018924639
000260 85 7c e3 bb 83 bc 0b 3a 59 44 d9 3d a1 19 98 3b
       -0.006942334 0.00053305196 0.106087394 0.004641727
000270 bd 63 08 3c 77 1e 8e ba aa 0a c6 3b d4 2c 65 ba
       0.008324561 -0.001084282 0.0060437517 -0.00087423366
000280 92 ba 1e 3b c7 fc 71 3a b4 5c 45 bb 62 0a bf 3c
       0.0024220091 0.0009231087 -0.003011507 0.02332038
000290 88 2d 43 bc db 00 ff bb e4 43 fe 3b 86 54 a6 3c
       -0.011912711 -0.0077820844 0.007759558 0.020303976
0002a0 12 a2 20 3c ba b4 b7 3d 6b 6a 83 bb 34 d1 e6 ba
       0.009804266 0.08970018 -0.0040104887 -0.0017609955
0002b0 47 b1 20 3d e0 11 27 bb b8 ec 98 ba 34 17 0c 3c
       0.039231565 -0.0025492832 -0.0011667227 0.008550454
0002c0 84 56 24 3e 4a 22 04 bc b5 6f 23 bc 64 ef c4 bc
       0.16048628 -0.008064816 -0.0099753635 -0.024039932
0002d0 64 d7 da 3b 74 41 29 3b 5d cb d5 3a 9e e2 85 3c
       0.0066785086 0.0025826367 0.0016311217 0.016343411
0002e0 7e 1e 5c 3b dc fa 34 3b 39 1e 3d 3b fe 4e fc 3b
       0.003358751 0.0027615344 0.0028857125 0.0076998463
0002f0 e7 bd fb ba ec 3a 42 3d e1 cf de 3b ea 61 ca bc
       -0.0019206376 0.047419474 0.0067996834 -0.024704892
000300 0f 8c f9 3a 9e ec 87 3c f5 d5 1e bc 65 3d 77 bc
       0.0019038933 0.01659232 -0.009694566 -0.015090321
000310 9a 9d a9 b9 25 ab 80 bc c7 90 e9 ba 35 1e 20 bb
       -0.00032351614 -0.015706608 -0.0017819636 -0.0024432067
000320 47 5d 43 3b 33 2c 84 bb 2f 15 31 3c 63 8c a4 3b
       0.0029810236 -0.0040335893 0.010808273 0.005021618
000330 50 c3 74 3b 8b ee 00 bb 37 b6 82 3b 79 fa d2 3b
       0.003734786 -0.0019673433 0.003989007 0.00643855
000340 c3 38 6c bd 21 49 c9 3c e1 29 cc 3b f4 0f cc 3c
       -0.05767132 0.024571003 0.0062305783 0.02490995
000350 a8 20 80 3c af 56 3f 3c 22 b8 30 bc ed 61 13 3a
       0.015640572 0.011678382 -0.010786088 0.0005622197
000360 fb 4c b0 3b e2 75 40 bc 30 65 d0 bc f8 95 e4 3b
       0.0053802705 -0.011746855 -0.025438875 0.0069758855
000370 fd 7c 1b 3c 20 c5 d2 b7 b6 7f c9 bb ce 52 cf 3d
       0.009490249 -2.5125744e-05 -0.0061492575 0.101232156
000380 40 7e 31 bd a3 3f 37 bc 70 a1 04 3c 65 99 af 3b
       -0.043333292 -0.011184606 0.00809513 0.005358862
000390 9b 8a 64 3c b0 5e 5d 3b 15 6e 9a 3d 95 97 9a b9
       0.013949062 0.0033778362 0.07540528 -0.00029486106
0003a0 4e 2b d3 3b b5 7c 19 bb 5b 28 70 bb 7a b4 15 3b
       0.0064443713 -0.0023420278 -0.0036645147 0.0022843168
0003b0 ab be 3f bb 0b 0e 59 bc 88 c2 81 3c 0f 18 d0 bc
       -0.0029257934 -0.013247977 0.01583983 -0.025402097
0003c0 1f 22 be bc 0d fe a3 bb 5e d7 b5 3c b8 0b 8c 3b
       -0.02320963 -0.0050046504 0.022197422 0.004273858
0003d0 f8 11 3d 3c 68 6a ed be ce bb 32 3c 8f 79 05 3d
       0.011539929 -0.46370244 0.010909034 0.03258663
0003e0 8c 65 f0 3b 2e 64 1b 3c ec 9c 23 bc 3e a3 ae bb
       0.007336324 0.009484334 -0.009986144 -0.0053295186
0003f0 64 f9 8f bc 7a 75 46 b9 09 b0 2c 3c cd 5f a8 3b
       -0.017574973 -0.00018926515 0.010540017 0.0051383735

weight f4 [2, 400]
000000 31 72 ed 39 b5 f2 4d 3f 5e 58 e5 39 2c b3 b1 b8
       0.00045289242 0.80448467 0.00043744122 -8.473391e-05
000010 ed d9 d1 3e fa e5 e3 37 f1 f9 ae b9 aa d2 07 b8
       0.40986577 2.71676e-05 -0.00033374087 -3.2382704e-05
000020 60 51 35 b7 0a 42 be b9 7b 94 c6 39 17 ec 86 3a
       -1.0807387e-05 -0.00036288827 0.0003787613 0.0010293749
000030 91 74 46 c0 36 bd 98 3c d7 88 d6 37 ec 3b 84 38
       -3.1008646 0.01864491 2.5574509e-05 6.305412e-05
000040 b4 57 83 b9 77 52 8a b9 f0 74 7a 39 a7 07 d9 37
       -0.0002505161 -0.00026382852 0.0002388542 2.587198e-05
000050 8b 36 04 39 ea f4 de b8 7c b5 af 39 bb 1c f3 b8
       0.0001260882 -0.00010631404 0.00033513817 -0.000115924944
000060 b0 f6 d4 36 c2 c7 83 b9 de ea 95 39 23 4d 63 b9
       6.3468106e-06 -0.00025135098 0.00028594484 -0.00021677143
000070 3c ba cf b9 89 14 d9 b9 29 4a 4b b8 60 1e 92 3f
       -0.00039620872 -0.00041404765 -4.846804e-05 1.141552
000080 6c 67 e5 b8 28 dd 96 b8 df 01 fb b9 0e 86 85 3d
       -0.00010938835 -7.193751e-05 -0.00047875845 0.065197095
000090 0f 63 20 b9 40 8d 04 b9 7f 22 4c 3d d4 18 e8 b8
       -0.00015295691 -0.0001264112 0.049837586 -0.00011067247
0000a0 51 51 2b 39 a6 0f b3 bb bb 15 00 b9 6c 4d 93 39
       0.00016338124 -0.005464512 -0.00012215126 0.0002809571
0000b0 93 43 96 39 aa 13 3a ba 15 5f 9c 3d eb 53 df b8
       0.00028660576 -0.0007098267 0.07635323 -0.000106490996
0000c0 ff 2c fc b9 03 89 85 38 24 01 a2 b9 b0 68 92 38
       -0.0004809871 6.3674546e-05 -0.00030899898 6.981322e-05
0000d0 45 04 b8 b8 9d 97 d3 39 3c 49 60 b8 7f c8 05 b9
       -8.774599e-05 0.00040358017 -5.3473967e-05 -0.00012758559
0000e0 66 82 fd 38 f1 ec 4d 3e da ff b2 b8 f5 81 47 bf
       0.00012088269 0.20109917 -8.5353575e-05 -0.77932674
0000f0 20 36 b8 b6 36 3e d6 39 66 10 94 39 c4 aa 9e 3a
       -5.4899283e-06 0.00040863612 0.00028240978 0.0012105335
000100 10 49 da b9 47 a7 80 39 80 65 d5 39 28 3e 9c ba
       -0.00041634636 0.00024538694 0.0004070215 -0.001192038
000110 dc 6b a7 ba ec c7 09 39 60 e8 50 39 41 65 d8 b8
       -0.0012773233 0.00013139815 0.00019922992 -0.000103185426
000120 20 9d bf b9 6c 50 79 b7 44 33 3b 39 71 e1 3c ba
       -0.00036547426 -1.4860281e-05 0.00017852808 -0.0007205224
000130 d0 1f 98 3b 2d 14 86 39 78 67 50 b8 84 41 11 39
       0.004642464 0.00025573504 -4.9687427e-05 0.00013852684
000140 c4 e4 00 3b 91 34 75 b9 aa 3c e2 38 9d a5 60 39
       0.0019667605 -0.00023384603 0.00010787819 0.00021424
000150 9c 66 71 b9 f8 48 d0 38 91 ea 88 39 ce d5 fc 39
       -0.00023021776 9.9318044e-05 0.00026114707 0.00048224482
000160 fd 8b 39 b8 ef 85 58 b8 c8 cf 09 39 8d 14 4f b9
       -4.423781e-05 -5.162315e-05 0.00013142743 -0.00019748714
000170 df 03 2a ba cc 9c 6a 3a f4 9f 44 b9 2c 90 e6 b8
       -0.0006485562 0.0008949756 -0.00018751604 -0.00010994109
000180 fa 8e 54 3f 20 19 c3 39 24 75 c3 39 64 de c6 b9
       0.83030665 0.00037212018 0.00037280575 -0.00037931197
000190 22 81 9d 39 f5 09 90 b9 b5 4d 9d b8 f0 b5 b5 38
       0.00030041585 -0.0002747324 -7.5008174e-05 8.664641e-05
0001a0 6c d4 0a b9 e6 c2 98 b9 7c 32 04 b9 ea ad e3 3d
       -0.00013239839 -0.0002913691 -0.00012607308 0.11117156
0001b0 6b 0e ae b9 ce fd cc 39 82 05 1c 39 9b 31 38 b9
       -0.00033198608 0.0003909901 0.00014879371 -0.00017566087
0001c0 c6 32 96 39 5b f9 e9 bf 64 13 10 39 02 3e 7e bb
       0.0002864806 -1.8279222 0.00013740134 -0.0038794284
0001d0 d8 88 7d b8 2c 07 0a b7 58 6c e5 b9 90 7d 32 b9
       -6.0447346e-05 -8.227111e-06 -0.00043759006 -0.00017022179
0001e0 04 44 c0 b8 fc a9 17 b8 3a 53 90 b8 9e 71 38 ba
       -9.167942e-05 -3.6159516e-05 -6.881957e-05 -0.0007035973
0001f0 48 49 b6 b8 7d ac 48 39 f5 65 d2 38 99 a9 92 b9
       -8.692086e-05 0.00019137743 0.00010032571 -0.0002797365
000200 4a f9 b1 ba 9e 8b 30 b9 a8 15 97 39 f6 ff 0f 3a
       -0.0013578322 -0.0001683668 0.000288171 0.0005493158
000210 c0 e1 81 b9 64 05 ba b8 4e a9 0d 39 90 60 ce 39
       -0.00024772994 -8.870175e-05 0.00013509879 0.00039363327
000220 b5 44 79 38 71 26 e8 be d6 d6 dd b7 c0 86 d0 b9
       5.9430215e-05 -0.45341828 -2.6445294e-05 -0.00039773248
000230 5f c2 ad b7 56 59 11 39 4f ff 82 39 eb 3c a3 b9
       -2.0713718e-05 0.00013861558 0.00024985752 -0.0003113517
000240 1a b7 b6 39 98 01 c5 b8 dd d2 45 b9 5b 3f ab b9
       0.00034850166 -9.393989e-05 -0.00018865937 -0.00032662865
000250 37 f4 f8 39 9b 2f 52 b9 f1 2b 49 b9 50 73 83 b9
       0.000474842 -0.00020044895 -0.00019185223 -0.00025072182
000260 5d 31 62 3a 66 d7 da 37 13 9f a5 bf 43 ea 24 b9
       0.00086285715 2.6087928e-05 -1.2939171 -0.00015727528
000270 c4 5a 89 39 9e cd 38 38 0e aa 8e 38 78 c4 63 38
       0.00026198302 4.4060514e-05 6.802763e-05 5.4303993e-05
000280 b6 c0 b5 38 60 14 08 39 af 11 07 ba 64 d0 8e 39
       8.666648e-05 0.00012977561 -0.00051524764 0.00027239614
000290 22 c2 f1 38 ab 36 e0 38 bc ef ad b9 d6 d6 3e b9
       0.000115279356 0.00010691335 -0.00033175747 -0.00018199845
0002a0 8b d0 3c b8 76 78 44 bf 7e c0 ea 39 88 ea 3f b9
       -4.5016914e-05 -0.7674631 0.00044775376 -0.00018302549
0002b0 2b 40 c5 bb 21 d6 9d b7 04 08 0d 3a 8d 64 00 ba
       -0.0060196123 -1.881557e-05 0.00053799176 -0.0004897796
0002c0 6b fc 74 bf 73 29 b4 38 f4 84 70 39 b2 39 86 38
       -0.9569766 8.5907894e-05 0.00022937712 6.4003645e-05
0002d0 64 01 c8 38 76 70 50 39 98 5d 36 ba 20 62 35 b9
       9.537002e-05 0.00019878321 -0.00069566956 -0.0001729806
0002e0 e0 e2 25 39 10 4e 56 b9 fa 08 96 b8 26 29 1b 38
       0.00015820144 -0.00020437711 -7.1542294e-05 3.6993202e-05
0002f0 66 77 82 39 bc 65 51 3f b8 e2 df 38 74 c6 08 38
       0.0002488449 0.8179586 0.00010675698 3.260975e-05
000300 28 52 3d b9 a0 0c 99 b7 b6 3c c1 39 43 b4 38 39
       -0.0001805505 -1.82449e-05 0.00036857062 0.0001761476
000310 aa 33 a2 b8 c9 50 8a b9 65 6a 9a b9 e7 2e 02 ba
       -7.734385e-05 -0.000263816 -0.0002945244 -0.00049660954
000320 a6 97 05 b9 83 a2 95 39 22 4b 2a 39 c1 be f4 b9
       -0.00012740362 0.00028540575 0.00016240453 -0.0004668143
000330 75 74 6c 38 dc c5 07 b9 b0 b7 56 bb 9e 7d df b9
       5.6375244e-05 -0.00012948312 -0.0032763295 -0.00042627467
000340 14 52 02 3f 0e dd f5 38 83 c6 d1 38 67 c5 b8 38
       0.5090649 0.00011723685 0.00010002872 8.810573e-05
000350 5c 52 8f b9 2d 78 29 b9 15 ee c3 39 cd c3 e9 b9
       -0.00027336448 -0.00016161865 0.00037370683 -0.00044587106
000360 36 60 6d b9 a8 6f 17 3a 87 12 57 b9 aa 87 08 b9
       -0.00022637923 0.0005776831 -0.000205109 -0.0001302051
000370 b3 c7 28 b9 87 ae f7 b9 74 22 32 b8 95 5c c7 bf
       -0.00016096122 -0.00047241544 -4.2470594e-05 -1.5575129
000380 7d 2c 6c 3f f7 75 12 bf 0f fd 7e 39 56 ff 98 37
       0.92255384 -0.5721125 0.000243176 1.8238712e-05
000390 a2 f6 c6 39 c2 a5 86 bb 49 14 ed bf cc 53 95 b8
       0.0003794926 -0.0041091153 -1.8521816 -7.120482e-05
0003a0 5e 64 a5 39 75 ab 70 ba ee ac e5 39 78 44 09 3b
       0.00031546032 -0.00091808225 0.00043807126 0.0020945352
0003b0 b2 c7 a1 39 f0 48 34 39 1e 98 8c b8 66 bf 0e ba
       0.00030857098 0.00017193309 -6.704054e-05 -0.00054453907
0003c0 01 40 90 b8 5e ad 66 b9 8f 69 28 38 38 e3 cb b6
       -6.878377e-05 -0.00021999094 4.015263e-05 -6.076323e-06
0003d0 f8 a7 e9 bb 13 d7 0a c0 b5 71 53 b9 8a a6 42 be
       -0.007130619 -2.169377 -0.00020164887 -0.19008842
0003e0 80 37 db 39 0c ee e8 37 63 55 b1 ba d5 8c ef 38
       0.00041812286 2.7767404e-05 -0.0013529476 0.0001142264
0003f0 3e 72 7a 39 1b 68 b5 39 4d c8 29 39 5a 31 4f b9
       0.00023884416 0.00034600575 0.00016191714 -0.00019759443

bias f4 [2]
000000 2d 32 25 be 42 16 c2 bc
       -0.16132422 -0.023692254

weight f4 [400, 2]
000000 e7 e3 21 39 d8 45 1d 39 a3 b8 47 39 aa ba 3b 39
       0.00015439057 0.00014998706 0.00019046901 0.00017903247
000010 70 49 4d 39 11 19 51 39 6f c9 21 39 d4 57 01 39
       0.00019577681 0.00019941131 0.00015429196 0.00012335117
000020 f4 1a 27 b9 19 a1 19 b9 a7 00 05 38 20 36 b4 36
       -0.00015936402 -0.0001465123 3.171028e-05 5.370719e-06
000030 a1 28 8f b9 fb b2 5e b9 b0 36 19 39 6e 0a 87 38
       -0.00027305356 -0.00021238245 0.0001461159 6.439244e-05
000040 40 bd 2e b8 5a 08 1f b8 a1 96 d4 38 62 0b e3 38
       -4.1661086e-05 -3.7916332e-05 0.000101370046 0.00010826324
000050 b0 12 be 36 10 81 b3 b7 ac 77 55 b8 c8 15 ca b7
       5.6646168e-06 -2.1398562e-05 -5.089461e-05 -2.409042e-05
000060 e2 9e 45 37 1c c3 5f 38 51 f9 49 b9 38 11 18 b9
       1.1779108e-05 5.3349053e-05 -0.00019261731 -0.00014502264
000070 9d 1f a3 b9 73 86 85 b9 aa c2 85 39 25 c7 56 39
       -0.00031113336 -0.0002546791 0.00025512773 0.00020482817
000080 87 8f 0e 39 b9 fd d1 38 ac bf 3e b9 a2 8a 19 b9
       0.00013595643 0.00010013156 -0.00018191215 -0.00014642862
000090 c6 ec 1f 39 5c ab d3 38 37 a3 32 39 72 55 2c 39
       0.00015251627 0.00010093182 0.00017036205 0.00016435029
0000a0 11 9e 19 38 cf 74 05 38 28 a8 09 b9 76 45 de b8
       3.6625253e-05 3.1818458e-05 -0.00013127981 -0.00010598723
0000b0 d1 a0 80 38 d2 80 1b 38 06 17 00 b8 5a de 37 b7
       6.13347e-05 3.7074853e-05 -3.053902e-05 -1.095942e-05
0000c0 02 5a 08 39 ae e5 98 38 59 61 88 3f 9b 36 e8 3f
       0.00013003501 7.290706e-05 1.0654708 1.8141664
0000d0 1c b3 8c 36 32 6d af b7 5f 46 d4 b7 b5 6c a6 b5
       4.193176e-06 -2.0912474e-05 -2.5305138e-05 -1.2399602e-06
0000e0 ca ff 24 37 0e 14 4e 37 b7 34 a0 b8 cd 21 9e b8
       9.834717e-06 1.2283226e-05 -7.6392134e-05 -7.540323e-05
0000f0 79 bc 56 39 bc 23 31 39 c0 76 8a 38 0a b3 94 37
       0.00020478842 0.00016893347 6.602472e-05 1.7726346e-05
000100 fc 0a 04 39 e6 e6 a9 38 87 67 10 b9 e0 6c 10 b9
       0.00012592593 8.101556e-05 -0.00013771477 -0.00013773469
000110 75 64 18 39 9f cd 30 39 47 be 04 b9 d7 2f c9 b8
       0.00014533273 0.00016861268 -0.00012659385 -9.593338e-05
000120 46 76 67 b9 34 4d 54 b9 21 ae 81 39 83 e9 5d 39
       -0.00022073937 -0.00020246656 0.00024734534 0.00021163192
000130 8f e0 0c 38 71 d2 8a 37 0e 12 0d 40 d3 ae 8d 3e
       3.3587738e-05 1.6548876e-05 2.204227 0.27672443
000140 61 32 95 3e ac e7 4c be 87 a6 fd b7 34 d3 47 b8
       0.2914 -0.20010251 -3.0237496e-05 -4.7641995e-05
000150 6d 92 60 39 c7 1b 32 39 5c 32 ef b8 2a dc dc b8
       0.00021416853 0.0001698575 -0.00011405788 -0.00010531426
000160 24 e8 94 38 de 83 7b 38 f2 e8 cc 38 f0 54 ab 38
       7.1004295e-05 5.9965874e-05 9.7708675e-05 8.169736e-05
000170 ac b4 7a b8 0b f3 4e b8 16 cf 0a 37 0e 31 2f 37
       -5.977291e-05 -4.934058e-05 8.273657e-06 1.0442234e-05
000180 3a 0f ea 39 bd 82 c3 39 d1 d0 ac 37 ce 3d 50 37
       0.00044643303 0.00037290706 2.0601236e-05 1.2412156e-05
000190 74 84 32 b9 5a 68 e2 b8 5d e7 3c 40 86 a6 21 c0
       -0.00017024745 -0.00010795957 2.9516213 -2.5257888
0001a0 3b 9e ef b8 dc 3e a8 b8 60 5d e6 38 b4 51 d4 38
       -0.00011425881 -8.022573e-05 0.00010984647 0.00010124166
0001b0 fa 30 7a 39 30 98 4c 39 68 19 b1 b8 af ef be b8
       0.00023860103 0.0001951165 -8.44475e-05 -9.1045506e-05
0001c0 14 54 4a b9 39 86 3d b9 a3 c6 9b b8 cc 2b 5a b7
       -0.00019295543 -0.00018074446 -7.427975e-05 -1.300401e-05
0001d0 1c 43 61 b8 a8 78 80 b8 82 04 04 b9 bb 34 e7 b8
       -5.370668e-05 -6.1259896e-05 -0.0001259018 -0.0001102476
0001e0 da de 8e 38 b8 3c ae 38 e7 3b 08 b9 09 39 d8 b8
       6.812597e-05 8.308276e-05 -0.00012992286 -0.00010310306
0001f0 fb 60 ae 38 68 91 52 38 7b ca ab b8 72 3a 78 b8
       8.3150306e-05 5.020332e-05 -8.19163e-05 -5.918224e-05
000200 e6 57 c5 38 5b eb f0 38 55 32 2c 37 7e 7c 3d 38
       9.4100644e-05 0.0001148793 1.0263718e-05 4.5177054e-05
000210 dc 66 43 b9 f3 eb 2c b9 64 ea a8 b9 71 30 89 b9
       -0.00018634967 -0.00016491096 -0.00032218092 -0.00026166768
000220 ac f2 0a b8 66 ff 44 37 16 5b d3 b9 50 ed ae b9
       -3.312777e-05 1.1741975e-05 -0.0004031292 -0.00033364678
000230 0f aa f3 b8 53 7b 76 b8 9f 16 47 b8 0c f2 06 b8
       -0.00011618819 -5.8765825e-05 -4.7466365e-05 -3.2173513e-05
000240 fc b4 4a b8 b2 db 29 b8 42 9c 22 39 b7 07 d3 38
       -4.8329108e-05 -4.0497347e-05 0.00015507734 0.00010062701
000250 d2 f6 1e b9 91 b2 24 b9 f8 53 0e 39 cb 69 00 39
       -0.00015160002 -0.0001570678 0.00013573456 0.00012246442
000260 1e cb 83 b9 2d e7 5c b9 6b b7 82 3f 84 2e a6 bf
       -0.000251376 -0.00021066955 1.0212225 -1.2982945
000270 43 69 e0 3d 30 bb 01 be e3 80 91 37 04 64 17 38
       0.10957577 -0.12669063 1.7345365e-05 3.6094352e-05
000280 e3 2f 95 39 96 c6 83 39 86 98 e4 b8 79 bc 3f b8
       0.00028455173 0.00025134225 -0.00010900297 -4.5713477e-05
000290 47 7b a8 bf 76 7c 0a 40 8a 5c d0 38 dd 89 bd 38
       -1.3162621 2.1638465 9.9354496e-05 9.037901e-05
0002a0 9a 5b 18 40 44 90 14 3f 0a 82 fb b7 d4 bd 31 37
       2.380591 0.5803263 -2.9982086e-05 1.059422e-05
0002b0 65 84 21 39 01 9f 08 39 ff 67 5c b9 73 30 0c b9
       0.00015403477 0.00013029204 -0.00021019577 -0.00013369489
0002c0 1d 0b fa b9 f9 43 c1 b9 40 30 3c b9 df 39 c1 b8
       -0.00047691996 -0.00036862472 -0.00017947052 -9.2137365e-05
0002d0 99 92 ad b8 0a 1c bc b8 1d 6e 05 b9 7c 8d 0a b9
       -8.276589e-05 -8.969761e-05 -0.00012724889 -0.00013213413
0002e0 7c ee 10 b9 00 7e c8 b8 a8 c9 b1 37 45 0c 28 38
       -0.00013821753 -9.5602125e-05 2.1193948e-05 4.0065748e-05
0002f0 15 7b 76 38 39 c8 b9 38 0d bb f5 3d fb b6 49 be
       5.87656e-05 8.858782e-05 0.11998568 -0.19698708
000300 e1 83 3c 39 6e 59 03 39 16 a7 40 b9 cf f6 02 b9
       0.00017978206 0.00012526449 -0.00018372791 -0.0001248971
000310 9b 45 04 3f 7a 8e 9f bf ed 33 c4 b9 bc ef 98 b9
       0.5166871 -1.2465355 -0.0003742272 -0.00029170315
000320 1f 19 da b8 4f 5c b0 b8 08 33 90 b8 82 72 09 b8
       -0.00010399729 -8.409528e-05 -6.8759604e-05 -3.276999e-05
000330 08 54 28 b8 00 d7 d3 b7 d3 c6 93 b9 75 08 6e b9
       -4.013258e-05 -2.5253277e-05 -0.0002818616 -0.00022700599
000340 9d b8 c1 38 e8 fd a8 38 a2 af dc 38 a1 0f c4 38
       9.237344e-05 8.058158e-05 0.00010523132 9.3489194e-05
000350 29 32 84 b8 bc e3 b8 b8 db e3 65 c0 3b 91 ad bf
       -6.3035935e-05 -8.8162225e-05 -3.5920322 -1.3559946
000360 df 02 9c 38 47 9b d0 38 f5 3a d7 38 a2 c8 ef 38
       7.4391945e-05 9.9471355e-05 0.000102629805 0.00011433779
000370 48 44 2a 39 bf e9 fa 38 bb ea eb b8 d1 24 d2 b8
       0.000162379 0.000119644676 -0.00011249395 -0.00010020438
000380 53 d4 b1 38 b3 f5 97 38 03 c0 97 b8 44 62 6c b8
       8.479566e-05 7.246006e-05 -7.236006e-05 -5.63583e-05
000390 5c 13 0a 40 b2 da fb bf 80 3f bb 35 d8 69 5a 37
       2.1574316 -1.9676116 1.3951067e-06 1.3018456e-05
0003a0 c2 fb a2 39 29 d0 8c 39 87 44 82 38 6d fa b5 37
       0.00031086622 0.00026857972 6.211647e-05 2.1693495e-05
0003b0 33 31 00 3f 5d 3c 1d 3f 0e 1d 41 3f 24 f6 1e 40
       0.5007507 0.6142023 0.7543496 2.4837732
0003c0 c4 26 6f b8 8d 6e 2c b8 c9 64 e9 38 f4 27 c6 38
       -5.7018144e-05 -4.1110954e-05 0.000111290785 9.4488176e-05
0003d0 10 ac 40 b9 28 cf 20 b9 df dd 95 b8 e1 af 6d b8
       -0.00018374645 -0.00015335961 -7.1462004e-05 -5.6669003e-05
0003e0 40 96 96 39 80 2c 5b 39 77 8a 09 b9 06 f1 de b8
       0.00028722174 0.00020902045 -0.0001311692 -0.00010630679
0003f0 33 58 b3 37 74 48 a7 37 50 2a fc b8 5d c4 54 b8
       2.1379534e-05 1.994169e-05 -0.00012024178 -5.0727616e-05

bias f4 [400]
000000 c6 84 7f 39 de 03 b0 39 1e 64 e2 39 07 6a 94 38
       0.00024368157 0.00033572217 0.00043180672 7.076939e-05
000010 97 b7 82 b9 97 b8 8b b8 36 62 36 b9 16 f5 cd 37
       -0.00024932317 -6.662419e-05 -0.00017393459 2.4552031e-05
000020 a6 45 a8 b8 91 4b 2c 39 18 92 70 b7 5f 54 87 b8
       -8.023837e-05 0.00016431349 -1.433913e-05 -6.453017e-05
000030 f1 fa 58 39 bc fb 81 b9 6b 1f fb b9 e8 a0 76 39
       0.00020692848 -0.00024792354 -0.0004789786 0.0002352033
000040 68 fd ff 38 78 50 80 b9 80 4b 49 b8 53 33 28 39
       0.00012206548 -0.00024474016 -4.799245e-05 0.00016040848
000050 ce b6 a5 38 cc 6e 70 b9 20 f5 f4 b7 28 30 69 38
       7.901863e-05 -0.00022929459 -2.9201212e-05 5.5596378e-05
000060 16 49 7a 38 37 a7 3f bf b3 08 6b b9 25 cb 2a 38
       5.967271e-05 -0.74864525 -0.00022414587 4.072035e-05
000070 cb 87 6a b7 00 1b 17 b9 23 41 76 39 0c 07 17 b8
       -1.3979104e-05 -0.0001441054 0.00023484654 -3.600777e-05
000080 da a0 1a 39 50 e7 8c b9 58 c1 84 39 34 19 d5 b8
       0.00014746506 -0.00026875222 0.00025321054 -0.00010161326
000090 30 5f e4 b9 b4 33 6a 39 c4 3a ef 38 7e 3f 86 3e
       -0.0004355847 0.0002233524 0.00011407354 0.26220316
0000a0 45 f9 97 bd e6 01 e3 b8 5d 20 5c 39 e1 f9 35 b9
       -0.07420591 -0.00010824557 0.00020992891 -0.00017354592
0000b0 1f 38 fd 37 1a 2c 34 39 6a be c9 b8 4e 07 50 38
       3.0186084e-05 0.00017182567 -9.619894e-05 4.9597867e-05
0000c0 d4 b9 12 3a 9d 76 8e b8 6d ca ff b8 85 81 2d 3f
       0.00055971486 -6.793181e-05 -0.00012197052 0.67775756
0000d0 34 4a dc b8 19 f7 b3 38 69 69 66 39 c7 b2 e5 b8
       -0.00010504239 8.581411e-05 0.00021973778 -0.00010952871
0000e0 78 53 a8 b9 38 c7 bb 38 7e ef b9 b8 25 54 27 b9
       -0.00032105646 8.953962e-05 -8.866096e-05 -0.00015957707
0000f0 ca 9a ae 38 e1 03 47 b9 f4 b2 92 38 bf c7 f4 b8
       8.325798e-05 -0.00018979564 6.995155e-05 -0.00011672032
000100 ab a5 36 39 24 89 0e 39 8a c4 2c b9 e7 13 f5 b9
       0.00017418589 0.00013593264 -0.00016476415 -0.0004674487
000110 5a d2 e6 37 8d c8 d7 b9 9c 72 af b8 85 ee 0a b9
       2.751609e-05 -0.00041157418 -8.365998e-05 -0.00013249561
000120 f1 c3 3b 39 d0 0b f6 38 7c 2c 40 b9 63 3e 1a 39
       0.00017906704 0.00011732394 -0.00018327119 0.00014709825
000130 25 0c 9f b9 e9 71 8b 3e a6 3b 49 bc b6 e8 2b 39
       -0.00030335892 0.27235344 -0.012282288 0.00016394522
000140 ec d3 87 39 3c 3d 5e b7 86 1d 75 3d 6d 0f 29 39
       0.000259071 -1.3246488e-05 0.05984261 0.00016122842
000150 fb c8 14 bf e7 61 4c 38 e0 95 29 39 0f 8d ae b8
       -0.5811917 4.872857e-05 0.00016172929 -8.323241e-05
000160 29 d9 88 b9 d1 a2 b9 b8 15 14 42 b9 5d 6c 54 b9
       -0.00026101738 -8.851814e-05 -0.00018508763 -0.00020258264
000170 46 84 cd b8 9c a3 86 38 a8 7d 80 38 e2 5c d1 bb
       -9.7997996e-05 6.4200925e-05 6.126921e-05 -0.0063892463
000180 e8 74 f1 38 0c d0 12 b9 4e 91 bb be a8 52 d8 b9
       0.00011513551 -0.00014001149 -0.36634296 -0.00041260314
000190 e0 91 00 b9 80 9e 79 37 dd 6b 05 b8 23 b5 b8 b9
       -0.00012261374 1.487846e-05 -3.1810127e-05 -0.00035230172
0001a0 ce b0 12 39 20 90 90 39 52 5d 25 b9 b3 e4 52 3f
       0.0001398951 0.00027573202 -0.00015770391 0.8238022
0001b0 48 26 6b 39 8b d1 60 39 2b 71 38 39 88 c0 36 b9
       0.00022425607 0.00021440366 0.00017589766 -0.00017428596
0001c0 06 07 24 39 c2 fe 5d b8 a6 b2 18 bf ec 4d bb 37
       0.00015642875 -5.2927768e-05 -0.59647596 2.2328422e-05
0001d0 ad 83 c6 39 47 f1 36 b8 65 31 1e bf a4 a0 10 bf
       0.0003786361 -4.361689e-05 -0.6179412 -0.5649512
0001e0 aa 6b 98 b8 cf 96 9d 39 09 6a 93 b9 fd 1d 91 b8
       -7.267979e-05 0.00030057735 -0.00028117027 -6.9197245e-05
0001f0 e0 9f 43 37 b6 29 09 b9 78 4b 20 37 ea a9 30 b8
       1.16601295e-05 -0.00013080877 9.554315e-06 -4.2119915e-05
000200 5b 78 01 b9 86 7b 80 b9 3f 4a 4e bf bd 16 ac b9
       -0.00012347235 -0.00024506095 -0.8058204 -0.00032823338
000210 16 a0 d7 b8 ea c5 93 38 97 15 ab b9 14 5e 02 3a
       -0.00010281817 7.0463706e-05 -0.00032631747 0.0004973125
000220 33 bc f3 3c fa bb 6e b9 98 03 47 b8 fc 8c ad 37
       0.029752826 -0.00022767475 -4.7448644e-05 2.0688858e-05
000230 f6 07 35 b9 e1 ff 26 bf a9 ea 45 b9 3f 78 48 39
       -0.00017264471 -0.6523419 -0.00018874802 0.00019118281
000240 ae 12 f8 38 e3 fd 07 ba ed 40 2b ba 16 ed 59 38
       0.00011829041 -0.00051876734 -0.0006532807 5.1957635e-05
000250 a5 8c 4f 38 ed 40 07 39 d6 7f 52 b8 bf c9 36 39
       4.948363e-05 0.0001289879 -5.0186958e-05 0.00017432029
000260 ce 7d e5 39 5b 49 cd b7 2e 4c 42 39 54 62 d3 b8
       0.00043772015 -2.4472063e-05 0.00018529661 -0.00010079579
000270 f4 a9 4a 39 c2 12 cb 38 88 37 f4 38 7d c2 d1 39
       0.00019327534 9.683288e-05 0.0001164517 0.00040008491
000280 44 49 7f 37 02 45 0a 39 14 28 b7 38 3c e8 80 b9
       1.5216243e-05 0.00013186413 8.733585e-05 -0.0002458709
000290 13 88 d3 37 26 27 15 39 59 e8 47 b9 00 40 11 39
       2.5216525e-05 0.00014224331 -0.00019064675 0.0001385212
0002a0 f4 a8 55 b9 ac 0d 48 b9 e0 24 80 b7 9f 6f 99 39
       -0.00020376203 -0.0001907858 -1.527596e-05 0.00029265598
0002b0 86 13 31 b8 51 9b 1c b8 6e 68 95 b8 11 ca 41 b9
       -4.221827e-05 -3.7337948e-05 -7.124325e-05 -0.0001848119
0002c0 d8 b1 dd b8 85 e3 ec be 2c c1 25 39 13 82 9b b9
       -0.00010571227 -0.46267334 0.00015807588 -0.00029660817
0002d0 70 29 ba 39 3d 92 11 b9 0a bd c3 b7 57 a5 3e b9
       0.00035507558 -0.00013882756 -2.333384e-05 -0.00018181406
0002e0 fa ea 96 b9 ac c5 93 b8 5f 45 03 b9 fa b4 cd 3d
       -0.000287853 -7.0463255e-05 -0.00012518976 0.10044284
0002f0 af 73 9e be 5f 1a 34 b9 0a fa d1 38 1a e8 c6 38
       -0.30947635 -0.00017175962 0.0001001247 9.484608e-05
000300 f7 89 c2 b8 9a 1c 0d b8 aa 0f 6d 38 ca e2 1e ba
       -9.276339e-05 -3.3643657e-05 5.651979e-05 -0.0006061016
000310 eb 25 48 be 2d f5 73 39 e0 4e 80 39 0a e2 0d 39
       -0.19545715 0.00023265621 0.0002447283 0.00013531014
000320 a2 0a 0e b8 9a f9 a0 39 6e e1 57 b8 00 c3 08 b9
       -3.386534e-05 0.00030703546 -5.1469942e-05 -0.00013042614
000330 11 b3 64 39 c6 96 8f b9 46 b1 2d 3a aa 4a 68 b9
       0.00021810482 -0.0002738742 0.0006625842 -0.00022153059
000340 df 7a f4 b9 33 2f a6 b9 f8 55 d6 38 57 58 b6 3e
       -0.00046630853 -0.00031697153 0.00010220328 0.35614273
000350 1a ca 2a b7 13 fa 3c b9 9c 94 83 b9 2b 94 97 b9
       -1.0179845e-05 -0.00018022237 -0.0002509699 -0.00028911358
000360 68 c1 06 38 df ad 99 39 bf 6a bf 39 3b 1f ec b9
       3.2128213e-05 0.00029311978 0.0003650989 -0.00045036696
000370 58 5f ce 37 6d 24 45 b9 d6 5f 49 39 36 22 73 39
       2.4601512e-05 -0.00018800954 0.00019204555 0.0002318703
000380 c6 25 18 39 00 68 0f 34 c8 8a 0d b9 04 6a dc 38
       0.00014509921 1.3355748e-07 -0.00013498508 0.000105101644
000390 82 de 14 b8 bf 7d 1b b8 56 3d 0c 38 63 2d 11 3d
       -3.5493176e-05 -3.707199e-05 3.3435725e-05 0.035443675
0003a0 42 4c 87 b9 c0 57 5a 39 d6 34 16 39 28 06 6c 37
       -0.00025806023 0.0002082279 0.00014324798 1.40681295e-05
0003b0 68 72 d8 b8 97 e7 97 b9 4b 72 08 b9 02 98 e0 37
       -0.000103209924 -0.00028973512 -0.00013012548 2.6773665e-05
0003c0 a2 a9 8f b8 55 42 88 39 be 35 1c 39 93 c9 ed 39
       -6.850368e-05 0.00025989363 0.0001489734 0.00045354347
0003d0 be 85 71 b8 e6 dd b8 b8 f4 9d 8f b9 7b 16 d9 37
       -5.7583435e-05 -8.8151355e-05 -0.0002739277 2.5878884e-05
0003e0 6f 6f 55 3e 12 bb 51 b9 26 78 5d b9 45 f8 e7 38
       0.2084329 -0.00020001482 -0.00021120961 0.00011061182
0003f0 a2 d9 95 38 b8 31 1d b9 8e 54 9f b8 ed ee a6 39
       7.145411e-05 -0.00014991208 -7.59746e-05 0.0003184

weight f4 [192, 400]
000000 c9 20 fc b9 6c e8 c7 39 f7 27 89 ba 21 de 04 3a
       -0.00048089612 0.00038129406 -0.0010464181 0.00050685
000010 9d fb 6c b9 65 70 a1 39 5c 67 da b9 58 58 01 3a
       -0.00022600447 0.00030792053 -0.0004165721 0.0004934124
000020 da f8 fb 38 72 fd 3c ba 06 6d d0 38 72 19 80 b6
       0.00012014965 -0.0007209397 9.93852e-05 -3.8176595e-06
000030 50 55 25 b8 9d 66 36 39 73 de 23 3a d6 9e e5 39
       -3.941852e-05 0.00017395099 0.0006251104 0.00043796626
000040 81 f3 ad 3a 1f fb 6f 39 0d f9 4f ba bf 55 ff b8
       0.0013271422 0.00022886366 -0.0007933535 -0.00012175319
000050 eb d6 07 ba f7 08 7d 39 e6 e2 67 b9 e1 c0 0f 3a
       -0.00051818666 0.000241313 -0.00022114403 0.0005483758
000060 99 ba 92 39 29 20 87 3d 93 06 1d 39 62 0e 3c ba
       0.00027986316 0.06597931 0.00014975136 -0.0007173774
000070 76 cf 2b 3a d8 d2 29 b6 54 71 15 ba bf db 8f ba
       0.00065540464 -2.530569e-06 -0.0005700786 -0.0010975524
000080 7b 6b 92 38 2c c9 ed b9 66 de de b8 be ec da b9
       6.981842e-05 -0.00045354047 -0.0001062721 -0.00041756587
000090 3c 3b 83 39 25 35 5f 3a 86 7b 27 ba 3f fc 20 bd
       0.000250304 0.0008514694 -0.0006388951 -0.03930306
0000a0 ef 25 68 3f 84 44 b1 b9 1e 9b c9 39 51 7a ea b9
       0.9068288 -0.0003381112 0.0003845328 -0.0004472309
0000b0 ba 28 b3 b9 26 3d e6 37 58 8c 30 3a 2c 6d 2a 3a
       -0.00034171884 2.7446611e-05 0.000673478 0.0006501253
0000c0 a5 af b6 3a 94 53 15 b8 2b 75 88 39 65 4a 8b 3e
       0.0013937844 -3.5602206e-05 0.00026027238 0.27205196
0000d0 f8 c3 04 3a ef 10 b9 3a 56 e6 a8 39 1a 43 fe b8
       0.0005064602 0.0014119426 0.0003221507 -0.000121241625
0000e0 98 8c 73 ba 24 b1 ce b9 89 63 4b 39 99 30 df 39
       -0.00092906645 -0.00039423362 0.00019396668 0.00042570083
0000f0 e6 ed 93 3a f8 5b e7 b9 ae 30 98 38 b2 32 99 b8
       0.0011286109 -0.00044128275 7.256992e-05 -7.305051e-05
000100 88 c0 14 38 81 8b 90 b8 e6 c9 16 38 1d e3 a0 ba
       3.546526e-05 -6.89244e-05 3.595082e-05 -0.0012274716
000110 14 56 e3 39 37 0b bd ba a7 9c 13 3a 56 9a b6 39
       0.00043360947 -0.0014422898 0.0005630948 0.00034828734
000120 50 65 a1 ba b9 66 5c 3a 31 c2 d7 b9 f1 07 90 37
       -0.0012313519 0.0008407641 -0.0004115268 1.7169836e-05
000130 af 0a 11 ba 0a 59 8e bf 46 2f 9f 3e a0 c0 60 39
       -0.0005532903 -1.1120923 0.31090754 0.00021434063
000140 07 32 8f 3a 8f 96 e1 37 6d 41 c2 3e d7 95 62 3a
       0.0010924943 2.68922e-05 0.3794054 0.00086435437
000150 d3 94 f8 3d 48 4f 4b 39 12 45 89 39 9d d1 2f b9
       0.12137761 0.00019389123 0.00026182138 -0.00016767388
000160 6d 73 9c ba c1 60 05 3a 83 cf 24 ba 10 80 39 b8
       -0.0011936255 0.0005087965 -0.0006287025 -4.4226705e-05
000170 5b a7 cc b9 3a 51 17 ba e2 30 e3 b8 95 0c 5a 3e
       -0.00039034602 -0.00057722966 -0.000108333086 0.21293862
000180 9b e3 6e 3a 68 4a 93 3a 58 36 15 bf 60 12 d1 36
       0.00091128953 0.0011237385 -0.58286047 6.2308245e-06
000190 86 15 3e b7 d3 b3 95 b8 38 14 9e 38 7f 49 4f 3a
       -1.1329894e-05 -7.1383685e-05 7.537793e-05 0.0007907375
0001a0 44 7b 20 39 21 c6 f6 b9 98 b2 dd 39 69 6a 80 3d
       0.00015304709 -0.00047068394 0.00042285467 0.06270296
0001b0 a7 4b 04 39 cb d2 aa b9 2f d2 1b ba 37 af 3b b9
       0.00012616684 -0.0003258198 -0.00059441006 -0.00017898982
0001c0 57 4c 2c 39 de 28 0b 3a 90 36 c8 3e 8f bc 57 ba
       0.00016431637 0.0005308519 0.39104128 -0.00082296965
0001d0 4f 05 ec 39 90 28 b9 3a 36 71 64 be dd ce 7b be
       0.00045017383 0.0014126468 -0.22308812 -0.24590631
0001e0 16 e7 dc 39 9e ab cf 39 52 cb 7c 38 d4 53 b4 39
       0.00042133842 0.00039609981 6.027084e-05 0.00034394732
0001f0 ae 41 36 3a 4e 5a 6b b8 18 a1 1b 38 32 85 35 b9
       0.0006952536 -5.611247e-05 3.710491e-05 -0.00017311124
000200 66 27 1c ba 28 23 30 b9 31 9d d5 be 52 96 86 b8
       -0.00059567986 -0.00016797765 -0.4172149 -6.417617e-05
000210 4b 98 18 ba 89 63 10 3a 62 12 16 ba 18 d9 3e 3a
       -0.0005821033 0.0005507996 -0.0005724785 0.00072802743
000220 4f bc 0b 3e c3 c4 10 3a 71 a8 44 b9 3f b9 e3 39
       0.13646053 0.0005522484 -0.00018754766 0.00043434833
000230 1b 57 41 3a e6 ae 12 ba db 22 c7 b9 b5 9f a4 39
       0.00073753454 -0.000559552 -0.00037982207 0.0003139951
000240 24 4c 27 3a f2 69 cb b9 c8 90 cb 39 78 63 80 39
       0.000638189 -0.00038798113 0.00038827048 0.00024488172
000250 70 b5 1f ba 90 d3 ee 38 ff 3c b2 ba 54 27 4b ba
       -0.0006092405 0.00011388131 -0.00135985 -0.0007749696
000260 f0 2f bf 39 b4 5b 97 b9 8d f4 ab 39 b6 e1 20 3a
       0.00036466075 -0.00028869289 0.00032797866 0.0006137149
000270 e6 72 2f ba 5f 35 b4 39 bf 7b e2 39 17 82 0e 3a
       -0.00066928414 0.0003437204 0.00043198277 0.0005436255
000280 b1 33 1e ba 53 15 cc 3a 4e 84 5f 39 9f ee 7d 3a
       -0.00060349243 0.001557032 0.00021316225 0.00096867414
000290 54 9d f4 b9 a4 97 7b 3a 74 bf fc 38 35 cc 92 39
       -0.00046656525 0.00095974864 0.00012051957 0.00027999436
0002a0 37 b8 2a ba e2 e7 83 39 2b a8 1f ba 54 3d 77 37
       -0.00065124355 0.00025159033 -0.00060904276 1.4736626e-05
0002b0 f6 50 92 37 08 44 95 39 0c 83 89 b9 64 b1 3b 3a
       1.7442257e-05 0.00028470182 -0.00026228314 0.0007159917
0002c0 3d 95 40 3a 90 86 b2 be d6 84 62 b9 e7 49 92 ba
       0.0007346457 -0.34868288 -0.00021602525 -0.0011160941
0002d0 47 60 35 b8 0c 2f 37 ba c3 f5 89 b9 6d ef 94 b9
       -4.3243428e-05 -0.00069879065 -0.00026313783 -0.00028407146
0002e0 9a d9 5b b9 13 6f f8 38 4a 95 14 ba 0a 1a d7 bd
       -0.0002096653 0.00011846251 -0.0005667998 -0.105030134
0002f0 dd 03 33 bf 5e 86 f7 39 72 06 a4 ba 1b 5f 0d ba
       -0.6992777 0.00047211623 -0.0012514128 -0.0005392895
000300 cc 4c b7 b9 01 81 19 39 43 4e 2b 3a 0b 0d 7e 3a
       -0.00034961698 0.00014639275 0.0006534794 0.00096912746
000310 ea c9 00 be a1 36 13 3a f6 47 01 3a c2 d3 c8 b9
       -0.12577024 0.00056157453 0.00049316825 -0.00038304745
000320 50 74 78 b9 42 71 0a 3a 47 55 38 39 07 e1 cd b9
       -0.00023694453 0.0005281159 0.00017579376 -0.00039268305
000330 52 79 e5 38 15 bf bd 3a 77 41 3e 3a cd b1 b5 39
       0.000109421686 0.0014476503 0.000725768 0.00034655482
000340 2f a0 6a ba d4 fc 82 b9 95 da a0 b9 5c e9 e3 3e
       -0.0008950261 -0.00024983904 -0.00030680434 0.44513977
000350 57 e1 c1 39 1b 98 2b 3a f0 59 6e 39 4a f1 5b b8
       0.0003697972 0.0006545798 0.00022730953 -5.2438387e-05
000360 b3 4e 8e ba 6e e1 d7 3a 72 ac b1 39 44 56 d5 b9
       -0.0010857194 0.0016470382 0.00033888553 -0.000406908
000370 63 06 98 39 28 fa 11 b9 22 c7 5c b9 84 4b 45 38
       0.00028996458 -0.00013921468 -0.00021055018 4.703879e-05
000380 c0 66 00 ba 59 ee 0a ba 4e c3 3f 39 f0 10 1b ba
       -0.00048981234 -0.0005299799 0.00018287936 -0.00059153046
000390 23 4b 1b 3a 74 cc 25 39 79 f8 bf b7 19 6b 96 bf
       0.0005923977 0.00015811791 -2.2884678e-05 -1.1751434
0003a0 5e 15 0f ba a2 82 8a b9 1d 3c ef b9 00 0e 83 39
       -0.0005458201 -0.0002641874 -0.0004563042 0.00024996698
0003b0 22 78 8d 3a a5 2b fb b9 4d 46 03 ba f2 a4 24 39
       0.0010793249 -0.00047906968 -0.0005007729 0.00015701706
0003c0 31 a0 00 ba 30 3e d3 39 50 96 17 b9 78 54 cc 37
       -0.0004906683 0.0004029139 -0.00014456478 2.4358029e-05
0003d0 e7 c3 4c 39 71 7e a8 3a ee 6e b0 ba be 5b e0 39
       0.00019527935 0.0012855065 -0.0013460794 0.00042792963
0003e0 0c cb 1c bf e3 88 25 ba 7d 70 8a b8 06 bc df 3a
       -0.61247325 -0.0006314648 -6.601305e-05 0.0017069585
0003f0 6c f9 80 ba 47 a2 38 ba 40 5b c4 39 10 0b 9b 39
       -0.0009839959 -0.0007043224 0.0003745202 0.00029572146

bias f4 [192]
000000 b1 1e d4 bd 09 43 33 bd be 17 b7 be 3f 0d 0c 3d
       -0.103574164 -0.0437651 -0.357603 0.03419232
000010 79 db 2a bb 05 ce 21 bd fe d4 c5 3a 35 aa aa bd
       -0.0026070757 -0.039503116 0.0015093384 -0.08333246
000020 da aa f5 3e 5a 17 a9 ba e5 15 57 be f6 9f a8 bd
       0.47981912 -0.0012900636 -0.21004446 -0.08233635
000030 1d 4c ba 3d 73 7e 3d 3c e0 4d ab bc 6e aa 19 bc
       0.09096549 0.011565792 -0.020911157 -0.0093790125
000040 d0 ea 13 bc fa 65 79 bd 90 08 2b 3d b3 8d c5 bc
       -0.009028152 -0.060888268 0.041756213 -0.024115419
000050 10 bc 9a bd 95 68 3a bd a6 7d ef 3d 64 cf 5b 3d
       -0.07555401 -0.045509893 0.116938874 0.05366458
000060 3d df 17 3b b9 6c 44 be df 25 a3 bb fb 41 b8 bb
       0.0023173832 -0.191821 -0.00497888 -0.0056231
000070 46 6b 82 bd 5a 00 a6 3d 2f 86 37 bd 3c 70 f7 bd
       -0.06368117 0.08105536 -0.0448057 -0.12081954
000080 a5 17 9d 3c 76 99 49 bd 17 9c c9 bb 98 3d af bd
       0.019176314 -0.049218617 -0.0061526406 -0.0855667
000090 b5 51 5e 3d cb 74 00 3e 45 52 b3 bd c2 d4 fa bc
       0.05427714 0.12544553 -0.08755926 -0.030619029
0000a0 b7 f2 6f 3d f1 96 8c bd eb 38 04 3e 2a 78 a2 3d
       0.05858108 -0.06864727 0.12912337 0.07933076
0000b0 ea 11 8f bd 2d b9 37 3d 4e d9 af 39 c3 77 2b 3d
       -0.06985839 0.04485433 0.00033540506 0.04186226
0000c0 28 d1 d0 3d 13 f6 83 3c 60 02 4f 3c 71 0a 06 bd
       0.101961434 0.016108548 0.012634844 -0.0327248
0000d0 fc 75 dd 3c 00 be 82 bd 3f 16 c5 bb 5d 1f 5e bc
       0.027033798 -0.06383896 -0.006014615 -0.013557282
0000e0 de 88 99 bd 3e bb b2 ba 45 dd d2 3d 5a 58 4c 3d
       -0.074968085 -0.0013636125 0.1029611 0.049888946
0000f0 4f 96 df bc 42 30 89 bc ef e6 04 bd 00 25 1c 3d
       -0.027293352 -0.016746644 -0.032446798 0.038121223
000100 d7 c8 82 3b 31 39 03 3b da a2 a9 3c 91 06 e5 bc
       0.003991227 0.0020023102 0.020707536 -0.027957233
000110 4a 12 62 3d 65 c2 33 3b da 55 36 bd 7b df b0 bc
       0.055193223 0.00274291 -0.04451547 -0.021590939
000120 de a6 5b 3a 8c 13 ba bc a4 a7 55 3d 12 ed 4e ba
       0.0008379052 -0.022714399 0.052161828 -0.00078936026
000130 48 32 db bc 58 cb cc 3a 2c ff 35 bd 86 dd ce bc
       -0.026757374 0.0015624566 -0.044432804 -0.025252115
000140 84 b3 df bb 1f f9 52 3d 60 b2 18 3d 29 58 02 bd
       -0.00682682 0.05150711 0.037279487 -0.031822357
000150 0b 36 e5 bc a1 f0 f6 ba d7 11 0a bd 44 f2 85 3c
       -0.027979871 -0.0018840024 -0.03370842 0.016350873
000160 83 3b b3 3c eb a9 7f ba 97 7c cf bc 68 bf 04 3d
       0.021878963 -0.0009752798 -0.025327964 0.0324091
000170 9d 32 a9 3c 91 9e 10 bd 75 b8 2c bd 8d 87 80 bc
       0.020654017 -0.03530747 -0.0421681 -0.015689636
000180 62 a2 aa 3b 57 cb 73 bc 2e 89 c3 3d e6 7f 2b bc
       0.005207346 -0.014880023 0.09547649 -0.010467505
000190 b1 1c 46 bd d6 39 a6 3c 18 d6 44 bd d0 f6 0c bd
       -0.048367206 0.02029125 -0.04805574 -0.034415066
0001a0 a8 65 16 bd 89 15 2e 3d 19 11 75 3d 82 e8 28 bd
       -0.03671804 0.042501006 0.05983076 -0.04123736
0001b0 1c df 3a bb a1 f1 5c bd 4e d4 02 3d 53 c0 7e 3b
       -0.0028514331 -0.053941373 0.03194075 0.0038871958
0001c0 b7 94 f9 bc ae 3d c7 3c ff 28 fc bc b8 e5 99 bd
       -0.03046642 0.024321403 -0.030781267 -0.075145185
0001d0 6d aa d2 3a 0f 30 07 3d 97 df 66 3c 09 77 8b bd
       0.0016072519 0.033004817 0.014091394 -0.068098135
0001e0 52 18 0f bb 81 64 8e bc b5 77 41 3d 5f 6c 1d bd
       -0.0021834564 -0.017381908 0.047233302 -0.03843343
0001f0 e8 f8 32 bd c5 9f 49 3d 4f 70 70 bd 5c c1 b1 bc
       -0.043694407 0.049224634 -0.058700856 -0.021698646
000200 e4 96 fb bc 7d 88 e0 3c d3 7f f9 3c 45 e2 9b bd
       -0.030711599 0.027408833 0.03045646 -0.07611517
000210 ae d4 6c bd 6b 81 9b bc d8 4c a4 bd eb c3 90 3d
       -0.057820015 -0.01898261 -0.08022469 0.070686184
000220 c3 0b f8 bc 3e 3b f4 3c 0e 3b 9f bc f7 81 2a 3c
       -0.030279046 0.029813405 -0.01943734 0.010406963
000230 4e 7f e0 3d 34 6f 27 bd 0b 27 cd bd 0c 48 a2 bc
       0.109617814 -0.040877536 -0.100172125 -0.019809745
000240 4d 6c 89 39 42 ff e1 bb f0 db 9f 3c 7c 66 2a bc
       0.00026211367 -0.006896884 0.019514054 -0.010400411
000250 35 4c 1f 3d e5 16 b4 3b ef 18 96 3a e9 9c 0c 3c
       0.038891036 0.0054958933 0.0011451523 0.008582332
000260 e4 0e dd bc 60 61 29 bd 4b 3e 0f 3c 20 b9 f8 bb
       -0.02698464 -0.04135263 0.008742879 -0.007590428
000270 4d 06 fe bc fa 38 b1 3c 52 47 7f 3c 65 4c 04 bc
       -0.031008864 0.021633614 0.015580969 -0.0080748545
000280 38 61 24 3d 3d 80 f8 bc 4a e8 35 3c de 2d 55 3d
       0.040131778 -0.030334586 0.011102745 0.052045695
000290 51 42 b9 bb 49 8a af bb 38 66 b4 3b 4e 67 73 bb
       -0.0056536575 -0.005357061 0.0055053495 -0.0037140432
0002a0 5a 92 ac 3d 0a 09 b4 3c b7 c0 0c 3d 08 ff 38 bd
       0.08426352 0.021976966 0.034363475 -0.04516509
0002b0 97 b3 0a 3d 0b d1 cc bc 4b 90 19 3d b6 3d e1 ba
       0.033862676 -0.025002023 0.037491124 -0.0017184529
0002c0 bf 9a c6 bd cd 2f a1 bc 4f 6d d0 3d f3 d6 6c 3d
       -0.09697484 -0.019676114 0.10177099 0.05782218
0002d0 c2 e7 52 3d c8 f9 97 bc dd 16 79 bb fe d5 c6 bc
       0.051490553 -0.018551722 -0.0038008012 -0.024271961
0002e0 5f 93 14 bd 6a cc 6e bc b0 b2 6f bc f9 b7 9a bd
       -0.036273357 -0.014575103 -0.014630005 -0.07554621
0002f0 23 ef a6 bc 5e a5 64 bc f4 13 81 3d bc 4b c8 bc
       -0.020377701 -0.013955442 0.06302634 -0.024450175
